Proposed model/saved_best_DNN_model/0.39289model_fingerp8.pth (torch, 216672 bytes, 19 tensors)

lin1.weight f4 [180, 166]
0	0xbbc492c4	-0.005998941
1	0x3c18c10f	0.0093233725
2	0xbd0b16b9	-0.033957217
3	0x2f5397f4	1.9244323e-10
4	0xbcb8b0aa	-0.022545177
5	0x3d895188	0.06705004
6	0x3925a895	0.00015798428
7	0x3bf7159c	0.007540418
8	0xbd911400	-0.07083893
9	0x3d095e29	0.033537064
10	0x3d142a40	0.036173105
11	0x3d3b7dff	0.045774456
12	0xbd871ed8	-0.0659768
13	0x3bd62eb6	0.00653633
14	0x3ced7c07	0.028989805
15	0x3d375fc7	0.044769075
16	0x3d96b4a7	0.073586755
17	0xbceb4c8c	-0.028723024
18	0x3ce43c56	0.027860802
19	0x33266136	3.87383e-08
20	0x3d8a86d6	0.06763999
21	0x3d32295d	0.04349648
22	0x3bf4df36	0.007472898
23	0xbc9af451	-0.018915327
24	0xbb941ab3	-0.0045197844
25	0xbd97271c	-0.073805064
26	0xbd5739f3	-0.0525455
27	0xbc7796e7	-0.0151116615
28	0x3d515a1d	0.05111133
29	0xbd891496	-0.066933796
30	0x3d50cd2a	0.05097691
31	0xbd063f2e	-0.032775097
32	0xbcbf9d9c	-0.023390584
33	0xbd41566a	-0.04720155
34	0xbd1d6b1d	-0.03843223
35	0xbd80f7d8	-0.062972724
36	0x3d32e6e9	0.043677244
37	0x3d52b6c0	0.051443815
38	0xbd82a281	-0.063786514
39	0x3cc29ea9	0.023757296
40	0xbd90e747	-0.07075363
41	0x3d762231	0.0600912
42	0x3cf0b85c	0.029384784
43	0x3cfc0d92	0.03076819
44	0x3d09ccc3	0.03364254
45	0x3d1f8d81	0.038953308
46	0xbb6d4b76	-0.0036208308
47	0x3cc032f2	0.023461793
48	0xbc8e031f	-0.017335473
49	0xbd8ce97f	-0.06880473
50	0xbce9fa50	-0.028561741
51	0xbc57bb1e	-0.013167171
52	0x3c722b64	0.014780853
53	0x3d86388c	0.06553754
54	0x3d6f44a5	0.058415074
55	0x3d32f22f	0.043687996
56	0x3b9544ad	0.004555306
57	0xbcced17d	-0.025246376
58	0x3d13d4ce	0.03609162
59	0xbd5703d5	-0.05249389
60	0x3d79b694	0.060965136
61	0x3d00cb0c	0.03144364
62	0xbd231fa1	-0.039825086
63	0xbd2a9efc	-0.041655526
64	0xbd8c77d9	-0.068587966
65	0x3d5ee371	0.054416124
66	0x3d513e85	0.051085014
67	0xbd45c371	-0.04828209
68	0x3d3c4302	0.04596234
69	0x3d7ed0bf	0.062210795
70	0x3af1b0c8	0.0018439526
71	0x3d48a42e	0.0489847
72	0xbd12b0a8	-0.035813004
73	0x3caaa065	0.020828435
74	0xbd8050b6	-0.062653944
75	0xbcb2113a	-0.02173673
76	0x3cf7de7a	0.030257452
77	0x3ce1c166	0.02755804
78	0x3b497278	0.0030738395
79	0x3d946826	0.07246427
80	0xbd739fb1	-0.059478465
81	0xbd031cfc	-0.032010064
82	0x3b8a294f	0.00421635
83	0x3c28839b	0.010285283
84	0xbd8e2647	-0.069408946
85	0x3ced7190	0.028984815
86	0x3d7d81de	0.06189143
87	0x3d21f4dc	0.039540157
88	0x3d08b747	0.033377912
89	0x3d126ccc	0.035748288
90	0x3c0349b9	0.008013182
91	0xbd736fa1	-0.05943263
92	0xbd112380	-0.035434246
93	0xbccde597	-0.025133891
94	0x3d5547ec	0.052070543
95	0xbd319a0b	-0.043359797
96	0x3cdfbb1c	0.0273109
97	0x3d6108e0	0.054940104
98	0xbd77a1c8	-0.06045702
99	0x3d1b772e	0.037955455
100	0xbd7c1f8f	-0.061553534
101	0xbc6896ce	-0.014196111
102	0x3d6add72	0.057340093
103	0xbd8f66dc	-0.07002041
104	0x3cb4f7be	0.022090789
105	0xbcb73e7e	-0.022368666
106	0x3d39355b	0.0452169
107	0xbd9f9184	-0.07791427
108	0xbd80a6e8	-0.06281835
109	0xb9d2b62c	-0.0004019005
110	0xbb47c5c7	-0.0030482875
111	0xbda42c91	-0.08016313
112	0x3d5afda7	0.053464558
113	0xbb19eed6	-0.0023488305
114	0x3a321000	0.00067925453
115	0xbd025d27	-0.03182712
116	0xbd353d10	-0.044247687
117	0xbd9b2d0d	-0.07576952
118	0xbbc51620	-0.0060146004
119	0xbcb25b87	-0.02177216
120	0x3cdafced	0.026731933
121	0x3cdc3209	0.026879327
122	0xbcb903fc	-0.022584908
123	0x3d775fb9	0.060394023
124	0x3d042d54	0.03226979
125	0x3c651ef8	0.013984434
126	0xbd1ec659	-0.038763378
127	0x3cbde871	0.023182126
128	0x3c875cbb	0.01652371
129	0x3d801d28	0.06255561
130	0xbd417609	-0.047231708
131	0x3d8cc052	0.0687262
132	0xbd9470b2	-0.072480574
133	0x3cab3182	0.02089763
134	0x3c87f874	0.016597964
135	0x3ca08269	0.019593434
136	0xbd3e1297	-0.046404447
137	0xbd666485	-0.056248207
138	0x3be4563f	0.006968289
139	0xbd2cfb74	-0.042231992
140	0xbd1db3f9	-0.038501713
141	0xbd880d2d	-0.06643138
142	0xbd569960	-0.052392364
143	0xbccffd40	-0.025389314
144	0xbd8a25e1	-0.06745506
145	0xbd684155	-0.05670293
146	0xbd328f59	-0.04359374
147	0x3d212903	0.039345752
148	0x3ccdc763	0.025119489
149	0xbd3a0325	-0.045413155
150	0x3c981594	0.018564977
151	0x3d41b5d4	0.047292545
152	0x3d8be420	0.06830621
153	0xbd2cabca	-0.04215602
154	0xbd913130	-0.0708946
155	0x3d70086b	0.058601778
156	0x3c17d189	0.009266266
157	0x3c404932	0.011736201
158	0x3d895b41	0.067068584
159	0x3d6dbbb5	0.05804034
160	0xbbbf961e	-0.005846753
161	0xbcacfee7	-0.02111764
162	0xbcf87e8f	-0.030333785
163	0x3d8048da	0.06263895
164	0x3ce25e01	0.027632715
165	0x3d3b71ea	0.045762934
166	0xbcf5f4a1	-0.030023875
167	0x2d903c4a	1.6397678e-11
168	0x3c7a2ccc	0.0152694695
169	0xb0a6eda9	-1.2145637e-09
170	0x3c4c25a1	0.012460143
171	0xbd756513	-0.059910845
172	0x3c40bf7c	0.011764403
173	0xbc9c4e2c	-0.019080244
174	0xbd4ecdfc	-0.05048941
175	0x3a58c80c	0.00082695554
176	0xbc8a106e	-0.016853537
177	0x3b216fd7	0.0024633312
178	0x3a57f7d6	0.00082385296
179	0x390d6c21	0.00013487089
180	0xbd2a8838	-0.041633815
181	0xbcc4a7bf	-0.024005769
182	0x3d92d800	0.07170105
183	0xbcbd6270	-0.023118228
184	0xbd97da62	-0.074147
185	0x3d07d31c	0.033160314
186	0xbbf766d6	-0.007550101
187	0xbca81984	-0.02051998
188	0x3c400aa2	0.011721285
189	0x3b73abe5	0.0037181315
190	0x3cd96e57	0.026541872
191	0xbd9a0345	-0.07520155
192	0xbd89ec62	-0.067345396
193	0x3ba44aae	0.0050137853
194	0x3d2bfdf8	0.04199025
195	0x3d91e53e	0.071238026
196	0x3b91ff57	0.0044554877
197	0xbd295778	-0.041343182
198	0x3d123cb7	0.035702433
199	0xbd1bb57b	-0.03801487
200	0x3c91db2a	0.0178047
201	0x3d1c0757	0.038092937
202	0xbd362711	-0.04447085
203	0x3d15f711	0.036612574
204	0x3b9d6a98	0.0048039667
205	0xbb0798c5	-0.0020690423
206	0x3d9417b0	0.072310805
207	0xbd95c531	-0.07313002
208	0x3b8d4ac8	0.004311893
209	0x3ac2e5ab	0.0014869472
210	0xbb41f6f0	-0.002959665
211	0x3b80c886	0.0039301543
212	0xbc2cf7ae	-0.010557098
213	0xbc0a2322	-0.008431228
214	0xbd2177f8	-0.03942105
215	0xbda6aff8	-0.08139032
216	0x3d2473c3	0.04014946
217	0xbc3e70bf	-0.01162356
218	0xbcff53f7	-0.031167967
219	0x3d2c958a	0.0421348
220	0xbd503e8a	-0.050840892
221	0xbd48eb52	-0.049052544
222	0xbda7b394	-0.08188549
223	0x3d91587c	0.07096955
224	0x3c5d5944	0.013510052
225	0x3d7ab2e4	0.06120576
226	0x3c6c7186	0.014431363
227	0x3cc9d515	0.024637738
228	0xbd1c9be9	-0.038234625
229	0x3cbbe594	0.02293662
230	0xbd960383	-0.073248886
231	0xbca460a0	-0.020065606
232	0x3d984e56	0.074368164
233	0xba8e38a2	-0.0010850618
234	0xbc102801	-0.0087986
235	0xbd081bdf	-0.033229705
236	0xbda363c9	-0.07978017
237	0x3d070908	0.032967597
238	0x3cebb560	0.02877301
239	0xbd702041	-0.05862451
240	0xbd3f8a55	-0.046762783
241	0xbdb42988	-0.08796984
242	0xbd0b3973	-0.033990335
243	0x3d895b25	0.067068376
244	0xbd1d657e	-0.03842687
245	0xbd6e4cd1	-0.058178727
246	0x3a2f3210	0.000668318
247	0x3d1a1487	0.037617233
248	0x3d4dfadd	0.05028807
249	0xbd663461	-0.056202296
250	0x3c74827a	0.014923686
251	0x3d8fc85e	0.07020639
252	0xbcfa3101	-0.030540945
253	0xbced6e78	-0.02898334
254	0xbcd2b94b	-0.02572312
255	0xbd9074d6	-0.07053535

lin1.bias f4 [180]
0	0xb588b296	-1.0184765e-06
1	0xbb5242b7	-0.0032083222
2	0xbad69715	-0.001637193
3	0x3ca06a1b	0.019581845
4	0x3c90d20d	0.017678285
5	0xb6991f01	-4.5633647e-06
6	0xbb8378aa	-0.004012187
7	0x3cd8b345	0.02645267
8	0xba9491b5	-0.0011334928
9	0xbb78c3f4	-0.0037958594
10	0x3cf6439a	0.030061532
11	0xb9577d3a	-0.00020550648
12	0xbc7548cf	-0.014970972
13	0xb5c66c12	-1.4783602e-06
14	0x371527b7	8.890339e-06
15	0x3ce412fa	0.02784108
16	0x364852af	2.985045e-06
17	0x3bdaa1aa	0.006672104
18	0xbc42c404	-0.011887554
19	0xbc361103	-0.011112454
20	0xbc805fb1	-0.01567063
21	0xbc108e64	-0.008823011
22	0xbc07ff46	-0.008300608
23	0x3cda0a46	0.026616227
24	0x3bcea5dc	0.006306393
25	0x3c2cc413	0.010544795
26	0x3b8c3819	0.0042791483
27	0xb8430621	-4.649733e-05
28	0x3b1381f9	0.002250789
29	0x37489261	1.195501e-05
30	0xbd0f05bd	-0.03491758
31	0x3c941ffb	0.018081656
32	0xba60b5d4	-0.00085720164
33	0x3bc1bd36	0.0059124483
34	0x392d6c8c	0.00016539003
35	0x3604f922	1.9814547e-06
36	0xbb0e3510	-0.0021699108
37	0xbb1b949e	-0.0023739706
38	0xbc941ca9	-0.018080072
39	0x3bb7b12d	0.005605838
40	0x3611a2ed	2.170152e-06
41	0x39fd2a64	0.00048287504
42	0xbb253648	-0.0025209356
43	0xbcdf572c	-0.027263246
44	0xb8fef24f	-0.00012156797
45	0x3cd842d7	0.02639906
46	0x3a5fc7bb	0.0008536537
47	0xbc26094a	-0.010134051
48	0xb4d199cc	-3.9041186e-07
49	0xb52ac5fb	-6.3618035e-07
50	0xbbb22eba	-0.005437699
51	0x3c0d6822	0.008630784
52	0x3ce57c98	0.028013512
53	0xb65d53d2	-3.2980356e-06
54	0x3b1106d9	0.0022129326
55	0x3684d341	3.9584997e-06
56	0xba1d204d	-0.0005993888
57	0xbc18b91c	-0.009321477
58	0x3bd35c6c	0.0064502265
59	0x3c8d4514	0.017244853
60	0xbc1f9453	-0.009739953
61	0xbab7d7cc	-0.0014026104
62	0xb59e3846	-1.1788295e-06
63	0x3bfa8b13	0.0076459735
64	0x3b21f6c4	0.0024713734
65	0x3d09d1a4	0.033647195
66	0x3ba60659	0.0050666747
67	0x359e969e	1.1815753e-06
68	0x3d00226c	0.031282827
69	0xb584eaab	-9.903064e-07
70	0xbcaae1b3	-0.020859575
71	0xbaba9fc0	-0.0014238283
72	0xb8be71d3	-9.0811074e-05
73	0x3cad8870	0.021183223
74	0x3a875d7a	0.0010327541
75	0x3cd4410f	0.025909929
76	0xbc2e36d9	-0.010633194
77	0x3c349879	0.01102268
78	0xbc215375	-0.009846558
79	0xb5ba6fd6	-1.3890628e-06
80	0x3ca90be5	0.020635555
81	0x3d06d932	0.032921977
82	0xbcd59c2b	-0.026075443
83	0xb5ffee43	-1.9068324e-06
84	0x3c43d308	0.011952169
85	0x3bed34d5	0.007238964
86	0x38881509	6.4889035e-05
87	0x3c934235	0.017975906
88	0xbca71eb8	-0.02040039
89	0xbd043b70	-0.032283247
90	0x3be53558	0.0069948845
91	0xbc361903	-0.011114362
92	0xbc46746a	-0.012112716
93	0xbb8234c2	-0.0039735744
94	0xbb9f8abc	-0.0048688333
95	0x3bfbe108	0.007686738
96	0x3c3c8236	0.011505654
97	0xbc8a16b4	-0.016856529
98	0xb5d07d9d	-1.5533766e-06
99	0x3b00a4e7	0.001962954
100	0x3b375f27	0.00279803
101	0xbc75c40d	-0.015000355
102	0xb6d6c0e4	-6.4001524e-06
103	0xbcc1ae69	-0.023642736
104	0xba5057af	-0.0007947636
105	0xbbb62764	-0.005558895
106	0x3ca8c911	0.020603688
107	0xb6784216	-3.6993347e-06
108	0xb4a6a92f	-3.1043007e-07
109	0xbcf3c409	-0.029756563
110	0x3cee0ee5	0.029059837
111	0xbbca186c	-0.006167462
112	0x371bc223	9.283921e-06
113	0x360d0f3a	2.10195e-06
114	0xb8c121f1	-9.209279e-05
115	0xbc613407	-0.013745314
116	0x3c64436e	0.013932092
117	0xb69e9b61	-4.7268554e-06
118	0x3c4d9e95	0.012550016
119	0xb650082e	-3.0999176e-06
120	0x3d027c19	0.03185663
121	0xbd09d6b6	-0.03365203
122	0xb6555cdf	-3.1793531e-06
123	0x3cd06921	0.025440754
124	0xb58ce7b1	-1.0498244e-06
125	0xbc8d94e3	-0.017282909
126	0xbc28a78c	-0.010293853
127	0xba841c03	-0.0010079149
128	0x3d058f7c	0.03260754
129	0x3acfb70e	0.0015847401
130	0xb6ce572f	-6.149428e-06
131	0x3bae7764	0.005324291
132	0xbcfb5b27	-0.030683113
133	0xbcfdf58c	-0.031000875
134	0x3cb685d1	0.022280606
135	0x3a3a5009	0.0007107263
136	0xbcc0dcdd	-0.023542816
137	0x37f3b71a	2.905312e-05
138	0xbaa3e561	-0.0012504273
139	0xb6063996	-2.0001075e-06
140	0x39b5f7a7	0.00034707526
141	0x3c835efa	0.0160365
142	0xb6a306db	-4.8585766e-06
143	0x3c593c79	0.013259047
144	0x37da5dd9	2.6031326e-05
145	0x3cac5abf	0.021039365
146	0x371e5543	9.437385e-06
147	0xbc9ede18	-0.019393012
148	0xb780eeda	-1.5370013e-05
149	0xbc9f5f6b	-0.019454679
150	0xb9e0f633	-0.00042908042
151	0x3b6b62ff	0.003591716
152	0x3b91e065	0.0044517987
153	0x3ac3ab64	0.0014928398
154	0xbb9409b2	-0.0045177573
155	0xbcd97325	-0.026544163
156	0x35bebf5c	1.4211796e-06
157	0xba39cf6a	-0.0007088097
158	0x3691aeb3	4.3416744e-06
159	0xbbe3cd70	-0.0069519803
160	0x3bfbc17f	0.0076829786
161	0x3c3417a0	0.010991961
162	0x399574e8	0.00028506597
163	0x36087eaf	2.0339319e-06
164	0x3c86a063	0.0164339
165	0x36af2c48	5.2205614e-06
166	0x3ceda8b3	0.029011106
167	0x3cf28766	0.029605579
168	0xbcb9151b	-0.022593072
169	0x3cd57d29	0.026060658
170	0xbd0a1326	-0.033709668
171	0x35acd444	1.2876776e-06
172	0x367b8d52	3.7484174e-06
173	0x39a76d47	0.0003193414
174	0xbceb1028	-0.028694227
175	0x3c1e3f3c	0.009658631
176	0x3ca8b4dc	0.020594053
177	0x36782d87	3.698138e-06
178	0xbce84f38	-0.028358087
179	0xb538e514	-6.8878694e-07

lin2.weight f4 [96, 180]
0	0xbc915c7a	-0.017744292
1	0xbc391f42	-0.011298956
2	0xbc824179	-0.01590036
3	0x3bdcfe7f	0.0067442055
4	0x3c3f65bb	0.011681969
5	0x3ba416ef	0.0050076167
6	0xbc7c9e68	-0.015418626
7	0x3ca3afee	0.01998135
8	0xbd392796	-0.045203768
9	0xbd190bf9	-0.037364934
10	0xbd514bdf	-0.051097747
11	0xbbb100fa	-0.0054017277
12	0x3d34755c	0.044057235
13	0xbd273133	-0.040818404
14	0xbd5af5c4	-0.053457037
15	0x3c8dc406	0.017305385
16	0x3b89410f	0.004188664
17	0x3d39449a	0.04523144
18	0xbc902675	-0.017596463
19	0xbd7a5f5e	-0.061126105
20	0xbcf6be2c	-0.030119978
21	0x3ced8add	0.02899688
22	0x3afc6ea4	0.0019259048
23	0x3bca4825	0.006173151
24	0xbceeb00f	-0.029136686
25	0xbda26e25	-0.07931165
26	0xbccd7dbe	-0.025084373
27	0xbd5a699c	-0.053323373
28	0x3d3c9492	0.046040125
29	0xbd7a1c64	-0.06106223
30	0xbcf30342	-0.02966464
31	0x3d126b7a	0.03574703
32	0x3d8dd247	0.06924873
33	0x3d894bf8	0.06703943
34	0x3d13c59f	0.036077138
35	0x3d84d17f	0.06485271
36	0x3d7ee585	0.062230606
37	0xbcefeb8e	-0.029287126
38	0x3d2ff87f	0.042961594
39	0xbd4e8311	-0.050417963
40	0x3d90a812	0.07063307
41	0x3c2273d5	0.009915312
42	0xbd637bef	-0.055538114
43	0xbcba477e	-0.022739168
44	0x3d735e06	0.05941584
45	0xbc4e2083	-0.012580994
46	0x3cae4ae0	0.021275938
47	0xbd7bbf8b	-0.061461966
48	0x3c5fce5a	0.013660038
49	0xbd206a4c	-0.039163873
50	0xbd83b10a	-0.06430252
51	0xbd8b9d1c	-0.068170756
52	0x3d0d3919	0.03447828
53	0xbc0d0c32	-0.008608865
54	0xbc39ea52	-0.01134737
55	0xbc59639c	-0.013268378
56	0x3c078cfa	0.0082733575
57	0x3aac7964	0.0013158736
58	0xbd9a33dc	-0.07529423
59	0xbc606533	-0.013696003
60	0x3d74d885	0.0597768
61	0x3b8af74c	0.004240906
62	0x3c6b62c9	0.014366814
63	0x3d0bcce8	0.03413096
64	0xbc2ffbb8	-0.010741167
65	0xbd8e4936	-0.06947558
66	0x3d96dbc3	0.07366135
67	0xbd90de36	-0.070736334
68	0xbca64883	-0.020298248
69	0x3d3da9d3	0.046304535
70	0xbd587630	-0.052847087
71	0x3d2e965a	0.042623855
72	0x3b491e1e	0.0030688117
73	0xbd9e388b	-0.077256285
74	0x3cf48003	0.029846197
75	0x3d3fac02	0.0467949
76	0x3cc208a5	0.023685763
77	0x3bac394b	0.0052558533
78	0xbd0dfd04	-0.034665123
79	0xbd234648	-0.039861947
80	0x3d7cd46d	0.061726023
81	0x3d3e29a0	0.046426415
82	0x3c5b8bed	0.01340006
83	0xbd203882	-0.03911639
84	0x3d96c78a	0.07362278
85	0xbd2a4ce7	-0.041577246
86	0xbd6b4783	-0.057441246
87	0xbce6b42f	-0.02816209
88	0x3d7cb667	0.06169739
89	0xbbe5ab88	-0.0070089735
90	0x3d027b71	0.031856004
91	0xbd064e85	-0.032789726
92	0xbd72ace9	-0.05924693
93	0xbd5ac2d8	-0.053408474
94	0x3d103f2c	0.035216495
95	0x3d94a7d5	0.07258574
96	0x3d4ef2db	0.050524574
97	0x3d6ea774	0.058265164
98	0xbd6011b9	-0.0547044
99	0xbcec9170	-0.028877944
100	0xbc86e8ca	-0.016468424
101	0xbd9a0b9b	-0.07521745
102	0xbc6998d9	-0.014257633
103	0xbd7e6cf1	-0.062115613
104	0xbc3e9a08	-0.011633404
105	0xbd8448db	-0.064592086
106	0x3d45731c	0.04820548
107	0xbd87a1e4	-0.06622675
108	0x3bce7dd4	0.006301621
109	0xbd8017aa	-0.062545136
110	0x3b481d33	0.0030534982
111	0x3d447b8c	0.047969386
112	0x3d429429	0.047504578
113	0xbcb0ebbe	-0.021596786
114	0x3c9fa380	0.019487143
115	0xbd4629f1	-0.048379842
116	0xbcf40f83	-0.029792553
117	0xbb9c1560	-0.0047632903
118	0x3d7bf165	0.06150951
119	0x3d8ae35f	0.06781649
120	0xbbb4728c	-0.005506819
121	0xbd570d0a	-0.05250267
122	0xbab6076e	-0.0013887712
123	0x3d71e948	0.059060365
124	0x3d921ea5	0.07134751
125	0xbd8a1c54	-0.067436844
126	0xbcce1026	-0.025154185
127	0x3d29ff28	0.0415031
128	0x3cf26ba6	0.029592346
129	0x3b986b25	0.0046514445
130	0x3d805678	0.062664926
131	0xbd47f809	-0.04882053
132	0x3cb93dba	0.022612441
133	0xbd5274a0	-0.051380754
134	0x3cce2d8e	0.025168207
135	0xbd8310da	-0.063996986
136	0x3d278a58	0.04090342
137	0xbd5a72f3	-0.05333228
138	0xbc4ab69e	-0.012372641
139	0x3aa8a86a	0.0012867574
140	0xbd31c18f	-0.043397482
141	0x3d105443	0.03523661
142	0xbc1375f1	-0.009000287
143	0x3d8380ab	0.06421026
144	0xbbe5d41b	-0.0070138103
145	0xbd60a3a1	-0.05484355
146	0x3d91273b	0.07087561
147	0xbc0de173	-0.008659708
148	0x3cb065ff	0.02153301
149	0xbd1a7814	-0.03771217
150	0xbd9d77bb	-0.076888524
151	0xbcf90a27	-0.030400349
152	0xbd9c50ff	-0.07632636
153	0x3d88720f	0.0666238
154	0xbd299301	-0.04139996
155	0xbd8ff215	-0.07028595
156	0xbc325d55	-0.01088651
157	0xbcbd6f8a	-0.023124475
158	0xbb642a67	-0.0034815313
159	0x3d6f3c2c	0.058406994
160	0x3d3489e2	0.044076808
161	0x3d05706a	0.03257791
162	0x3d1c9403	0.038227092
163	0xbd37d9ec	-0.04488556
164	0xbd1c9e31	-0.0382368
165	0x3cbd4808	0.023105636
166	0x3c696cb3	0.014247107
167	0xbcc34eb2	-0.023841236
168	0x3d3974fa	0.045277573
169	0xbd2c9535	-0.042134482
170	0x3d7f596b	0.062341135
171	0xbcabb30e	-0.020959403
172	0xbd39bf66	-0.045348547
173	0xbd9de40a	-0.077095106
174	0xbd86bb6e	-0.06578718
175	0x3d0a406c	0.033752844
176	0xbd45ae30	-0.04826182
177	0xbd85201b	-0.06500264
178	0x3d85cbba	0.065329984
179	0xbbef3c91	-0.0073009213
180	0xbc40f276	-0.011776557
181	0x3d417550	0.04723102
182	0xbd1ec2c5	-0.038759965
183	0xbcb470cc	-0.022026442
184	0xbd913a1c	-0.070911616
185	0x3d2028c2	0.03910137
186	0xbc577689	-0.01315082
187	0xbcdf8afd	-0.027287954
188	0xbd43a063	-0.04776038
189	0x3d3773e6	0.044788264
190	0x3d89697b	0.06709572
191	0x3d8dc315	0.069219746
192	0x3cfbb47d	0.030725712
193	0x3d5beef9	0.0536947
194	0xbd022fdf	-0.031783935
195	0xbd4176cb	-0.04723243
196	0x3d633af2	0.055476137
197	0xbd9ba9e9	-0.07600767
198	0xbc538fb2	-0.012912678
199	0x3d42df38	0.04757616
200	0xbd9287f2	-0.07154836
201	0x3d60748a	0.05479864
202	0xbbec7e46	-0.0072172014
203	0xbd5ba430	-0.05362338
204	0x3b99034e	0.0046695834
205	0x3d853069	0.06503374
206	0xbd53ca15	-0.051706392
207	0x3bf0e7fc	0.0073518734
208	0xbd822a09	-0.06355674
209	0xbd9169f2	-0.071002856
210	0x3cf05d8a	0.029341478
211	0xbc4ee1cd	-0.012627077
212	0x3d2008d1	0.039070908
213	0x3d7434cd	0.059620667
214	0xbd48a054	-0.048981026
215	0xbcac4b68	-0.02103205
216	0x3d89ea2f	0.0673412
217	0xbd0de798	-0.034644693
218	0x3d52db57	0.05147871
219	0xbb54994f	-0.0032440012
220	0xbc788443	-0.015168252
221	0x3c20d1d8	0.009815656
222	0x3cbc50e8	0.022987798
223	0xbd5e77f7	-0.054313626
224	0xbcf37b1c	-0.029721789
225	0xbc98201c	-0.018569998
226	0xbbfe21b2	-0.0077554816
227	0xbd495ff6	-0.04916378
228	0xbd8b6fed	-0.068084575
229	0xbbfd8df1	-0.007737868
230	0xbcf99ed9	-0.030471252
231	0x3cf90cde	0.030401643
232	0xbd0b64b9	-0.034031603
233	0x3cb3ea57	0.021962328
234	0xbb3ebdfb	-0.0029104936
235	0xbd2a0945	-0.041512746
236	0xbd2b2ec9	-0.041792665
237	0xbc833200	-0.016015053
238	0xbb79ac20	-0.003809698
239	0xbd6e285b	-0.058143955
240	0x3d68f92a	0.056878246
241	0x3af9f3dd	0.0019069869
242	0xbcc0ae21	-0.023520531
243	0xbbde8e38	-0.006791856
244	0xbc8c164a	-0.017100472
245	0x3d274858	0.040840477
246	0x3c6fff5f	0.014648288
247	0x3c72ef22	0.0148275215
248	0x3cb8e9e6	0.022572469
249	0xbd19104e	-0.037369065
250	0xbd91da5e	-0.07121728
251	0x3d47de88	0.048796207
252	0x3c9e0eef	0.01929423
253	0x3d98c428	0.07459289
254	0xba5c37d6	-0.0008400654
255	0xbcb00559	-0.021486925

lin2.bias f4 [96]
0	0x38e054fe	0.000106969834
1	0xbc04b909	-0.008100756
2	0xbab686c4	-0.0013925661
3	0xb61bb512	-2.3202197e-06
4	0x38160dd9	3.5775684e-05
5	0xbc940320	-0.018067896
6	0xbccf44fb	-0.025301447
7	0x3b50fb21	0.0031887966
8	0xbcd7d528	-0.026346758
9	0x3a17a540	0.0005784817
10	0x3ca32884	0.01991678
11	0xb5023507	-4.850594e-07
12	0xb5bd9f4f	-1.4127962e-06
13	0x3a6c85c2	0.0009022617
14	0x3d01891c	0.0316249
15	0xbbafcbd8	-0.0053648762
16	0xbc0bf004	-0.008541111
17	0x37a22995	1.9331268e-05
18	0x3c602bfe	0.013682364
19	0xbc472900	-0.012155771
20	0xb612f46a	-2.1897963e-06
21	0x3cf98825	0.030460427
22	0x3c2e71ab	0.010647218
23	0xb5b1e339	-1.3253658e-06
24	0x38d6fa8d	0.00010250984
25	0xbd0194df	-0.031636115
26	0x377854a6	1.4801661e-05
27	0xbbd1e824	-0.006405847
28	0x34a6abcb	3.1044905e-07
29	0xb6f0e0b5	-7.1787167e-06
30	0xb624f392	-2.457968e-06
31	0x366d86e5	3.539427e-06
32	0x3c961b7d	0.018323654
33	0x3a8aa086	0.0010576404
34	0x3bd9d13b	0.0066472567
35	0xb4c8aa7b	-3.7376944e-07
36	0x349f1aa0	2.963543e-07
37	0x3bc3dd56	0.005977313
38	0xb5755827	-9.139789e-07
39	0x3cd12853	0.025531923
40	0xbccb5d65	-0.024824807
41	0xba18d53b	-0.00058301137
42	0xb553d03f	-7.8906663e-07
43	0xba6e8698	-0.00090990355
44	0x3b830de7	0.00399946
45	0x3c9b1937	0.018932922
46	0xbc47cfe5	-0.012195562
47	0xbc113d18	-0.008864664
48	0x3ca2a91f	0.019856034
49	0x3c051542	0.008122744
50	0xb503f417	-4.91565e-07
51	0xb666c4c7	-3.438721e-06
52	0x3c08cf37	0.008350185
53	0x3c00e8ab	0.007867972
54	0xbc27da00	-0.010244846
55	0x3848154c	4.770355e-05
56	0xbc6b04e7	-0.0143444305
57	0xb8e94a05	-0.00011124093
58	0xbcf16586	-0.029467355
59	0x3c46a064	0.012123201
60	0x3b28422b	0.0025674205
61	0x3cd4c323	0.025971955
62	0xbc074685	-0.008256559
63	0x3bdeb445	0.006796392
64	0xbc2fe8ad	-0.010736627
65	0x3a40c30f	0.0007353285
66	0xbaa07e0c	-0.0012244596
67	0xbc3dffaa	-0.0115966
68	0x3c4fba35	0.012678673
69	0xbcec786a	-0.028866012
70	0x3c643cd5	0.013930519
71	0x35277a37	6.2390194e-07
72	0xbc528776	-0.012849679
73	0x3b2ced13	0.0026386424
74	0x38fb4b06	0.00011982587
75	0xb40dafbe	-1.3195583e-07
76	0x3c96e7e8	0.018421128
77	0xb6091a7b	-2.0430004e-06
78	0x3af069ad	0.0018342041
79	0x3af4a430	0.0018664654
80	0x3b94afff	0.004537582
81	0xb6619556	-3.3614538e-06
82	0x3b5d6e1b	0.0033787552
83	0xbc9097b9	-0.017650472
84	0x35cd6de2	1.530567e-06
85	0x3b889d6e	0.0041691577
86	0xbceb6095	-0.028732577
87	0xb92495ce	-0.00015696065
88	0xb5396ca4	-6.9075963e-07
89	0xbb0190a1	-0.0019770043
90	0x3a967160	0.001147788
91	0xb45e2c37	-2.0691446e-07
92	0xbb33b835	-0.0027423028
93	0xb4ff8e1d	-4.7600852e-07
94	0xbb37b5b2	-0.0028031883
95	0xbab6034f	-0.0013886484

lin3.weight f4 [40, 96]
0	0x3c01d22d	0.007923645
1	0xbcc1594e	-0.023602154
2	0xbd9e5681	-0.07731343
3	0x3da62cac	0.08113989
4	0x3d1981b1	0.0374772
5	0x3da1bd57	0.07897442
6	0x3d13c293	0.036074232
7	0x3d118787	0.03552964
8	0x3de92fe4	0.113860875
9	0x3ba765eb	0.005108585
10	0xba0fafcf	-0.00054812146
11	0xbd725522	-0.05916322
12	0x3d8b76ed	0.06809793
13	0x3d17c286	0.037050746
14	0xbcb5e023	-0.022201603
15	0xbda0b5ce	-0.078471765
16	0x3d8b4fae	0.06802307
17	0xbcb4db7d	-0.022077316
18	0x3d4dcda8	0.050244957
19	0x3c88a355	0.016679445
20	0xbdab78e3	-0.08372667
21	0x3d823ae0	0.06358886
22	0xbd8b0795	-0.067885555
23	0xbdb1c946	-0.08680968
24	0x3d6835cb	0.056691926
25	0xbdb7d2e3	-0.0897577
26	0x3d7d08b9	0.061775897
27	0xbc9dae1b	-0.019248059
28	0xbc8deca2	-0.01732475
29	0xbd6f08c5	-0.058357973
30	0xbbf45c55	-0.007457296
31	0xbcff7eb4	-0.031188346
32	0xbdc49e70	-0.09600532
33	0xbd929ed1	-0.07159198
34	0x3d9898de	0.07451032
35	0x3d9a1df0	0.075252414
36	0x3cc8deac	0.02452024
37	0xbda5ab83	-0.08089354
38	0xbd0cee6e	-0.03440707
39	0x3d4a17a6	0.04933896
40	0xbd2ababa	-0.041681983
41	0x3d6bdcae	0.057583503
42	0xbd927df6	-0.071529314
43	0x3c5dedd7	0.013545475
44	0xbc7d3e08	-0.015456684
45	0x3d7c1eaa	0.06155268
46	0xbcdcbfd9	-0.026946949
47	0xbd1b6ad0	-0.03794366
48	0xbd7c6888	-0.061623126
49	0xbdaa8fab	-0.08328184
50	0x3db02b5c	0.0860202
51	0xbdac776b	-0.08421215
52	0x3d72d92c	0.059289142
53	0xbd6c0c7f	-0.057629105
54	0x3d13b06d	0.036056925
55	0x3c99de0c	0.018782638
56	0xbd43dfc6	-0.04782083
57	0xbbe24951	-0.0069057127
58	0xbcd73393	-0.02626971
59	0xbd66fb95	-0.05639227
60	0xbdaeaeca	-0.08529432
61	0x3d8c7605	0.06858448
62	0x3dce9d8d	0.10088644
63	0x3d16ee1b	0.03684817
64	0xbc8b7d60	-0.017027557
65	0x3c37e18c	0.011223208
66	0x3d91b089	0.071137495
67	0xbbed26a5	-0.007237273
68	0x3d62e618	0.055395216
69	0x3d95b3e9	0.07309706
70	0x3d407717	0.046988573
71	0x3da3ca44	0.079975635
72	0x3d48ec43	0.04905344
73	0xbd05d63d	-0.032675017
74	0x3dadf814	0.08494583
75	0xbd2ae5ae	-0.041722946
76	0x3d5a82f1	0.05334753
77	0xbd36433d	-0.044497717
78	0x3dad24d1	0.08454288
79	0x3d050f59	0.03248534
80	0x3da5c8b6	0.08094923
81	0x3d90eab9	0.0707602
82	0x3d89eaeb	0.0673426
83	0xbdb5fd1a	-0.08886166
84	0xbd54adac	-0.05192344
85	0xbda02421	-0.07819391
86	0xbbd4a133	-0.006488943
87	0x3da93ea3	0.082639
88	0x3d852293	0.06500735
89	0x3d134024	0.03594984
90	0xbd1f012d	-0.03881948
91	0xbd82b5a5	-0.06382302
92	0x3d162e33	0.036665153
93	0xbdcfb5ee	-0.10142122
94	0x3d82194f	0.063524835
95	0x3badb3ac	0.0053009596
96	0x3d58fbbc	0.052974448
97	0xbd15f916	-0.0366145
98	0xbd0d5bcc	-0.034511372
99	0xbda397a7	-0.0798791
100	0x3dc78fb3	0.09744205
101	0x3d84f777	0.06492513
102	0xbceb41aa	-0.028717835
103	0xbd5ff35e	-0.054675452
104	0x3d999751	0.074995644
105	0x3cee5200	0.029091835
106	0xbd371984	-0.044702068
107	0x3d162c5b	0.036663394
108	0x3c805d2a	0.015669424
109	0x3d3eea38	0.046610087
110	0x3d008c23	0.031383645
111	0xbd9f1186	-0.07767014
112	0x3bf081b5	0.007339681
113	0xbd218065	-0.039429087
114	0x3dbf18e4	0.093309194
115	0x3cdfda58	0.027325794
116	0xbd03aede	-0.03214919
117	0xbdab9f2e	-0.083799705
118	0x3daf8e7b	0.08572098
119	0x3bd0b259	0.006368917
120	0xbb43340b	-0.0029785659
121	0x3d589615	0.052877504
122	0xbd93f74d	-0.07224903
123	0xbc7ab8ed	-0.015302879
124	0x3dc02ce8	0.09383565
125	0xbd321dd0	-0.043485463
126	0xbd5d8ebd	-0.054091204
127	0xbcc875aa	-0.02447017
128	0xbc6f7510	-0.014615312
129	0xbd6e1a0e	-0.058130316
130	0xbd5cc280	-0.053896427
131	0x3d52c37a	0.051455952
132	0x3db6dbf6	0.08928673
133	0x3d5c6fe2	0.053817637
134	0xbda6205b	-0.0811164
135	0xbd82a99a	-0.06380005
136	0x3d8ddb49	0.06926591
137	0xbd437abe	-0.047724478
138	0xbc64d387	-0.013966448
139	0xbdc29296	-0.09500615
140	0xbdc709c4	-0.097186595
141	0xbc386406	-0.011254316
142	0xbcf10ce7	-0.029425098
143	0x3d3a5bfe	0.045497887
144	0xbd8234e2	-0.06357743
145	0x3c6e3c39	0.014540725
146	0xbd3a2218	-0.04544267
147	0x3d41315e	0.04716622
148	0xbc1b5105	-0.009479766
149	0x3c87cb1a	0.016576339
150	0x3d3bedc0	0.045881033
151	0x3dcf7fc4	0.10131791
152	0xbdd266c0	-0.10273504
153	0x3c61096a	0.013735155
154	0xbda80d2d	-0.08205638
155	0x3db908c9	0.09034879
156	0xbc100f75	-0.008792748
157	0xbd69732d	-0.056994606
158	0x3dbc60d2	0.091981545
159	0x3d38d4bf	0.045124765
160	0xbd15ae9e	-0.03654348
161	0x3dcbfe98	0.09960669
162	0xbbb29890	-0.005450316
163	0x3ccab01d	0.02474218
164	0x3c09ae91	0.008403436
165	0xbde08d48	-0.10964447
166	0x3c3b92b5	0.011448552
167	0xbdb286ef	-0.08717143
168	0x3c009b23	0.0078494875
169	0x3dc9017e	0.09814738
170	0xbc927b8f	-0.017881183
171	0xbd709549	-0.05873612
172	0xbd6494d9	-0.055806015
173	0x3c217ff5	0.0098571675
174	0xbc3f6005	-0.011680608
175	0x3d870e6b	0.06594547
176	0xbdb52a7c	-0.08845994
177	0x3ca95590	0.020670682
178	0x3cf3cd8f	0.029761104
179	0x3d6d5a0e	0.05794721
180	0x3d5bcb68	0.05366078
181	0xbdcbc999	-0.09950561
182	0xbda7396a	-0.08165248
183	0x3dcd0bb8	0.10012001
184	0x3d10a3bb	0.035312396
185	0xbdc954a0	-0.09830594
186	0xbd25af0c	-0.04045014
187	0x3d3bb497	0.04582652
188	0xbd7e5608	-0.062093765
189	0xbd1a24c2	-0.03763271
190	0xbc084c1e	-0.008318929
191	0x3ccfb225	0.0253535
192	0x3da873df	0.08225226
193	0x3d505fe3	0.050872695
194	0x3d8b5cf0	0.06804836
195	0x39fad35c	0.0004784119
196	0x3d6e8f80	0.05824232
197	0xbc180323	-0.009278092
198	0x3d6ba3c2	0.05752922
199	0x3d3eb83a	0.04656241
200	0xbd6e4ddf	-0.058179732
201	0x3d1f4c5d	0.038891185
202	0xbc78e639	-0.015191608
203	0xbda53618	-0.08066958
204	0x3d8eeed0	0.069791436
205	0x3db5cae9	0.08876593
206	0xbcc1df3d	-0.023666019
207	0xbd2cc201	-0.042177204
208	0xbc951c09	-0.018201845
209	0xbcac5dd6	-0.021040838
210	0xbd1ca7e2	-0.038246043
211	0x3ca4d141	0.020119311
212	0xbd329dcf	-0.04360753
213	0xbd8caf9a	-0.06869431
214	0xbd9559a7	-0.072924905
215	0x3d137565	0.036000628
216	0x3ddaba77	0.106800966
217	0xbd6fa7a4	-0.058509484
218	0xbda3892a	-0.07985146
219	0xbcd67a07	-0.026181234
220	0x3da8858a	0.082285956
221	0x3d009618	0.03139314
222	0x3caeec3b	0.021352878
223	0xbc146e34	-0.009059478
224	0xbd89d723	-0.06730487
225	0xbd7e0149	-0.062012944
226	0x3dbfae9a	0.093594745
227	0xbd51973d	-0.051169623
228	0xbd95734f	-0.07297384
229	0x3d25a422	0.040439732
230	0xbceaff6b	-0.028686246
231	0xbd9dc340	-0.077032566
232	0x3dcb7120	0.09933686
233	0xbd54d165	-0.051957507
234	0x3dc7b11c	0.09750578
235	0xbd1e92f5	-0.038714368
236	0x3dace9fd	0.08443067
237	0xbd65d7ac	-0.056113884
238	0x3db4640d	0.08808146
239	0xbd673548	-0.056447297
240	0xbc81d421	-0.015848221
241	0x3c3428e6	0.010996079
242	0xbd921e03	-0.071346305
243	0xbd0252ec	-0.03181736
244	0x3da7e914	0.08198753
245	0x3d1ea1cd	0.038728524
246	0xbd60b049	-0.05485562
247	0x3c3bccad	0.011462373
248	0xbdb0f10d	-0.08639727
249	0xbdb5b1a5	-0.08871774
250	0xbd2bb6fe	-0.04192256
251	0xbd2d5305	-0.0423155
252	0xbd7a36f7	-0.061087575
253	0xbd449f53	-0.048003506
254	0x3dbfec2d	0.09371219
255	0xbd156e45	-0.036482114

lin3.bias f4 [40]
0	0xbce1bda7	-0.027556254
1	0xbd0cb090	-0.03434807
2	0xbd09d55f	-0.033650752
3	0xb5c9aed6	-1.5026551e-06
4	0x396b0c4f	0.00022415932
5	0x3d0ae6a3	0.03391136
6	0xbd35b9d7	-0.044366684
7	0x33431938	4.5424912e-08
8	0xbd556ca3	-0.052105557
9	0xbc13cd09	-0.009021052
10	0x3d347108	0.044053108
11	0xbd4558c3	-0.048180353
12	0x3d56de42	0.052458055
13	0x3cf748a0	0.030185997
14	0xbb8425c8	-0.004032824
15	0xb4161155	-1.3976144e-07
16	0xb528183d	-6.262015e-07
17	0xb62955b6	-2.5232853e-06
18	0xbcfe2d08	-0.031027332
19	0xbcaefd89	-0.02136113
20	0x39a505d1	0.00031475586
21	0x34e5b36d	4.2785123e-07
22	0xbbb88c34	-0.005631948
23	0xb4ddccd4	-4.131349e-07
24	0x3cc23d59	0.023710893
25	0xbd08bd72	-0.033383794
26	0xb14f1eee	-3.0140046e-09
27	0xbae0c0f8	-0.0017147353
28	0x3c76aac0	0.015055358
29	0xb6a34014	-4.865238e-06
30	0x3d08eaba	0.033426978
31	0x3cf4d60f	0.029887227
32	0xbb203abe	-0.0024449076
33	0xbd394af6	-0.045237504
34	0x3d0e291a	0.034707166
35	0x3b59f5e2	0.003325813
36	0xbcdfa7b7	-0.027301652
37	0x3d3cd3cd	0.046100426
38	0xbbb173f3	-0.0054154336
39	0xba3dfe5e	-0.00072476815

lin4.weight f4 [1, 40]
0	0x3de0f9a1	0.10985113
1	0x3dda9f93	0.106749676
2	0x3d067940	0.032830477
3	0xbdb8eda0	-0.09029698
4	0xbe0f1523	-0.13972907
5	0xbe0473a8	-0.12934744
6	0x3b099e45	0.0020998877
7	0xbe028d18	-0.12749135
8	0x3d11ae42	0.035566576
9	0x3dce84c1	0.100839145
10	0x3e1e9aff	0.15488814
11	0x3da15ec6	0.07879405
12	0x3e3dfc47	0.18553267
13	0xbccdd809	-0.025127428
14	0x3dc65d7e	0.09685801
15	0xbc8c3dbf	-0.017119287
16	0xbda15f5a	-0.07879515
17	0x3e2c1843	0.1680613
18	0x3e21d5d8	0.15804231
19	0xbd562f19	-0.05229101
20	0xbd7e87d9	-0.062141273
21	0xbc4173fc	-0.011807438
22	0x3bc86442	0.0061154673
23	0xbdba4080	-0.09094334
24	0x3e31da0f	0.17368339
25	0xbd0255bd	-0.031820048
26	0xbbb344da	-0.005470854
27	0x3b251d64	0.002519452
28	0x3c315674	0.010823835
29	0x3e2993f2	0.16560343
30	0x3e1f47ec	0.1555478
31	0x3e0feeab	0.14055888
32	0x3d930698	0.07178992
33	0x3e339721	0.1753812
34	0x3e3d4909	0.18484892
35	0x3dce9d18	0.10088557
36	0xbcbd170e	-0.023082282
37	0xbdc95c5c	-0.09832069
38	0x3d2936c9	0.041312013
39	0xbdbb725d	-0.091526724

bn1.weight f4 [180]
0	0x3f7c8107	0.9863438
1	0x3f7dba5a	0.99112475
2	0x3f7f3c6d	0.9970158
3	0x3f7d9cdf	0.9906749
4	0x3f7f987d	0.99842054
5	0x3f7d6e4a	0.9899641
6	0x3f7ef7b3	0.9959671
7	0x3f81eef7	1.0151051
8	0x3f806b1e	1.003269
9	0x3f804650	1.0021458
10	0x3f7ee964	0.99574876
11	0x3f7e61e7	0.9936814
12	0x3f7fd21c	0.99929976
13	0x3f7c3d25	0.985308
14	0x3f802dd8	1.001399
15	0x3f80539d	1.0025517
16	0x3f7d1637	0.9886202
17	0x3f80421b	1.0020174
18	0x3f81502d	1.0102593
19	0x3f7ffd60	0.99995995
20	0x3f7e2528	0.99275446
21	0x3f810b5e	1.0081594
22	0x3f801f04	1.0009465
23	0x3f7e53be	0.9934653
24	0x3f7ddfab	0.99169415
25	0x3f8158fd	1.0105282
26	0x3f7d2510	0.9888468
27	0x3f7fbbaf	0.9989576
28	0x3f7f2093	0.9965908
29	0x3f7c37db	0.9852273
30	0x3f7ff6d9	0.99986035
31	0x3f7defd0	0.9919405
32	0x3f7c521d	0.98562795
33	0x3f7e8b19	0.99430996
34	0x3f7e3b7e	0.9930953
35	0x3f7e6ae2	0.9938184
36	0x3f81422a	1.0098317
37	0x3f7e6820	0.9937763
38	0x3f7c64f5	0.9859155
39	0x3f7d1a54	0.988683
40	0x3f7f0d76	0.99629915
41	0x3f7ec658	0.995214
42	0x3f7d6059	0.9897514
43	0x3f7d2e58	0.9889884
44	0x3f7d8cde	0.9904307
45	0x3f7f7a68	0.9979615
46	0x3f7d6daa	0.9899546
47	0x3f7fcff9	0.99926716
48	0x3f804484	1.0020909
49	0x3f7df00a	0.99194396
50	0x3f7fa0e8	0.998549
51	0x3f7daa2e	0.990878
52	0x3f817fd6	1.0117137
53	0x3f7e1b6f	0.9926061
54	0x3f808b50	1.0042515
55	0x3f7fd7eb	0.9993884
56	0x3f802e17	1.0014066
57	0x3f7edff9	0.99560505
58	0x3f80a4d1	1.0050298
59	0x3f7cb45b	0.987127
60	0x3f816114	1.0107751
61	0x3f7fd22c	0.9993007
62	0x3f80a237	1.0049504
63	0x3f801409	1.0006114
64	0x3f7ee4f8	0.9956813
65	0x3f7fba13	0.998933
66	0x3f7f93ce	0.9983491
67	0x3f810602	1.0079958
68	0x3f7d7613	0.9900829
69	0x3f7eabc7	0.9948086
70	0x3f7fb4ff	0.99885553
71	0x3f7f7322	0.99785054
72	0x3f7ff241	0.99979025
73	0x3f7ef2ba	0.9958912
74	0x3f7d625d	0.98978215
75	0x3f805dad	1.0028588
76	0x3f7eed20	0.99580574
77	0x3f7c9845	0.98669845
78	0x3f7fbf3a	0.99901164
79	0x3f7cb86a	0.98718894
80	0x3f7cc437	0.987369
81	0x3f7f3d00	0.99702454
82	0x3f7e045e	0.99225414
83	0x3f80f930	1.0076046
84	0x3f7e4448	0.9932294
85	0x3f800da4	1.0004163
86	0x3f8003b6	1.0001132
87	0x3f80ce5c	1.0062976
88	0x3f7f2dae	0.99679077
89	0x3f809584	1.0045629
90	0x3f7e0dc2	0.9923974
91	0x3f7eb0ca	0.9948851
92	0x3f7e8166	0.99416196
93	0x3f7eae31	0.99484545
94	0x3f800bc3	1.0003589
95	0x3f7f35bf	0.99691385
96	0x3f808a72	1.004225
97	0x3f82726a	1.0191166
98	0x3f7cfa08	0.9881902
99	0x3f7e0450	0.9922533
100	0x3f7ed61c	0.99545455
101	0x3f7df52d	0.99202234
102	0x3f7f5af0	0.99748135
103	0x3f7dbf4f	0.9912004
104	0x3f7dcc43	0.99139804
105	0x3f7db485	0.99103576
106	0x3f7e4bdb	0.99334496
107	0x3f7d90db	0.99049157
108	0x3f7caf73	0.98705214
109	0x3f7ea71f	0.99473757
110	0x3f80400c	1.0019546
111	0x3f7cbb8f	0.9872369
112	0x3f7e0cb2	0.9923812
113	0x3f7f8008	0.99804735
114	0x3f7e9804	0.9945071
115	0x3f7ee7b6	0.9957231
116	0x3f7e0d0b	0.9923865
117	0x3f7e8efb	0.9943692
118	0x3f7cad36	0.987018
119	0x3f7e1aae	0.9925946
120	0x3f7e953e	0.99446476
121	0x3f7ed2d2	0.99540436
122	0x3f7f22cf	0.9966249
123	0x3f7d1bfc	0.98870826
124	0x3f80b11b	1.0054048
125	0x3f7b3071	0.9812079
126	0x3f7e74a1	0.9939671
127	0x3f81a713	1.0129112
128	0x3f804c0c	1.0023208
129	0x3f8196d5	1.0124155
130	0x3f817f61	1.0116998
131	0x3f7fb51a	0.99885714
132	0x3f7f2d9d	0.99678975
133	0x3f815991	1.0105458
134	0x3f80a436	1.0050113
135	0x3f7ec9eb	0.9952685
136	0x3f7e0ac2	0.99235165
137	0x3f7e84f9	0.9942165
138	0x3f81b82c	1.013433
139	0x3f809ce8	1.0047884
140	0x3f7f295a	0.9967247
141	0x3f7eb4c6	0.9949459
142	0x3f7f7557	0.9978842
143	0x3f7df47a	0.99201167
144	0x3f7d31c8	0.98904085
145	0x3f7f2f14	0.9968121
146	0x3f805526	1.0025985
147	0x3f7ef9ec	0.996001
148	0x3f8029ce	1.0012758
149	0x3f7ee9de	0.99575603
150	0x3f815913	1.0105308
151	0x3f7ee79b	0.9957215
152	0x3f7dc593	0.991296
153	0x3f7f21e3	0.9966108
154	0x3f7ef346	0.99589956
155	0x3f7e29da	0.9928261
156	0x3f807fdc	1.003902
157	0x3f806c1b	1.0032991
158	0x3f814e34	1.0101991
159	0x3f80cf43	1.0063251
160	0x3f7e80e6	0.99415433
161	0x3f7e8f47	0.99437374
162	0x3f7e05a5	0.9922736
163	0x3f7dd2c9	0.9914976
164	0x3f81b551	1.0133458
165	0x3f7f3adb	0.9969918
166	0x3f7f7071	0.99780947
167	0x3f80575d	1.0026661
168	0x3f7c831f	0.98637575
169	0x3f7d79c6	0.99013937
170	0x3f7c112c	0.984637
171	0x3f80166a	1.000684
172	0x3f7fda72	0.99942696
173	0x3f7fa802	0.99865735
174	0x3f7cd263	0.98758525
175	0x3f7ee4aa	0.99567664
176	0x3f7e50de	0.99342144
177	0x3f7f227a	0.9966198
178	0x3f80db2c	1.0066886
179	0x3f7e35ed	0.99301034

bn1.bias f4 [180]
0	0xbaf1c1eb	-0.0018444633
1	0xbc58c527	-0.0132305985
2	0xbbea4502	-0.0071493397
3	0xbbfbb07a	-0.0076809498
4	0xbbc1e900	-0.0059176683
5	0xbbf607a4	-0.007508235
6	0xbc488811	-0.012239472
7	0xbac142c9	-0.0014744635
8	0x3b17ccd3	0.0023162856
9	0xbc24ae94	-0.010051388
10	0xbb7ff89f	-0.0039058102
11	0xbb573d9c	-0.0032843119
12	0xbb7d2672	-0.0038627652
13	0xbc9efee8	-0.019408658
14	0x3b068bbd	0.0020530068
15	0xbb3fcc57	-0.0029266083
16	0xbc579ff9	-0.013160699
17	0x3bb06e31	0.0053842296
18	0xbb3ef06c	-0.0029135002
19	0x39a48f67	0.0003138736
20	0xbb82ee83	-0.003995718
21	0x3c31c36b	0.010849814
22	0x3a51afe5	0.00079989276
23	0xbc08159a	-0.008305931
24	0xbc034d7a	-0.008014077
25	0xba23ec36	-0.0006253155
26	0xbbc3e649	-0.00597838
27	0x3bac6a03	0.005261661
28	0xbb863789	-0.004095976
29	0xba1e7d4e	-0.00060458935
30	0xbb13c2b0	-0.0022546463
31	0xbbf652c1	-0.0075171893
32	0xbbeb5750	-0.0071820393
33	0xbc143497	-0.0090457415
34	0xba395ae0	-0.00070707314
35	0xbc10e4dc	-0.008843627
36	0xbacfb7b3	-0.0015847593
37	0x3b88d8d1	0.004176237
38	0xbbe2a86b	-0.0069170496
39	0xbc0704ea	-0.008240918
40	0x3a67cf2f	0.00088428234
41	0x3a7c45ea	0.0009623455
42	0xbc2ded0c	-0.010615598
43	0xbc0f4d83	-0.008746508
44	0xbafd9fef	-0.0019350032
45	0xbb3afcf3	-0.0028532117
46	0xbc319be6	-0.010840392
47	0x3bfcbd9e	0.007713034
48	0xbc02386c	-0.007948022
49	0xbaf64d42	-0.0018791335
50	0xbbfa8a01	-0.007645846
51	0xbb995c14	-0.004680166
52	0xbc0d3c3f	-0.008620321
53	0xba9184e6	-0.0011102229
54	0xbbdcbda9	-0.0067364764
55	0x3b6c836b	0.0036089073
56	0x3c16728b	0.009182583
57	0x3b9bf9e6	0.004760015
58	0x3ba4daac	0.0050309505
59	0xbc10714c	-0.008816075
60	0x3c265480	0.010151982
61	0x3ab995dd	0.0014159043
62	0x3b91e7ac	0.0044526663
63	0x3acecdca	0.0015777883
64	0x3b65b69b	0.0035051468
65	0xba905bcd	-0.0011013687
66	0xbba9c2a4	-0.0051806737
67	0x3bd9c3ea	0.006645669
68	0xbbf7f5e4	-0.0075671542
69	0xbc1d1312	-0.009587066
70	0xbba73a90	-0.0051034167
71	0xbbcf7db3	-0.006332123
72	0x3b7a48de	0.0038190405
73	0xbacb6951	-0.0015519058
74	0xbbab1a45	-0.0052216374
75	0xbb8151cd	-0.003946519
76	0xb841fdd6	-4.625119e-05
77	0xbc4cd90d	-0.012502921
78	0xbc08dd07	-0.008353478
79	0xbc56a9d8	-0.013102017
80	0xbc00c85d	-0.00786027
81	0x3b1708f7	0.0023046115
82	0xbc4243ac	-0.011856955
83	0x3a8fbf18	0.0010966985
84	0xbbb08ab0	-0.0053876266
85	0xbaedc816	-0.0018141295
86	0x3a8d7946	0.0010793589
87	0xbb867915	-0.0041037896
88	0xbb292f34	-0.0025815489
89	0x3bb71f3f	0.0055884416
90	0xbb0bfb33	-0.0021359443
91	0x3af5a915	0.0018742407
92	0xbb845ca2	-0.004039363
93	0xbb764883	-0.0037579841
94	0xbbea32c8	-0.007147167
95	0xbbda49e9	-0.006661643
96	0xbadbea1e	-0.0016778146
97	0x3b7144cc	0.0036814688
98	0x3bf52e69	0.007482339
99	0xbb9e4aff	-0.0048307176
100	0xbb27cfc3	-0.0025606013
101	0x3af4ff50	0.0018691812
102	0x3a997ff9	0.0011711112
103	0xbb19cdf7	-0.0023468712
104	0xbba35b64	-0.00498526
105	0xbc236e51	-0.009975032
106	0xbbd1b9ff	-0.0064003463
107	0xbc09a311	-0.0084006945
108	0xbc4257e7	-0.011861778
109	0xbb8e753c	-0.0043474715
110	0x3bd2ee57	0.0064371037
111	0xbc6ad758	-0.0143335685
112	0xbc57b3bd	-0.013165412
113	0x38a7f10e	8.0080805e-05
114	0xbba6e1fe	-0.0050928583
115	0x3be68953	0.0070354133
116	0x3b584862	0.0033002128
117	0xbbdd9ef7	-0.006763335
118	0xbc1c8d8b	-0.009555231
119	0xbc009051	-0.007846908
120	0xbb869ce4	-0.0041080583
121	0xbb69a95b	-0.0035653922
122	0x3bcdad1c	0.0062767398
123	0xbc5db235	-0.013531257
124	0x3c441e3a	0.011970097
125	0xbc493121	-0.01227978
126	0xbaf690b9	-0.0018811441
127	0xbb743202	-0.0037261252
128	0x3bd45e92	0.006481
129	0x3b6b5586	0.003590913
130	0xbc406820	-0.011743575
131	0x3ae4ed34	0.0017465712
132	0xbae7c86e	-0.0017683634
133	0xbb48286e	-0.0030541676
134	0xbaaaba71	-0.0013025535
135	0xbbb55fb3	-0.00553509
136	0xbb8db846	-0.0043249456
137	0xb9865e9a	-0.00025628955
138	0x3bb5337d	0.0055298195
139	0xbba7479f	-0.0051049734
140	0xbbb856ac	-0.0056255665
141	0xbad31995	-0.0016105647
142	0xbc539c09	-0.01291562
143	0xbbae374a	-0.0053166496
144	0xbbf22289	-0.007389371
145	0xbc274853	-0.0102101145
146	0xbb9858ea	-0.0046492713
147	0x3af725bf	0.0018855854
148	0xbba2c24f	-0.004967011
149	0xbb011cc8	-0.0019700993
150	0x3c35d75a	0.011098707
151	0xba93569e	-0.0011241024
152	0xbc30374d	-0.010755372
153	0x3ae09193	0.0017133228
154	0xbc2e1eb0	-0.010627434
155	0xbb65b96e	-0.0035053152
156	0x3aa9458c	0.0012914403
157	0x3baf8457	0.0053563523
158	0x3c01ed7f	0.007930159
159	0x3c25640f	0.010094657
160	0xba9b7c44	-0.0011862596
161	0x3b3283bd	0.0027239167
162	0xbbf4b87e	-0.0074682822
163	0xbbb37682	-0.0054767737
164	0xb929b220	-0.00016183453
165	0xbb8d880c	-0.0043191966
166	0x3c0965d7	0.008386097
167	0x3c4cfd19	0.012511515
168	0xbc7b57b6	-0.015340736
169	0xbbc83061	-0.006109283
170	0xbc42f0d6	-0.01189824
171	0xbc048745	-0.008088891
172	0x39b1ecb7	0.00033936437
173	0xbabad478	-0.0014253994
174	0xbb996008	-0.0046806373
175	0xbbea6eed	-0.0071543367
176	0xbc8af9f4	-0.01696489
177	0xbb425080	-0.0029650033
178	0xba26c046	-0.00063610484
179	0xbaf7110d	-0.0018849686

bn1.running_mean f4 [180]
0	0xbdc03d5a	-0.09386702
1	0x3e2a4dcc	0.1663124
2	0x3ecd96d4	0.40154135
3	0x3d984ca5	0.07436494
4	0x3e8c1226	0.27357596
5	0xbf0376bf	-0.5135307
6	0x3e64de6b	0.2235047
7	0xbcc65b8f	-0.02421358
8	0xbe8653ac	-0.26235712
9	0x3e465402	0.19367984
10	0x3e8db55f	0.27677438
11	0xbedf9552	-0.4366861
12	0x3ed88c8c	0.4229473
13	0x3d396be5	0.045268912
14	0xbd179ffb	-0.037017804
15	0xbd9ef318	-0.0776121
16	0xbde52d21	-0.11190248
17	0xbd73a7d1	-0.059486214
18	0x3e5524dd	0.20814843
19	0x3d8b6951	0.06807197
20	0xbcdf4d6e	-0.027258601
21	0x3de94f5b	0.11392089
22	0xbb1f2f78	-0.0024289768
23	0x3e2b6b13	0.16740064
24	0x3c091c07	0.008368499
25	0xbd928a76	-0.071553156
26	0xbd6272f6	-0.055285417
27	0x3e702cad	0.23454542
28	0xbe0f962d	-0.14022131
29	0x3e37a6e8	0.17934763
30	0xbd5a798a	-0.053338565
31	0x3ea75d8c	0.32688558
32	0xbe913d5f	-0.28367135
33	0xbeb33336	-0.35000008
34	0xbe687693	-0.22701482
35	0x3e386f0f	0.18011115
36	0xbccb78f7	-0.024837954
37	0x3e0d9108	0.13824856
38	0xbd7564a9	-0.05991045
39	0x3c30d0c0	0.010791957
40	0xbc06ecde	-0.0082351845
41	0x3e0bba65	0.13645323
42	0x3e99ebdc	0.3006276
43	0xbe5c1e6a	-0.21495977
44	0xbe9a1338	-0.30092788
45	0xbe117638	-0.14205253
46	0x3cab72a7	0.020928694
47	0x3eaffaaa	0.3437093
48	0x3e895421	0.26821998
49	0xbec80372	-0.3906513
50	0x3d0d5af8	0.034510583
51	0xbe04306d	-0.12909098
52	0x3abd9e87	0.00144668
53	0xbe9f4ab0	-0.3111167
54	0x3cdf55b6	0.02726255
55	0x3d39fb72	0.045405813
56	0x3d06f1ea	0.03294555
57	0xbdcd702a	-0.10031159
58	0xbe83804b	-0.25683817
59	0x3dd02814	0.10163894
60	0x3df1f1bb	0.118136846
61	0x3cd27070	0.02568838
62	0x3d5909d3	0.052987885
63	0xbdcac20d	-0.099002935
64	0x3e8362cb	0.2566131
65	0x3e40bab0	0.18821216
66	0xbdb547a9	-0.08851559
67	0xbe614530	-0.21999049
68	0xbe06a877	-0.13150202
69	0xbcba9699	-0.022776889
70	0xbe01a260	-0.12659597
71	0x3e5afd58	0.21385705
72	0x3e3f18c3	0.1866179
73	0x3e9bcb65	0.30428615
74	0x3e2eb66f	0.1706178
75	0x3dfedce7	0.124444775
76	0xbd914ce9	-0.070947476
77	0xbc0246e5	-0.007951473
78	0x3e19a2da	0.15003529
79	0xbd56938c	-0.052386805
80	0xbd3c96af	-0.04604214
81	0xbe1bb93c	-0.1520738
82	0xbdafb133	-0.0857872
83	0xbd0c83c2	-0.03430534
84	0x3e4658e9	0.19369854
85	0xbcdb0085	-0.026733646
86	0x3e5885bd	0.21144767
87	0x3dc6ef7a	0.09713645
88	0xbdbd7621	-0.09251047
89	0xbe7b9067	-0.24566804
90	0xbe4db1d2	-0.20087364
91	0x3dcf5aee	0.10124765
92	0xbdeff17f	-0.117159836
93	0xbddf3910	-0.10899556
94	0x3e629b7c	0.22129625
95	0x3ca7d133	0.020485496
96	0xbe8df52d	-0.27726117
97	0xbe0f4b04	-0.1399346
98	0x3ddb555c	0.107096404
99	0xbe211ea6	-0.15734348
100	0x3e1a741a	0.15083352
101	0xbe0df1c3	-0.13861756
102	0xbe109f43	-0.14123254
103	0x3ec9f4f6	0.39444703
104	0xbe053c61	-0.13011314
105	0xbe046be2	-0.12931779
106	0x3eaa42df	0.33254144
107	0xbe163eb2	-0.14672354
108	0x3a00e058	0.00049162423
109	0x3e8cfb2b	0.27535376
110	0x3e72a2f5	0.23694976
111	0xbd44ba57	-0.04802927
112	0xbd0968c6	-0.033547185
113	0xbe12afa3	-0.14324813
114	0x3ddff53c	0.109354466
115	0x3eec8d1d	0.4620141
116	0xbd9f9ba2	-0.077933565
117	0x3e5dfcd3	0.21678476
118	0x3ee7f85f	0.4530668
119	0xbb968541	-0.004593522
120	0x3e0b2517	0.13588367
121	0xbe69e341	-0.22840597
122	0x3e8943c5	0.26809517
123	0x3d395479	0.045246575
124	0xbce0f30d	-0.027459646
125	0x3e195400	0.1497345
126	0xbd8f1460	-0.06986308
127	0x3e715951	0.23569228
128	0xbd858471	-0.06519402
129	0xbc89f202	-0.016839031
130	0x3d1da32a	0.038485684
131	0xbe30c819	-0.17263831
132	0x3e617c28	0.22020018
133	0x3ebe86a5	0.372121
134	0x3dd45e52	0.10369553
135	0x3e9828a2	0.297185
136	0xbd72f4b4	-0.0593154
137	0xbda72c43	-0.08162739
138	0x3dbeea14	0.093219906
139	0x3e0e0d84	0.13872343
140	0x3d423211	0.04741103
141	0xbe8b9676	-0.2726323
142	0xbce018c8	-0.027355567
143	0x3eadfeed	0.33983555
144	0xbebfb40c	-0.37442052
145	0x3e427a0e	0.18991873
146	0xbe5b4b38	-0.21415412
147	0xbc97e0c5	-0.018539796
148	0x3e8dfa01	0.277298
149	0x3ebf7b88	0.37398934
150	0x3eb80efc	0.35948932
151	0xbe8c2d6c	-0.27378404
152	0xbec5288f	-0.38507506
153	0x3e985615	0.29753175
154	0xbe36a9a4	-0.1783815
155	0xbd3c2483	-0.045933258
156	0x3e1f9410	0.15583825
157	0xbdc40d50	-0.09572852
158	0x3e405a49	0.18784441
159	0x3e4a3f7d	0.19750781
160	0x3da7ae13	0.08187499
161	0xbcd61ca3	-0.026136702
162	0xbe18ee90	-0.14934754
163	0xbbec892f	-0.007218502
164	0x3dcd1acd	0.100148775
165	0x3de25ab1	0.11052454
166	0x3e618778	0.22024333
167	0x3e837d64	0.25681603
168	0x3eb58b8a	0.35458022
169	0xbe4f93e4	-0.2027126
170	0xbe0ad7d1	-0.1355889
171	0x3e19474c	0.14968604
172	0xbb92fd55	-0.004485766
173	0x3d846379	0.064642854
174	0xbe7a5ca8	-0.24449408
175	0xbeb69ae2	-0.3566504
176	0x3e90f192	0.28309304
177	0x3e2bedf8	0.16789997
178	0xbd91fadf	-0.07127928
179	0x3ddbc0d3	0.10730138

bn1.running_var f4 [180]
0	0x3d379f4d	0.044829655
1	0x3d61e989	0.055154357
2	0x3d86e06b	0.06585773
3	0x3d0d6d1a	0.034527875
4	0x3d0d5047	0.034500387
5	0x3dcbf009	0.099578924
6	0x3d83a62a	0.06428178
7	0x3d6008cd	0.054695893
8	0x3d006bb2	0.031352706
9	0x3d186f72	0.037215658
10	0x3d2be86d	0.041969705
11	0x3d6b86e4	0.05750169
12	0x3d563e74	0.052305654
13	0x3d653eff	0.05596828
14	0x3d0370bb	0.03208993
15	0x3d245e9a	0.04012928
16	0x3d1beb36	0.03806611
17	0x3d23b20d	0.039964724
18	0x3d53acad	0.05167835
19	0x3d2c326d	0.042040277
20	0x3d08312c	0.03325002
21	0x3ce73758	0.028224632
22	0x3d1ae37a	0.037814595
23	0x3d6435af	0.05571526
24	0x3d6d92ae	0.058001213
25	0x3d1fe90e	0.039040618
26	0x3d10e4cf	0.03537446
27	0x3d432fa7	0.047652867
28	0x3d38a4c0	0.045078993
29	0x3d3a5f93	0.045501303
30	0x3d6821d6	0.056672893
31	0x3d4ec9dd	0.05048548
32	0x3d6da158	0.058015198
33	0x3d8eacdc	0.06966564
34	0x3d171320	0.036883473
35	0x3d77a2c7	0.06045797
36	0x3ce84a42	0.028355721
37	0x3d5caaf1	0.05387396
38	0x3cef984a	0.029247422
39	0x3cfb6ac0	0.03069055
40	0x3d2dab14	0.04239948
41	0x3cfee083	0.031112915
42	0x3d7def4c	0.06199579
43	0x3d35283a	0.044227816
44	0x3d39be3c	0.045347437
45	0x3d28e829	0.04123703
46	0x3d373d43	0.044736158
47	0x3d648bed	0.055797506
48	0x3d4574b3	0.048206996
49	0x3d82ad0c	0.06380662
50	0x3d11038e	0.03540378
51	0x3d440570	0.047856748
52	0x3d429f0d	0.047514964
53	0x3d4a9270	0.04945606
54	0x3cdcc05c	0.026947193
55	0x3d19270f	0.037390765
56	0x3d140b22	0.03614343
57	0x3d6fbf1f	0.058531877
58	0x3d27f193	0.041001868
59	0x3d8873ab	0.06662687
60	0x3d04beac	0.0324084
61	0x3d307f2d	0.043090034
62	0x3d32a5d4	0.043615177
63	0x3d4f055b	0.050542217
64	0x3d5850cf	0.05281144
65	0x3d2d585f	0.042320605
66	0x3cf29907	0.029613985
67	0x3d064caa	0.032787956
68	0x3d6732fb	0.056445103
69	0x3d32a6f7	0.04361626
70	0x3d0f71e6	0.03502073
71	0x3d359efb	0.04434107
72	0x3d88cb8c	0.066794485
73	0x3d39b06b	0.04533426
74	0x3d5e1aff	0.054224964
75	0x3cff483c	0.031162374
76	0x3d0bf2f3	0.03416724
77	0x3d04dc94	0.032436922
78	0x3d3328a3	0.043739926
79	0x3d380edd	0.04493605
80	0x3d2cb667	0.04216614
81	0x3d3063c4	0.043063894
82	0x3d8e8e31	0.069607146
83	0x3d3899d6	0.045068584
84	0x3d02995d	0.03188454
85	0x3d0b01a5	0.033937115
86	0x3d106aa1	0.03525794
87	0x3d22b788	0.03972581
88	0x3d143ea3	0.036192548
89	0x3d42bbdc	0.047542438
90	0x3d2ec770	0.042670667
91	0x3d93592f	0.07194745
92	0x3d3054ea	0.04304973
93	0x3d3a8b3f	0.04554295
94	0x3d0391ae	0.032121353
95	0x3d2a493e	0.041573755
96	0x3dba019e	0.0908234
97	0x3d24a958	0.04020056
98	0x3d300a84	0.04297878
99	0x3d626146	0.05526855
100	0x3d7d5e4e	0.061857514
101	0x3d2b9ec9	0.041899476
102	0x3d338be7	0.043834593
103	0x3d5c35ce	0.05376225
104	0x3d2acc3d	0.041698683
105	0x3d384fe3	0.04499806
106	0x3d4e5711	0.050376
107	0x3d1c16d8	0.038107723
108	0x3ce261d3	0.027634537
109	0x3d253ac8	0.04033926
110	0x3d39f44f	0.045399006
111	0x3d4295e8	0.047506243
112	0x3d2fb466	0.04289665
113	0x3d29d7c5	0.04146554
114	0x3d263146	0.040574335
115	0x3d6879e2	0.05675686
116	0x3d0e7147	0.034776
117	0x3d41f55b	0.04735313
118	0x3d81c61f	0.06336617
119	0x3cec24a2	0.028826062
120	0x3d1a91a7	0.03773656
121	0x3d680f08	0.05665496
122	0x3d1e9914	0.038720205
123	0x3d2f2e26	0.04276862
124	0x3d0c3bdc	0.034236774
125	0x3d932cdb	0.0718629
126	0x3d31c564	0.043401137
127	0x3d3439c1	0.04400039
128	0x3cf8bb91	0.030362876
129	0x3d33bec8	0.043883115
130	0x3d0700fd	0.032959927
131	0x3d0c1a88	0.03420499
132	0x3d3f33df	0.046680328
133	0x3d7479b7	0.05968639
134	0x3d13ca08	0.036081344
135	0x3d0bf508	0.034169227
136	0x3d19b158	0.037522644
137	0x3d0db33e	0.034594767
138	0x3d0be46e	0.034153394
139	0x3d05f320	0.032702565
140	0x3cecb7c9	0.02889623
141	0x3d011a3f	0.03151917
142	0x3d314c1a	0.043285467
143	0x3d336f48	0.043807298
144	0x3d2e6efe	0.04258632
145	0x3d752723	0.059851777
146	0x3d5c5306	0.053790115
147	0x3d2a69fd	0.041604985
148	0x3d176992	0.036965914
149	0x3d94a0a9	0.07257206
150	0x3d3001c5	0.042970438
151	0x3d920fdd	0.07131932
152	0x3d961915	0.07329003
153	0x3d68637f	0.056735512
154	0x3d2655ca	0.04060916
155	0x3d431b04	0.047633186
156	0x3d16eb9c	0.03684579
157	0x3d2bb364	0.041919127
158	0x3d2993b9	0.041400645
159	0x3d4359bb	0.047692996
160	0x3d3f75e7	0.0467433
161	0x3d712509	0.05887321
162	0x3d325e1e	0.04354679
163	0x3d1fc0ce	0.039002232
164	0x3d424f51	0.047438923
165	0x3d25cf80	0.04048109
166	0x3d2a3126	0.041550778
167	0x3d7d5b32	0.06185455
168	0x3d5c1871	0.053734247
169	0x3d4f04b1	0.050541583
170	0x3d1edf09	0.03878692
171	0x3d450b63	0.048106562
172	0x3d308739	0.04309771
173	0x3d0ecd5b	0.03486381
174	0x3da93489	0.082619734
175	0x3d788396	0.060672365
176	0x3d5fe001	0.054656986
177	0x3d617468	0.055042654
178	0x3cd29832	0.025707338
179	0x3d5f5469	0.05452386
