Proposed model/saved_best_DNN_model/0.39289model_fingerp1.pth (torch, 216672 bytes, 19 tensors)

lin1.weight f4 [180, 166]
0.02369116 0.015291825 0.06465064 0.02072184 -0.027258916 -0.0288939 0.0020680467 -0.005157569
-0.017880471 -0.016821332 0.012900453 0.03691931 0.042414743 -0.050813835 0.020394977 0.00091889786
-0.004001671 0.0003153342 0.07193752 4.8367113e-08 -0.027949337 0.052482598 -0.061441846 0.0079337675
0.051375415 -0.043133646 -0.015809584 -0.0024527137 0.0036210776 0.0620585 2.181565e-05 -0.056880713
-0.03401176 0.00449177 -0.036600955 -0.07873593 0.052437022 -0.027547551 -0.02716218 -0.06610821
-0.035966013 -0.0059850784 0.07133236 -0.011110523 -0.057495523 -0.0126375975 0.06618271 -0.0037031686
-0.050231043 -0.07872415 0.04252694 0.030607866 0.029363567 0.045907687 -0.07313081 -0.07859593
0.029374935 0.035072412 -0.047572363 -0.054394204 -0.07703443 -0.02223815 -0.056722198 -0.05136552
0.041253928 -0.041047126 0.019889299 0.03516043 -0.028424868 0.066445045 0.015745495 -0.018353827
0.010555222 -0.021166848 0.008239921 -0.010877824 0.011428637 -0.046772595 -0.079508856 0.042068124
0.022868264 0.013865174 -0.012002679 0.004904252 0.021541633 0.062003925 0.016570885 -0.032937497
-0.02502465 0.005485785 0.061023157 0.015576592 0.045754906 -0.033791795 0.03230478 -0.042915527
0.04464287 0.02408902 0.026571045 0.06704066 0.061757293 -0.058146976 0.026661439 -0.021430291
0.033436302 0.015209363 0.0054655243 -0.03385372 0.05923384 0.018798748 0.08175771 0.049216043
0.033493612 0.033348102 0.049498215 -0.012674585 0.057524122 0.025177397 0.06957518 0.08061629
-0.050298754 -0.05483431 0.07662299 -0.021372942 -0.00858015 0.057400804 0.010249351 -0.014484157
0.054262135 0.044938046 0.06830565 -0.016299034 -0.064671084 -0.0055586835 -0.078707226 -0.072437584
0.06117224 -0.012225261 -0.05428238 -0.047456145 -0.030385735 -0.03263346 0.00064945914 -0.07280206
0.024432935 0.03447536 -0.018671606 -0.0036601794 0.059157394 0.069204524 -0.012510619 0.050452523
-0.06290694 0.032509983 -0.026658116 -0.028094342 -0.069917575 0.0510008 -0.06608944 -0.015160192
0.012022316 -0.024804737 0.0605763 -0.038796622 0.026244849 0.04779707 0.0020622145 0.0004436787
0.031721342 7.858033e-12 -0.01968856 0.0054424764 0.023033774 0.043543268 -0.07307781 0.030935321
-0.010332185 -0.0018703339 0.060430482 0.03593989 -0.0130593525 0.05974203 0.02406369 0.047235556
0.0047403174 5.4645878e-11 0.046169512 0.05526016 -0.055654004 -0.078996435 0.076886624 -0.006837218
0.015791677 0.06218311 0.0013118922 0.071793966 0.0024071508 0.059273463 -0.027303804 0.032922775
0.014823784 -0.0777811 0.009124883 -0.046157163 0.04541147 -0.0018907408 -0.0117621925 -0.017995961
0.06856398 0.015596224 0.034389026 -0.029864535 -0.034586985 -0.03523239 0.05150587 0.041454878
0.036720905 -0.022518966 0.015747871 -0.00776376 0.030968534 0.038848065 -0.01156252 -0.036065474
0.017860126 0.07746741 -0.06974293 0.04488381 0.05030017 -0.0776633 -0.0018469552 0.03383398
-0.030834967 -0.025117818 -0.0427304 0.010845813 -0.073665485 -0.037427362 0.06982687 -0.019587792
-0.027285142 -0.08195728 0.04212315 0.037050977 -0.06802544 0.030519253 0.005220542 0.026809705
-0.014783162 0.0027099936 -0.039076112 0.051444028 -0.010193272 -0.058826078 -0.05672621 0.052220006
00000000: f713 c23c 908a 7a3c 8e67 843d d9c0 a93c
00000010: 174e dfbc e6b2 ecbc 1188 073b d300 a9bb
00000020: 117a 92bc e4cc 89bc 6c5c 533c b438 173d
00000030: 15bb 2d3d 2b22 50bd 5e13 a73c 31e2 703a
00000040: 7320 83bb 7153 a539 fa53 933d 34bc 4f33
00000050: 02f6 e4bc fef7 563d 72aa 7bbd a2fc 013c
00000060: 076f 523d e8ac 30bd 1a83 81bc b5bd 20bb
00000070: 9a4f 6d3b 0e31 7e3d c000 b737 c0fb 68bd
00000080: ea4f 0bbd b32f 933b e2ea 15bd 4e40 a1bd
00000090: 34c8 563d 67ab e1bc 3883 debc be63 87bd
000000a0: 1951 13bd 7a1e c4bb b316 923d e908 36bc
000000b0: 6d80 6bbd ed0d 4fbc cd8a 873d dcb0 72bb
000000c0: 11bf 4dbd 213a a1bd bb30 2e3d 59bd fa3c
000000d0: dd8b f03c b309 3c3d 9bc5 95bd e7f6 a0bd
000000e0: b4a3 f03c 17a8 0f3d 3ddb 42bd 75cc 5ebd
000000f0: 3ac4 9dbd c82c b6bc 8955 68bd a764 52bd
00000100: e1f9 283d 0821 28bd e2ee a23c 6204 103d
00000110: 45db e8bc 5714 883d b2fc 803c c45a 96bc
00000120: cfef 2c3c 1966 adbc bc00 073c e738 32bc
00000130: 2e3f 3b3c 9f94 3fbd 8ad5 a2bd a04f 2c3d
00000140: 3a56 bb3c c12a 633c e2a6 44bc d9b3 a03b
00000150: 1478 b03c d4f7 7d3d aabf 873c 78e9 06bd
00000160: 7f00 cdbc 1ac2 b33b 6bf3 793d f634 7f3c
00000170: 7f69 3b3d 4469 0abd 0452 043d 31c8 2fbd
00000180: 71db 363d 5656 c53c 85ab d93c 9d4c 893d
00000190: 37f5 7c3d 862b 6ebd 1769 da3c 948e afbc
000001a0: 81f4 083d b130 793c 2418 b33b 33aa 0abd
000001b0: 2f9f 723d d5ff 993c 9670 a73d c396 493d
000001c0: 9930 093d 0598 083d a4be 4a3d 10a9 4fbc
000001d0: 6a9e 6b3d d440 ce3c 6f7d 8e3d 271a a53d
000001e0: 1106 4ebd f199 60bd 84ec 9c3d 4f16 afbc
000001f0: c293 0cbc 1b1d 6b3d e5ec 273c f54e 6dbc
00000200: f941 5e3d f510 383d d5e3 8b3d 8d85 85bc
00000210: 4672 84bd 9e25 b6bb 4131 a1bd 285a 94bd
00000220: be8f 7a3d 764c 48bc 3357 5ebd 6061 42bd
00000230: 81eb f8bc aaaa 05bd 7740 2a3a 3f19 95bd
00000240: 9427 c83c 0936 0d3d 32f5 98bc 9fdf 6fbb
00000250: 064f 723d 1abb 8d3d 57f9 4cbc 4ea7 4e3d
00000260: 5bd5 80bd 3029 053d 1f62 dabc 1b26 e6bc
00000270: f230 8fbd 37e6 503d e659 87bd 7462 78bc
00000280: 40f9 443c 4e33 cbbc db1e 783d 35e9 1ebd
00000290: 70ff d63c dcc6 433d 3826 073b 8c9d e839
000002a0: 3dee 013d 6f3d 0a2d e749 a1bc cd56 b23b
000002b0: 53b1 bc3c 6d5a 323d d2a9 95bd 126c fd3c
000002c0: 5348 29bc fe25 f5ba f485 773d b535 133d
000002d0: e5f6 55bc 0fb4 743d 3721 c53c 127a 413d
000002e0: aa54 9b3b ca55 702e 3e1c 3d3d 7a58 623d
000002f0: 74f5 63bd e2c8 a1bd bc76 9d3d be0a e0bb
00000300: 8c5d 813c b7b3 7e3d ccf3 ab3a b708 933d
00000310: 4ac1 1d3b bbc8 723d 3aac dfbc 08da 063d
00000320: 75df 723c b34b 9fbd 8980 153c 4b0f 3dbd
00000330: 6101 3a3d bcd2 f7ba 36b6 40bc 446c 93bc
00000340: 466b 8c3d 4e87 7f3c 82db 0c3d 78a6 f4bc
00000350: 15ab 0dbd d74f 10bd d2f7 523d 97cc 293d
00000360: a968 163d b279 b8bc ae01 813c 2467 febb
00000370: b9b1 fd3c 261f 1f3d b970 3dbc 64b9 13bd
00000380: 664f 923c 3ca7 9e3d 62d5 8ebd 16d8 373d
00000390: 8d07 4e3d f00d 9fbd 8815 f2ba 8095 0a3d
000003a0: 9d99 fcbc e2c3 cdbc 1206 2fbd a3b2 313c
000003b0: eedd 96bd 6f4d 19bd 6401 8f3d 9476 a0bc
000003c0: 1785 dfbc 38d9 a7bd 5389 2c3d c4c2 173d
000003d0: ec50 8bbd 8303 fa3c 1511 ab3b 07a0 db3c
000003e0: 1335 72bc 269a 313b 460e 20bd f9b6 523d
000003f0: ae01 27bc 9df3 70bd be59 68bd a5e4 553d

lin1.bias f4 [180]
0.01497401 0.0032027897 -0.02236344 0.0037475184 0.00033206356 0.0017637956 0.008705897 -0.0007927581
-0.00036705317 -8.491237e-06 -0.02289308 0.026866708 0.0053776805 0.0020096658 -0.0021891727 0.009507347
1.0767355e-06 -0.005115348 1.4510381e-06 0.001074774 -3.8259764e-06 -0.009862164 -0.02400465 -0.026144765
-0.02004286 -4.266048e-06 -0.023644086 0.016582483 0.00029193546 -0.00799999 0.008354895 0.012380319
-2.8797249e-05 -1.1221533e-06 0.02421314 -0.0038043773 0.00881714 3.105634e-06 0.03353579 6.810983e-07
0.00012243661 0.03308314 -1.0075274e-06 -0.022996247 -0.028045746 0.013510801 0.00026555842 0.008716195
-0.0041574645 -0.02197905 -1.7844711e-06 4.067459e-06 0.005479534 0.01757692 -0.012284267 -0.022282995
0.0002723007 -5.970035e-06 0.017583417 -1.7481081e-05 -0.016975844 -0.0011960174 0.00022179271 0.033458035
-0.023939734 -0.023248952 -6.145365e-07 0.0013590219 0.000117866126 4.5690867e-06 -2.0556688e-06 -1.2300967e-05
-0.0040125125 0.00047692435 -0.0303572 -5.3018124e-07 -0.00051116577 0.034408957 -0.0005226831 0.01657872
6.954807e-07 -0.01950108 -3.7149023e-06 -6.6965204e-06 -2.725947e-06 1.4392166e-06 0.010687159 0.034371965
-3.4502607e-06 1.1384284e-06 5.372614e-07 0.017984638 -0.012007705 -0.0038824554 0.03364073 0.0012333273
0.016864887 -0.021344423 -0.03404979 -0.0040987567 7.4282334e-06 -0.00044064267 0.004609189 -3.8301832e-06
0.001621657 0.028829953 -6.5451604e-07 7.656629e-07 -0.004391059 0.010193463 -0.027534982 0.0034924624
0.034623474 -0.010084702 -1.6155582e-06 -0.007015967 1.9440117e-06 -1.04667016e-07 -4.397911e-07 0.0011910134
-0.0086531555 0.020390853 0.02069753 -0.0026627227 0.0014458152 -0.011570465 -7.913096e-07 -0.00014356636
-0.015459715 -4.091637e-06 -0.011972205 -0.03125771 -9.3403025e-05 1.9786148e-06 0.030472562 0.021099595
0.004800625 1.6558247e-06 -0.0018081319 -1.9325744e-06 4.590294e-06 -0.031180115 -0.0006299791 -0.0019176663
9.935198e-05 -0.02065242 1.4127808e-06 -0.023737116 -8.380127e-05 -0.009916626 0.005919237 -8.779858e-05
-0.0054447753 5.874773e-06 0.005647731 4.0998052e-07 -9.149714e-06 0.0040209154 0.022709042 0.017530581
0.005884547 3.1802253e-06 0.0019090222 -0.0031323554 0.002571528 0.017954119 -0.004451386 -5.0604905e-07
-0.0054601375 -4.631378e-06 -0.006176246 -0.024594346 -0.0010394183 2.1316432e-06 0.011426405 -0.012501333
0.00049445935 -0.023733469 -9.744114e-07 -4.6697205e-06
00000000: 8d55 753c e5e5 513b 8833 b7bc ed98 753b
00000010: d118 ae39 292f e73a 2ea3 0e3c 18d1 4fba
00000020: 0b71 c0b9 9675 0eb7 458a bbbc 9217 dc3c
00000030: 4137 b03b 99b4 033b 3978 0fbb b4c4 1b3c
00000040: 5a84 9035 a69e a7bb 4ac1 c235 6edf 8c3a
00000050: e360 80b6 ea94 21bc 66a5 c4bc 8c2d d6bc
00000060: ed30 a4bc 1325 8fb6 3eb1 c1bc fdd7 873c
00000070: ea0e 9939 6412 03bc f8e2 083c d2d6 4a3c
00000080: 9f91 f1b7 e59c 96b5 a35a c63c dc52 79bb
00000090: c475 103c 636a 5036 d35c 093d b8d4 3635
000000a0: 5462 0039 3082 073d 613a 87b5 a062 bcbc
000000b0: 31c0 e5bc 685c 5d3c a63a 8b39 5fce 0e3c
000000c0: 573b 88bb 690d b4bc f681 efb5 357b 8836
000000d0: aa8d b33b 79fd 8f3c f343 49bc d48a b6bc
000000e0: 95c3 8e39 3652 c8b6 190b 903c 56a4 92b7
000000f0: ed10 8bbc afc3 9cba 0791 6839 4b0b 093d
00000100: 431d c4bc 9674 bebc a0f6 24b5 3521 b23a
00000110: e52e f738 2850 9936 1ff4 09b6 4060 4eb7
00000120: 657b 83bb b40b fa39 aaaf f8bc c751 0eb5
00000130: c1ff 05ba 68f0 0c3d ab04 09ba 19d0 873c
00000140: 12b1 3a35 bbc0 9fbc 894d 79b6 acb2 e0b6
00000150: 6aef 36b6 1b2b c135 3219 2f3c 9ec9 0c3d
00000160: 078b 67b6 1acc 9835 5338 1035 8554 933c
00000170: f7bb 44bc cb70 7ebb ddca 093d 99a7 a13a
00000180: 3b28 8a3c 80da aebc cb77 0bbd dd4e 86bb
00000190: 0a40 f936 0f06 e7b9 ae08 973b 0685 80b6
000001a0: c88d d43a cb2c ec3c 00b2 2fb5 f487 4d35
000001b0: dfe2 8fbb 7c02 273c 0b91 e1bc cce1 643b
000001c0: 58d1 0d3d 4e3a 25bc 28d6 d8b5 32e6 e5bb
000001d0: de75 0236 4dc5 e0b3 6e1c ecb4 c71b 9c3a
000001e0: f7c5 0dbc b80a a73c de8d a93c 1381 2ebb
000001f0: 8281 bd3a 0c92 3dbc 626a 54b5 4d8a 16b9
00000200: bf4a 7dbc e54a 89b6 1127 44bc 1608 00bd
00000210: 5ee1 c3b8 58c8 0436 98a1 f93c 0fd9 ac3c
00000220: 904e 9d3b b43d de35 d7fe ecba 60b1 01b6
00000230: 5306 9a36 716d ffbc 2f25 25ba 345a fbba
00000240: 305b d038 442f a9bc c79e bd35 5774 c2bc
00000250: 77be afb8 5879 22bc 29f6 c13b 8120 b8b8
00000260: 166a b2bb ea1f c536 9a10 b93b 4b1b dc34
00000270: b981 19b7 e2c1 833b 5008 ba3c 4b9c 8f3c
00000280: 28d3 c03b db6b 5536 2838 fa3a 3448 4dbb
00000290: 1587 283b 8414 933c efdc 91bb 6dd7 07b5
000002a0: f4ea b2bb 3c67 9bb6 1b62 cabb 157a c9bc
000002b0: 173d 88ba 5a0d 0f36 d135 3b3c 64d2 4cbc
000002c0: 9b9e 013a b16c c2bc 85c8 82b5 98b0 9cb6

lin2.weight f4 [96, 180]
-0.018977134 -0.047323033 -0.052279238 0.046129957 0.03567207 0.06539656 -0.030659957 -0.064776346
0.06854987 0.015355817 -0.03130607 9.368078e-05 0.059349515 -0.038301025 0.05292834 -0.057222642
-0.011821668 0.0023480835 -0.068555266 -0.008508469 -0.023906715 -0.003272203 0.03522885 -0.062435076
-0.0080492385 -0.051634103 0.01664881 0.043245 0.03978436 0.014785334 0.07272573 -0.06435837
0.0023112914 -0.0071976413 0.048478957 0.07219969 0.03466445 0.0040956466 0.013762396 0.0147706475
0.061160706 -0.01288999 -0.064219154 -0.015966453 -0.05123885 0.034021586 -0.0646907 0.031218903
-0.05755299 0.005270088 0.04057998 -0.03105178 0.049937528 0.021141466 0.031332985 -0.02803345
-0.0392885 -0.05865403 0.0774817 -0.031711433 -0.071517535 0.038513377 -0.007500887 -0.03662912
-0.057387337 0.05392169 0.00846279 -0.008153278 0.044243295 0.04664047 -0.038843215 0.031111395
0.076671034 -0.02717959 -0.011225258 -0.043936413 -0.056624293 0.06915285 -0.008460332 0.037864756
-0.04137843 0.053002633 0.005007607 -0.0063665328 -0.030569864 0.0026043905 -0.0028369692 0.051651075
-0.057494413 -0.07560265 -0.016812902 0.055166762 0.05850729 0.056802943 -0.01744161 0.051683966
-0.056199066 0.04662916 0.013200571 0.0008363099 -0.06406772 -0.053748272 0.037178855 0.0075274524
-0.025249105 0.059852086 -0.02200048 0.07181021 0.048644688 -0.03160549 0.05393333 0.0005459989
0.027165532 -0.033380378 -0.015747804 -0.042254806 0.02499813 -0.066330865 -0.07260997 0.046210688
0.011270477 -0.05184151 0.0061192075 0.03932354 -0.060757697 -0.05162449 -0.05179262 0.043806124
0.0099838255 0.03130552 0.038133547 0.057574164 -0.037484758 -0.06516408 -0.03496254 0.04975225
-0.03861492 0.023546623 0.00087345135 -0.059918806 0.028702548 -0.024765072 0.01921448 0.021979786
-0.01232058 -0.050663806 0.04196966 -0.04185832 -0.0012539965 0.04849755 0.020746812 0.04200351
-0.025905367 0.05551501 -0.048402768 -0.023243804 0.072575785 -0.04377492 -0.01380452 -0.039826967
-0.067046605 0.06296715 -0.009477286 0.07599535 -0.04639599 0.0209086 -0.02299121 -0.025010183
0.03125551 -0.006857248 -0.03559948 0.043299567 0.025079709 -0.014085596 0.026830705 0.07762582
-0.060005836 0.06078843 -0.055001974 0.034858413 0.02413001 -0.014688065 0.0041258796 0.05735555
0.0028825288 -0.07065893 0.023066297 0.066003494 0.03479359 -0.013739897 -0.03007073 0.06314518
-0.05330279 0.0026424173 0.07739803 0.0136221545 0.07416292 -0.055348035 0.018142503 0.046892293
0.022827253 0.046333097 -0.0012989423 0.00922637 0.013157716 0.029575914 -0.042993337 0.027337447
0.054421972 -0.036315408 -0.029498087 -0.055863727 -0.021296868 0.031805255 -0.07531818 0.007431573
0.08353868 -0.013436594 0.06164788 0.024342867 0.005765124 0.01771719 -0.052673332 0.0077463593
-0.039781615 0.07239592 0.0012540801 0.049542826 -0.054840293 -0.048501514 0.038337816 -0.056980785
-0.07173514 0.029744988 0.037544 -0.037814796 0.024840891 0.03197651 0.021363638 0.050923962
-0.0059835897 -0.07516317 -0.007504241 -0.0043512885 -0.004441039 -0.06835277 0.04704399 -0.043669295
-0.03908219 -0.0069844676 0.0052016354 -0.025559094 -0.06156389 -0.008865393 -0.04220985 0.0541758
00000000: ef75 9bbc ccd5 41bd c122 56bd c4f2 3c3d
00000010: e01c 123d a2ee 853d 972a fbbc 76a9 84bd
00000020: e063 8c3d f796 7b3c cb3a 00bd 7c76 c438
00000030: 7a18 733d 89e1 1cbd 63cb 583d 4a62 6abd
00000040: abaf 41bc 4ee2 193b b466 8cbd 1b67 0bbc
00000050: 04d8 c3bc 7572 56bb 204c 103d ecbb 7fbd
00000060: f4e0 03bc 487e 53bd 1663 883c ab21 313d
00000070: edf4 223d 2f3e 723c 3af1 943d 52ce 83bd
00000080: 0979 173b 31da ebbb df91 463d 6edd 933d
00000090: 4ffc 0d3d c634 863b ac7b 613c 9600 723c
000000a0: a683 7a3d 8930 53bc 5585 83bd 14cc 82bc
000000b0: d4df 51bd 385a 0b3d 8f7c 84bd c9be ff3c
000000c0: afbc 6bbd b4b0 ac3b 3137 263d 4d60 febc
000000d0: 4b8b 4c3d de30 ad3c 0457 003d 68a6 e5bc
000000e0: faec 20bd 353f 70bd baae 9e3d d9e3 01bd
000000f0: c977 92bd 34c0 1d3d 00ca f5bb 6b08 16bd
00000100: fc0e 6bbd fddc 5c3d 84a7 0a3c 5495 05bc
00000110: 7538 353d 140a 3f3d 101a 1fbd 53dd fe3c
00000120: b405 9d3d bba7 debc 25ea 37bc abf6 33bd
00000130: e0ee 67bd 02a0 8d3d 349d 0abc 1318 1b3d
00000140: 6e7c 29bd 4a19 593d da16 a43b 599e d0bb
00000150: a76d fabc 6cae 2a3b 72ec 39bb 1490 533d
00000160: 437f 6bbd 90d5 9abd 36bb 89bc 8bf6 613d
00000170: 57a5 6f3d 34aa 683d b5e1 8ebc 91b2 533d
00000180: fe30 66bd 38fe 3e3d 3547 583c cf3b 5b3a
00000190: f035 83bd 2627 5cbd db48 183d d9a8 f63b
000001a0: 36d7 cebc 7627 753d 5a3a b4bc 3b11 933d
000001b0: a73f 473d c274 01bd 32e9 5c3d 5e21 0f3a
000001c0: 408a de3c ddb9 08bd 8a01 81bc 6013 2dbd
000001d0: e1c8 cc3c 7ad8 87bd 89b4 94bd 6b47 3d3d
000001e0: cfa7 383c c357 54bd a283 c83b b811 213d
000001f0: 10dd 78bd 3474 53bd 8024 54bd 0d6e 333d
00000200: 3393 233c 383a 003d ec31 1c3d e3d2 6b3d
00000210: 9e89 19bd bf74 85bd e134 0fbd 04c9 4b3d
00000220: ae2a 1ebd d9e4 c03c 54f8 643a 6c6d 75bd
00000230: 9b21 eb3c 1fe0 cabc af67 9d3c f40e b43c
00000240: 42dc 49bc da84 4fbd 61e8 2b3d a173 2bbd
00000250: 245d a4ba 5ea5 463d 38f5 a93c df0b 2c3d
00000260: 7e37 d4bc b563 633d fb41 46bd ca69 bebc
00000270: 9da2 943d 554d 33bd 5a2c 62bc 9a21 23bd
00000280: bb4f 89bd ecf4 803d 9e46 1bbc 73a3 9b3d
00000290: b909 3ebd 8348 ab3c 1058 bcbc 28e2 ccbc
000002a0: c705 003d c4b2 e0bb c3d0 11bd e35a 313d
000002b0: f673 cd3c 46c7 66bc 11cc db3c 49fa 9e3d
000002c0: aec8 75bd 4afd 783d c049 61bd b2c7 0e3d
000002d0: 4cac c53c 36a6 70bc 6332 873b a7ed 6a3d
000002e0: cfe8 3c3b a1b5 90bd 88f5 bc3c d72c 873d
000002f0: b983 0e3d 4e1d 61bc e456 f6bc 4352 813d
00000300: 0754 5abd 682c 2d3b dc82 9e3d 752f 5f3c
00000310: bbe2 973d 9fb4 62bd 969f 943c 2212 403d
00000320: 3800 bb3c c6c7 3d3d 4541 aaba 332a 173c
00000330: 7693 573c 3049 f23c c819 30bd c8f2 df3c
00000340: 93e9 5e3d 77bf 14bd f9a5 f1bc 5dd1 64bd
00000350: c576 aebc 3a46 023d 6b40 9abd 8d84 f33b
00000360: 5416 ab3d 2925 5cbc 7d82 7c3d b16a c73c
00000370: 5ee9 bc3b a423 913c febf 57bd 2cd5 fd3b
00000380: 0cf2 22bd 5044 943d f25f a43a 6bed 4a3d
00000390: 37a0 60bd 86a9 46bd 1d08 1d3d af64 69bd
000003a0: e0e9 92bd c3ab f33c bdc7 193d b0e3 1abd
000003b0: 207f cb3c cdf9 023d cc02 af3c a595 503d
000003c0: fd11 c4bb 26ef 99bd 23e6 f5bb 4195 8ebb
000003d0: 2386 91bb 89fc 8bbd 33b1 403d 93de 32bd
000003e0: a514 20bd f6dd e4bb 7b72 aa3b 4e61 d1bc
000003f0: 6b2a 7cbd 2740 11bc 3ce4 2cbd 72e7 5d3d

lin2.bias f4 [96]
-0.030378431 0.013499703 0.008161747 0.00050870713 -0.016193653 0.0019848724 -0.026022272 0.00925935
-0.013681637 -0.0037014703 -0.017474564 -2.82094e-05 0.022700878 -0.019790597 -3.6880974e-05 1.01180985e-05
1.2430194e-06 -1.350179e-05 -0.016561931 0.028601808 -0.00050472276 -6.248413e-07 -8.6998034e-07 0.002636249
0.02673261 4.32227e-06 -0.005467138 -1.1217646e-06 3.9074043e-06 0.017206313 4.494883e-05 -0.007413985
0.025262803 -0.020306516 -0.0053308774 -0.008836042 0.007826672 0.0108404085 0.02684132 -0.010466243
-7.098977e-07 1.6504127e-06 -0.0066253757 -0.005106747 -0.01591645 -0.022280315 -2.1180551e-06 0.0015629067
7.0700494e-08 0.026508361 0.016443307 0.02467282 -1.1744265e-07 -0.011613334 0.0047721704 -0.030527221
0.00096498727 -0.007842219 0.014085381 0.0006412181 0.003372644 -0.005076626 3.3038739e-06 -0.010856886
0.014937215 0.013376691 -0.027307047 3.288147e-06 -0.0004341113 -2.105442e-06 0.020460017 -1.8806983e-07
-0.030260537 -0.0024276918 0.026336968 0.020543376 -0.001954363 -0.0048272796 0.019913398 -0.012993594
-0.030402029 -0.031874016 6.220091e-08 0.0066918167 0.0038009277 -1.526897e-06 -4.8115476e-06 0.008851186
0.031229636 -1.003879e-06 -0.008192277 -0.007548904 0.0032742566 4.773313e-07 -7.103619e-07 -4.249646e-07
00000000: 30dc f8bc dc2d 5d3c d9b8 053c c25a 053a
00000010: 8da8 84bc a214 023b a92c d5bc 87b4 173c
00000020: f228 60bc 5e94 72bb d126 8fbc 3aa3 ecb7
00000030: 31f7 b93c e41f a2bc a5b0 1ab8 e7c0 2937
00000040: d2d5 a635 bf85 62b7 e3ac 87bc 574e ea3c
00000050: 5f4f 04ba c4ba 27b5 9888 69b5 ebc4 2c3b
00000060: 59fe da3c 0408 9136 ad25 b3bb 8a8f 96b5
00000070: 591c 8336 41f4 8c3c 7087 3c38 04f1 f2bb
00000080: f0f3 ce3c da59 a6bc a4ae aebb 0cc5 10bc
00000090: 713b 003c f89b 313c 54e2 db3c 9b7a 2bbc
000000a0: cc8f 3eb5 c083 dd35 ae19 d9bb 8056 a7bb
000000b0: 3763 82bc 3585 b6bc e923 0eb6 72da cc3a
000000c0: 02d4 9733 1028 d93c 1db4 863c a71e ca3c
000000d0: c834 fcb3 da45 3ebc de5f 9c3b 3914 fabc
000000e0: 33f7 7c3a a77c 00bc 5fc6 663c 6b17 283a
000000f0: 9407 5d3b d359 a6bb 1fb8 5d36 15e1 31bc
00000100: 38bb 743c e929 5b3c 07b3 dfbc efa9 5c36
00000110: 6f99 e3b9 384b 0db6 c49b a73c 3ef0 49b4
00000120: f2e4 f7bc e919 1fbb a0c0 d73c 954a a83c
00000130: c514 00bb 282e 9ebb 6c21 a33c 15e3 54bc
00000140: ad0d f9bc 548e 02bd 5093 8533 0747 db3b
00000150: fc18 793b c8ef ccb5 e172 a1b6 9104 113c
00000160: 4bd5 ff3c 05bd 86b5 e638 06bc cc5c f7bb
00000170: e994 563b f521 0035 b3af 3eb5 b126 e4b4

lin3.weight f4 [40, 96]
-0.00986613 0.109363444 -0.07783342 0.029091945 -0.080478266 -0.053450268 0.050946116 0.08490764
0.009764829 0.016403217 0.089746945 0.00068592123 0.0011291093 0.009770089 0.050181016 0.0120605305
-0.028151011 -0.053052504 0.08525178 -0.018377062 -0.026001593 -0.06684503 -0.062374063 0.06415466
0.032600805 0.056075208 0.08342252 0.047240764 0.114990085 -0.059468493 -0.081138216 -0.059484195
0.009496104 -0.09814083 0.031823628 -0.0357745 -0.055688195 -0.08326186 0.07880586 0.01591004
-0.013688119 0.048785858 -0.06968483 -0.06568151 -0.11897775 -0.009709201 -0.048993524 -0.09263754
-0.07401631 0.08734978 -0.08746921 -0.01562799 -0.060661074 0.024160866 -0.023165008 -0.07457536
0.002191654 -0.011980691 0.028054962 0.05965698 -0.059333213 -0.056881715 0.052619934 -0.08124715
0.08366137 -0.0466869 -0.014485451 -0.008822541 -0.0045973877 0.024197675 0.023327317 0.008480481
-0.011859541 0.016677635 0.011894907 0.021987844 0.0037414038 0.052270506 -0.01308894 -0.013961797
0.045585968 0.053573262 -0.05537963 -0.08270775 0.0193568 0.082880005 0.033752464 0.025507228
-0.060205232 -0.0662799 -0.098853335 0.044982966 -0.073126435 -0.098855145 -0.08420752 -0.015279064
-0.0044449777 -0.055999998 0.044173405 0.017092235 -0.057366613 0.002895228 0.04839136 0.027638674
-0.06578292 0.07964878 0.018160027 -0.0121323345 0.04152821 0.06069212 0.08064854 -0.017684776
0.04489571 0.048976067 0.02720582 0.08509612 -0.07051265 -0.031802997 0.019865498 0.012550515
0.0443041 -0.013690028 0.043273218 0.08993994 -0.026614884 0.014553292 0.033605587 0.100509636
0.06285003 0.046126656 -0.000738018 0.046415556 -0.048518904 0.0381374 0.0070517026 0.07040564
0.049264923 -0.05923151 0.013700043 -0.074384436 -0.005479294 -0.043316286 0.063572004 -0.065547876
0.04287152 -0.057069745 0.08154132 -0.06978676 0.07353174 0.027622728 -0.0358945 0.07963162
0.07936738 -0.08928172 0.05884872 0.0781621 -0.064241335 -0.012787057 -0.019839598 -0.026302114
-0.05119018 0.04491051 0.0562388 0.09538491 -0.014969322 -0.062851205 0.017028699 0.071757846
0.05805183 0.030445617 -0.06456389 0.07101274 -0.038120005 -0.05004644 0.028052462 -0.0629918
0.08960961 -0.015397812 -0.05426783 0.042704806 0.0070636948 0.053323586 0.0150247095 -0.067988366
0.04419157 -0.010115301 0.10113348 -0.03649792 0.037018802 -0.06264044 -0.08475439 -0.08519678
0.028448407 0.004132888 0.03204441 -0.04451601 0.09953217 -0.09317415 -0.060192887 0.035800375
-0.0062863473 -0.0760911 0.08363303 -0.020733137 0.021367578 0.066576734 -0.088742785 0.07996289
0.07532023 -0.0025675648 -0.028376125 -0.023334576 0.06776913 0.060193 0.064690426 0.0020929473
0.08963983 0.089409284 0.023037372 0.09114093 0.110636085 0.035927303 -0.023852197 0.010698375
0.0065961424 0.085921496 0.039537955 -0.10492334 -0.07596579 0.08561052 -0.095718294 0.08354
0.008071736 0.049400877 0.06370849 0.038651876 -0.10566086 0.014438905 -0.0043877745 -0.035029337
0.039608125 0.016273893 0.0500964 -0.03491242 -0.046943806 -0.021279123 0.005078383 0.029322073
-0.09748148 -0.028766371 -0.080109656 -0.07558975 0.038739156 -0.036063675 -0.0016721323 0.0824347
00000000: 8ca5 21bc f1f9 df3d 2167 9fbd 3b52 ee3c
00000010: cad1 a4bd abee 5abd e0ac 503d 0fe4 ad3d
00000020: a9fc 1f3c 0a60 863c 3fcd b73d 65cf 333a
00000030: 9ffe 933a b912 203c 9c8a 4d3d 8899 453c
00000040: f39c e6bc 954d 59bd 7c98 ae3d 7e8b 96bc
00000050: 4b01 d5bc 0ce6 88bd f27b 7fbd 8563 833d
00000060: 6c88 053d 1eaf 653d 6dd9 aa3d 887f 413d
00000070: ec7f eb3d 3c95 73bd cb2b a6bd b3a5 73bd
00000080: 8c95 1b3c 0ffe c8bd 7e59 023d 4888 12bd
00000090: 4e19 64bd 3285 aabd f764 a13d c655 823c
000000a0: 2244 60bc aed3 473d ecb6 8ebd 0784 86bd
000000b0: 9baa f3bd 5713 1fbc 6fad 48bd c0b8 bdbd
000000c0: dd95 97bd 71e4 b23d 0f23 b3bd 4506 80bc
000000d0: bf77 78bd 02ed c53c 8bc4 bdbc f7ba 98bd
000000e0: daa1 0f3b a94a 44bc 85d3 e53c e15a 743d
000000f0: 6207 73bd cdfc 68bd 0088 573d e864 a6bd
00000100: a756 ab3d c33a 3fbd 6354 6dbc 6b8c 10bc
00000110: afa5 96bb 343a c63c ee18 bf3c b7f1 0a3c
00000120: 854e 42bc 899f 883c dbe2 423c da1f b43c
00000130: 5732 753b 9919 563d fe72 56bc 05c0 64bc
00000140: 5ab8 3a3d a36f 5b3d c0d5 62bd ae62 a9bd
00000150: 2792 9e3c febc a93d 0640 0a3d 89f4 d03c
00000160: c399 76bd c2bd 87bd 9e73 cabd 0f40 383d
00000170: 50c3 95bd 9174 cabd fe74 acbd 0a55 7abc
00000180: 2da7 91bb 4160 65bd 2cef 343d 0405 8c3c
00000190: 41f9 6abd debd 3d3b 0536 463d 806a e23c
000001a0: 32b9 86bd e61e a33d 56c4 943c b3c6 46bc
000001b0: 7c19 2a3d 4d98 783d 102b a53d aadf 90bc
000001c0: 90e4 373d 219b 483d bdde de3c e046 ae3d
000001d0: f068 90bd dc43 02bd f8bc a23c ada0 4d3c
000001e0: 3778 353d 244c 60bc 423f 313d 6e32 b83d
000001f0: 7507 dabc ee70 6e3c 03a6 093d ffd7 cd3d
00000200: 84b7 803d 4eef 3c3d 8d77 41ba 3d1e 3e3d
00000210: c2bb 46bd f635 1c3d f811 e73b d530 903d
00000220: 04ca 493d bd9c 72bd 2576 603c de56 98bd
00000230: a68b b3bb 6b6c 31bd 0a32 823d f73d 86bd
00000240: 0c9a 2f3d f7c1 69bd 23ff a63d 5cec 8ebd
00000250: cf97 963d 0f49 e23c 1c06 13bd e715 a33d
00000260: 5d8b a23d 56d9 b6bd 5b0b 713d 7313 a03d
00000270: f690 83bd ce80 51bc a786 a2bc 8877 d7bc
00000280: cbac 51bd 15f4 373d a85a 663d 2a59 c33d
00000290: e341 75bc 22b8 80bd c57f 8b3c c7f5 923d
000002a0: c1c7 6d3d 1669 f93c 133a 84bd 216f 913d
000002b0: b923 1cbd 7ffd 4cbd 47ce e53c d801 81bd
000002c0: 3e85 b73d 1b47 7cbc f247 5ebd 3ceb 2e3d
000002d0: 9176 e73b d569 5a3d 332a 763c 7c3d 8bbd
000002e0: 3802 353d a6ba 25bc 121f cf3d d87e 15bd
000002f0: 07a1 173d a249 80bd b693 adbd a67b aebd
00000300: a20c e93c 2d6d 873b 0041 033d 6b56 36bd
00000310: 86d7 cb3d 17d2 bebd d18c 76bd 6aa3 123d
00000320: b4fd cdbb a7d5 9bbd cb47 ab3d 8ad8 a9bc
00000330: 0f0b af3c 6259 883d c7be b5bd 95c3 a33d
00000340: 7e41 9a3d 9744 28bb 0c75 e8bc 2728 bfbc
00000350: 8bca 8a3d ef8c 763d 6a7c 843d d429 093b
00000360: 1695 b73d 371c b73d dfb8 bc3c 19a8 ba3d
00000370: 2c95 e23d 8228 133d af65 c3bc 3d48 2f3c
00000380: 7424 d83b 9cf7 af3d 8df2 213d 0ce2 d6bd
00000390: f493 9bbd 9154 af3d f407 c4bd 0517 ab3d
000003a0: 513f 043c 9358 4a3d 9979 823d 6e51 1e3d
000003b0: b964 d8bd 2891 6c3c 52c7 8fbb ec7a 0fbd
000003c0: 213c 223d d450 853c e231 4d3d 5300 0fbd
000003d0: 2648 40bd 8e51 aebc 9068 a63b d834 f03c
000003e0: 5fa4 c7bd 74a7 ebbc 8810 a4bd cdce 9abd
000003f0: f3ac 1e3d 81b7 13bd 732b dbba 86d3 a83d

lin3.bias f4 [40]
-0.010548819 0.04876039 -0.028216848 -0.033713505 0.0020742381 0.015474265 1.57933e-06 0.05239594
-0.038041703 -0.031096162 -0.028988007 0.00062118756 -1.7809127e-06 -7.7708955e-07 -4.726637e-06 -0.022821475
0.00577443 -0.0001801384 -0.004270081 0.026423018 -0.004573082 2.20405e-07 -0.045020763 -0.023544809
-5.7619e-07 1.8451956e-06 -1.8564391e-07 0.0074944478 -0.010988327 -0.050652374 -0.027760051 -0.0010452406
-0.0013961184 0.028191488 0.00041666828 -0.02539492 -0.025739921 -0.037070107 7.4240065e-06 5.0123255e-08
00000000: f4d4 2cbc fab8 473d 0527 e7bc 2c17 0abd
00000010: f1ef 073b c687 7d3c 5ef9 d335 209d 563d
00000020: 9ed1 1bbd 61bd febc 4278 edbc 31d7 223a
00000030: b207 efb5 3099 50b5 8199 9eb6 1af4 babc
00000040: 6e37 bd3b 89e3 3cb9 09ec 8bbb 1675 d83c
00000050: cbd9 95bb 77a8 6c34 b167 38bd 0be1 c0bc
00000060: 7aab 1ab5 70a8 f735 6955 47b4 fc93 f53b
00000070: 6208 34bc dd78 4fbd 0c69 e3bc 7400 89ba
00000080: f6fd b6ba d6f1 e63c 4574 da39 0209 d0bc
00000090: 87dc d2bc d3d6 17bd bb1b f936 1a47 5733

lin4.weight f4 [1, 40]
-0.086165704 0.12514463 -0.057763916 0.06405356 0.10513923 0.12404596 0.092839114 0.17317207
0.11914846 -0.06295942 0.0759518 0.10853445 -0.12037192 -0.12363071 0.15425067 0.01728194
0.03339439 0.1826962 -0.10852681 -0.05264561 -0.031650543 -0.011295317 0.13709114 -0.08611813
0.08673682 -0.03972375 0.12064567 -0.12530185 0.11509565 0.02549667 -0.06330203 -0.0128262285
0.1004675 0.19008671 -0.11726432 0.012005491 -0.12290088 0.05350947 0.047110073 -0.07044893
00000000: a577 b0bd ea25 003e db99 6cbd 832e 833d
00000010: 3d53 d73d cf0b fe3d 6f22 be3d 0554 313e
00000020: 1c04 f43d def0 80bd 9e8c 9b3d 4f47 de3d
00000030: 8e85 f6bd 1932 fdbd e3f3 1d3e db92 8d3c
00000040: 8ec8 083d b614 3b3e 4e43 debd eca2 57bd
00000050: 00a4 01bd fe0f 39bc 9f61 0c3e b45e b0bd
00000060: 13a3 b13d 5fb5 22bd 1415 f73d 214f 00be
00000070: 45b7 eb3d 64de d03c 7fa4 81bd 1a25 52bc
00000080: e8c1 cd3d 17a6 423e 4728 f0bd aeb2 443c
00000090: 75b3 fbbd bf2c 5b3d 7ef6 403d 8747 90bd

bn1.weight f4 [180]
0.9965653 1.0010594 0.9996248 0.99996036 0.9893078 1.00154 0.9931318 0.9913
0.9988015 0.997838 0.99382997 0.9980968 0.983812 0.99558824 0.99739784 0.9961719
1.003208 0.9969533 1.0014082 1.002511 0.986425 0.98683363 0.99609953 0.9950188
1.0015905 1.0038275 0.99482816 0.9989677 0.99808794 0.98953253 0.9868296 0.99594206
1.0027113 0.98823565 0.99941015 0.9953508 1.0067046 0.9996498 0.998902 0.9985123
0.9948678 1.0040601 0.98831743 0.99619174 0.9967847 1.0022756 0.99387014 0.99789757
0.99697506 1.000691 0.9861953 1.0001863 0.9951426 0.994923 1.0029802 1.0030365
0.98941815 1.0043708 1.0120775 0.9922831 1.0033683 0.9994582 0.9929373 1.0112606
0.9979279 1.0014598 0.9921055 1.0025766 0.98801243 0.9956736 1.0022573 0.98653966
1.0018429 0.99521285 0.992948 0.9874596 0.9906836 0.99107736 1.001189 0.98953307
1.0137675 1.0003705 1.0009943 0.98217285 0.9883042 0.9985345 0.99069226 0.99839836
0.9929905 1.0005621 0.9863967 0.9964976 0.9942869 1.001574 0.99715585 1.0005944
0.9932001 1.0007184 0.99774337 0.99856585 0.98498493 0.9915474 0.9992632 0.9949688
0.99546313 0.99799037 0.9911577 0.9897545 0.99601793 1.0075212 0.9970046 0.9999927
0.9944024 0.9897325 0.9931584 0.9902558 0.9990908 0.9925076 1.0076433 0.99574447
0.9978808 1.0094491 1.0070118 1.0047345 0.9906874 0.9922379 0.9951176 0.99036866
0.99625534 1.0041703 1.006951 1.0129651 0.9923459 0.99543303 0.99440295 1.0002257
0.9899902 0.9886913 0.995108 0.99876076 0.9985015 0.9947831 0.9893135 1.0001515
1.0011386 1.0000813 1.0119299 0.99763936 0.9914153 1.001957 0.98867935 0.9916982
0.9970217 0.9968432 0.9924313 1.0010722 0.99400467 1.0008934 0.995364 1.0011008
0.9957305 0.9924788 0.9999783 1.0085884 0.99580014 0.98536146 1.0042349 0.9996656
1.000247 0.9965098 0.9932496 0.9960533 0.9986946 0.9944227 0.99927974 0.9919233
1.0024256 1.0010126 0.9979188 0.9996033
00000000: e71e 7f3f b722 803f 69e7 7f3f 67fd 7f3f
00000010: 4743 7d3f 7632 803f e33d 7e3f d6c5 7d3f
00000020: 75b1 7f3f 5072 7f3f a46b 7e3f 4683 7f3f
00000030: 1adb 7b3f dfde 7e3f 7755 7f3f 1f05 7f3f
00000040: 1f69 803f 5538 7f3f 252e 803f 4852 803f
00000050: 5986 7c3f 21a1 7c3f 6100 7f3f 8db9 7e3f
00000060: 1e34 803f 6b7d 803f 0fad 7e3f 59bc 7f3f
00000070: b182 7f3f 0152 7d3f dda0 7c3f 0ff6 7e3f
00000080: d858 803f 03fd 7c3f 58d9 7f3f 4fcf 7e3f
00000090: b2db 803f 0de9 7f3f 0bb8 7f3f 819e 7f3f
000000a0: a8af 7e3f 0b85 803f 5f02 7d3f 6c06 7f3f
000000b0: 482d 7f3f 914a 803f 466e 7e3f 3776 7f3f
000000c0: c239 7f3f a516 803f 4c77 7c3f 1b06 803f
000000d0: aac1 7e3f 46b3 7e3f a861 803f 8063 803f
000000e0: 824a 7d3f 398f 803f c18b 813f 4406 7e3f
000000f0: 5f6e 803f 7edc 7f3f 2431 7e3f fd70 813f
00000100: 3478 7f3f d62f 803f a0fa 7d3f 6e54 803f
00000110: 62ee 7c3f 77e4 7e3f f849 803f dd8d 7c3f
00000120: 633c 803f 45c6 7e3f d731 7e3f 27ca 7c3f
00000130: 719d 7d3f 3fb7 7d3f f626 803f 0a52 7d3f
00000140: 22c3 813f 240c 803f 9520 803f ae6f 7b3f
00000150: 8101 7d3f f59f 7f3f 029e 7d3f 0997 7f3f
00000160: a034 7e3f 6b12 803f 7e84 7c3f 771a 7f3f
00000170: 9689 7e3f 9433 803f 9b45 7f3f 7a13 803f
00000180: 5d42 7e3f 8a17 803f 1c6c 7f3f 03a2 7f3f
00000190: f927 7c3f 0dd6 7d3f b7cf 7f3f 46b6 7e3f
000001a0: acd6 7e3f 4c7c 7f3f 83bc 7d3f 8d60 7d3f
000001b0: 08fb 7e3f 74f6 803f b23b 7f3f 86ff 7f3f
000001c0: 2891 7e3f 1c5f 7d3f a13f 7e3f 6781 7d3f
000001d0: 6ac4 7f3f fa14 7e3f 75fa 803f 1ce9 7e3f
000001e0: 1e75 7f3f a135 813f c3e5 803f 249b 803f
000001f0: b09d 7d3f 4e03 7e3f 07c0 7e3f cd88 7d3f
00000200: 970a 7f3f a788 803f c5e3 803f d7a8 813f
00000210: 620a 7e3f b3d4 7e3f 3191 7e3f 6507 803f
00000220: ff6f 7d3f df1a 7d3f 66bf 7e3f c9ae 7f3f
00000230: cb9d 7f3f 1baa 7e3f a643 7d3f f704 803f
00000240: 4f25 803f aa02 803f eb86 813f 4b65 7f3f
00000250: 65cd 7d3f 2140 803f 171a 7d3f efdf 7d3f
00000260: d03c 7f3f 1e31 7f3f fa0f 7e3f 2223 803f
00000270: 1777 7e3f 461d 803f 2dd0 7e3f 1224 803f
00000280: 32e8 7e3f 1713 7e3f 94fe 7f3f 6d19 813f
00000290: c2ec 7e3f a640 7c3f c58a 803f 16ea 7f3f
000002a0: 1808 803f 441b 7f3f 9b45 7e3f 59fd 7e3f
000002b0: 73aa 7f3f 7c92 7e3f ccd0 7f3f afee 7d3f
000002c0: 7b4f 803f 2e21 803f 9b77 7f3f 00e6 7f3f

bn1.bias f4 [180]
-0.005417778 0.0026669148 -0.0077213594 0.00028054728 -0.0074848523 -0.0031605654 -0.0011763242 -0.010050363
0.002291504 0.0015020879 -0.0065195123 -0.018743273 -0.0077057616 -0.010163359 -0.008364483 -0.0025098033
-0.004957049 0.008789338 0.0023726532 -0.0002073742 -0.011312315 -0.0060467166 -0.004451887 0.00084884814
-0.0061661834 0.003210688 -0.003751678 -0.00010757544 0.002643542 -0.005829016 -0.018147107 -0.007443065
-0.006408766 -0.009684266 -0.009331269 -0.008136027 -0.0037005385 0.0002498193 -0.002827606 -0.005133402
0.0019372771 -0.003891625 -0.0017848677 -0.0041343994 0.002276682 0.005713981 -0.015949165 -0.0026015893
-0.0018901561 -0.00025527558 -0.011182129 0.0021784978 -0.0017830993 0.0055527166 0.0026777012 0.00024245513
-0.0054018423 -0.007179878 0.014610072 -0.001217862 -0.008173694 -0.0025969464 -0.0068572424 0.00062558637
-0.0021971748 0.0047134585 0.009617214 -0.001881677 -0.00923923 -0.0060565355 -0.011996725 -0.0070918426
0.0006994851 -0.002497235 -0.00024963927 -0.00929189 -0.006481905 -0.005196689 -0.0031156614 -0.005238926
-0.005366563 -0.0029676938 0.0025136091 -0.013346069 -0.0021463127 -0.005440762 -0.012659083 0.0053740917
-0.0050577866 -0.0021658726 -0.008191163 0.0004791904 -0.00459814 -0.0028539312 -0.0059649814 0.0027845167
0.0037101868 0.0049697077 -0.009293921 -0.0049583353 -0.0018482411 -0.012893946 -7.0912574e-05 -0.012152931
-0.00012916615 -0.0037364047 -0.006149968 -0.008832235 -0.006292787 0.00982345 -0.005352898 -0.0037506346
-0.0027975847 -0.0034208153 -0.0013739069 -0.00677493 -0.008437939 -0.0024806857 0.008120526 -0.008971499
-0.008122063 0.00056808535 0.00034349 0.01254689 -0.0052911504 -0.00085448514 -0.0041928315 -0.005939901
-0.0058431234 0.0027857916 0.0017350676 0.0005589527 -0.007238637 -0.004444836 0.0010712987 -0.0017365979
-0.009693881 -0.008633992 -0.006422995 -0.0014050514 0.0001606121 -0.0063836533 -0.0075223935 -0.004665566
-0.0012222623 0.007630765 -0.0054053455 -0.002871015 -0.011276375 0.009359962 -0.0048539923 -0.0044712005
-0.0005900462 -0.021459896 -0.007873411 -0.0065528043 -0.008744966 -0.007521308 -0.0082325665 0.003929908
0.0006233567 -0.0074477135 -0.005409933 0.012012913 -0.0014887879 -0.013085745 0.0020211963 -0.009655653
-0.008572582 0.006747383 0.010120385 -0.00407146 -0.004989226 -0.00075257086 -0.0011709338 0.00060107996
-0.004791214 -0.0033109027 -0.0029606607 0.002310822
00000000: 9e87 b1bb 68c7 2e3b 7503 fdbb 6b16 9339
00000010: 7e43 f5bb 7d21 4fbb e42e 9aba 47aa 24bc
00000020: 0f2d 163b b5e1 c43a a2a1 d5bb 7e8b 99bc
00000030: 9d80 fcbb 3884 26bc 2f0b 09bc 837b 24bb
00000040: be6e a2bb 2801 103c 847e 1b3b 9772 59b9
00000050: 4a57 39bc 8923 c6bb 23e1 91bb 3c85 5e3a
00000060: b20d cabb 686a 523b b6de 75bb 209a e1b8
00000070: 463f 2d3b 5501 bfbb 3ea9 94bc f4e4 f3bb
00000080: a000 d2bb c1aa 1ebc 2ee2 18bc f84c 05bc
00000090: bc84 72bb 2efa 8239 5b4f 39bb 1936 a8bb
000000a0: 3cec fd3a a20a 7fbb 39f2 e9ba db79 87bb
000000b0: 6334 153b 593c bb3b d3a7 82bc 6d7f 2abb
000000c0: 1dbf f7ba 82d6 85b9 4035 37bc 21c5 0e3b
000000d0: e2b6 e9ba 90f3 b53b 5f7c 2f3b 8e3b 7e39
000000e0: f001 b1bb 2f45 ebbb 155f 6f3c aba0 9fba
000000f0: f5ea 05bc 8831 2abb b8b2 e0bb 64fe 233a
00000100: 7afe 0fbb 5b73 9a3b 8591 1d3c 9aa2 f6ba
00000110: 2460 17bc e775 c6bb e98d 44bc b062 e8bb
00000120: a75d 373a a7a8 23bb 04e2 82b9 033d 18bc
00000130: 2966 d4bb fd48 aabb 2030 4cbb 4cab abbb
00000140: fed9 afbb a47d 42bb 5dbb 243b 78a9 5abc
00000150: 27a9 0cbb 6b48 b2bb 0b68 4fbc 2619 b03b
00000160: cabb a5bb 50f1 0dbb 3a34 06bc d93b fb39
00000170: feab 96bb 0509 3bbb e475 c3bb 707c 363b
00000180: 9b26 733b eed8 a23b 8845 18bc 8879 a2bb
00000190: ae40 f2ba 2141 53bc e6b6 94b8 161d 47bc
000001a0: c670 07b9 78de 74bb ac85 c9bb 14b5 10bc
000001b0: b933 cebb 89f2 203c 5d67 afbb 35cd 75bb
000001c0: af57 37bb c22f 60bb aa14 b4ba 3b00 debb
000001d0: 483f 0abc 0093 22bb f40b 053c 32fd 12bc
000001e0: 6712 05bc 90eb 143a 7316 b439 7991 4d3c
000001f0: 6361 adbb 87ff 5fba 0564 89bb 80a3 c2bb
00000200: ac77 bfbb d491 363b 356b e33a ae86 123a
00000210: 1732 edbb fda5 91bb d26a 8c3a 8e9e e3ba
00000220: 15d3 1ebc 9675 0dbc fd77 d2bb b429 b8ba
00000230: fb69 2839 f72d d1bb 697e f6bb 9be1 98bb
00000240: 5134 a0ba 7f0b fa3b 531f b1bb a427 3cbb
00000250: 8bc0 38bc 875a 193c 3d0e 9fbb 2683 92bb
00000260: 55ad 1aba aacc afbc 7bff 00bc e8b8 d6bb
00000270: 0c47 0fbc 4e75 f6bb e3e1 06bc 75c6 803b
00000280: c368 233a f30b f4bb cf45 b1bb cfd1 443c
00000290: 6f23 c3ba 9865 56bc 0c76 043b be32 1ebc
000002a0: 0474 0cbc 2719 dd3b f9cf 253c e269 85bb
000002b0: a97c a3bb 2d48 45ba 057a 99ba cb91 1d3a
000002c0: 9eff 9cbb bbfb 58bb a507 42bb 2971 173b

bn1.running_mean f4 [180]
0.2623876 0.10474268 0.19864927 0.14083517 0.1846174 0.36569697 0.13198899 -0.47821215
0.16952163 -0.24331309 -0.22600845 0.1578465 0.118165314 0.09022346 0.13491671 -0.35967305
0.17175138 -0.29217595 0.16926986 0.12520951 0.11134198 -0.07688607 -0.4518591 0.14774127
-0.04488395 0.13205877 -0.56579685 -0.20224105 0.16963857 0.13518178 -0.40911797 -0.111479804
-0.4476478 -0.037269514 0.027376054 -0.07309082 0.07665849 -0.05353897 -0.2561394 0.10922198
0.06770683 0.1249975 0.12125705 0.0028836415 0.12540664 0.028373972 0.057247166 -0.15452258
0.27786803 -0.060107272 -0.14748664 -0.07741006 0.30776092 0.0189478 0.2389744 -0.04009299
-0.15256703 0.07551023 -0.07183449 -0.07776593 0.052738193 -0.5062967 0.2354969 0.21743104
-0.11320339 -0.009061693 -0.062000245 -0.16107836 -0.31774366 -0.0812132 -0.004957355 0.19125341
-0.077272505 -0.3256114 0.05266629 0.102413855 0.10368727 0.045737006 0.23682632 -0.15533581
0.08148214 0.018464128 -0.14610274 0.098352775 -0.36204433 0.044951033 0.10048543 -0.20144242
-0.028299786 0.23876981 -0.14183094 0.273342 -0.28524345 -0.021579657 0.01920639 -0.0078864135
-0.016521104 -0.20872448 -0.31440535 0.08414833 0.34763676 0.24825631 -0.0031880687 0.07289456
0.03159329 0.040670034 -0.33903068 -0.03321637 0.19918187 -0.12716886 -0.33584666 0.028349767
-0.23477769 0.09648128 -0.15229355 0.040906888 0.20577653 0.42486602 -0.062566034 -0.04551331
-0.08481679 0.27438098 -0.18252651 -0.25030598 0.06404936 0.1494664 0.118844554 0.10247134
-0.16593324 -0.076679304 -0.093866095 0.27492237 0.22745626 -0.26138708 -0.090867065 0.020715535
-0.29208416 -0.24009475 -0.13820374 -0.07589809 0.27735978 0.14231819 -0.15890564 0.049756117
0.1525889 -0.06257171 0.21632029 -0.043560803 -0.13508745 0.098180726 -0.029937962 0.016126018
-0.006485345 0.45208505 -0.0593121 0.21264653 -0.17912333 -0.051165514 -0.0035974167 -0.2089462
0.3740836 0.12545344 0.47159052 0.02167063 0.08801264 0.038626056 -0.2431932 -0.05339631
0.025435928 0.16751711 -0.046163306 -0.34814382 -0.07264898 0.18747269 -0.036197383 -0.27182806
0.21623796 0.37129936 0.30024615 -0.28189725
00000000: ab57 863e 5583 d63d b76a 4b3e 1837 103e
00000010: 580c 3d3e a23c bb3e 1f28 073e 39d8 f4be
00000020: 1497 2d3e 1127 79be c26e 67be 83a2 213e
00000030: a800 f23d 14c7 b83d 9b27 0a3e 1127 b8be
00000040: 98df 2f3e 1698 95be 1455 2d3e ec36 003e
00000050: 4407 e43d 7276 9dbd 135a e7be 7d49 173e
00000060: 3cd8 37bd 6a3a 073e 10d8 10bf 4718 4fbe
00000070: bcb5 2d3e 186d 0a3e e977 d1be 864f e4bd
00000080: 1832 e5be eba7 18bd bf43 e03c a4b0 95bd
00000090: 20ff 9c3d ae4b 5bbd b424 83be c6af df3d
000000a0: e1a9 8a3d b0fe ff3d 9e55 f83d 7afb 3c3b
000000b0: 996a 003e 8870 e83c 017c 6a3d 2b3b 1ebe
000000c0: b844 8e3e 0b33 76bd bd06 17be 2a89 9ebd
000000d0: d792 9d3e 6b38 9b3c b5b5 743e 8c38 24bd
000000e0: 883a 1cbe 1ca5 9a3d f61d 93bd be43 9fbd
000000f0: 0104 583d a99c 01bf 1926 713e 3ea6 5e3e
00000100: 2ed7 e7bd 7f77 14bc f8f3 7dbd baf1 24be
00000110: 4caf a2be 1b53 a6bd 4f71 a2bb efd7 433e
00000120: 0c41 9ebd 8ab6 a6be 9cb8 573d 5bbe d13d
00000130: fe59 d43d ba56 3b3d 9982 723e 5a10 1fbe
00000140: 1ce0 a63d 1542 973c f59b 15be 2e6d c93d
00000150: e05d b9be 931e 383d 4ecb cd3d ec46 4ebe
00000160: f4d4 e7bc 1380 743e 213c 11be 7cf3 8b3e
00000170: 6e0b 92be d2c7 b0bc b856 9d3c 0436 01bc
00000180: 4457 87bc dfbb 55be bdf9 a0be f655 ac3d
00000190: 72fd b13e e736 7e3e ebee 50bb be49 953d
000001a0: f767 013d 9f95 263d 6e95 adbe e30d 08bd
000001b0: 55f6 4b3e 8e38 02be 18f4 abbe c53d e83c
000001c0: 9069 70be fa97 c53d d7f2 1bbe fb8d 273d
000001d0: 15b7 523e 0a88 d93e 9f22 80bd 2a6c 3abd
000001e0: 6db4 adbd aa7b 8c3e 3be8 3abe 1b28 80be
000001f0: 502c 833d b80d 193e c664 f33d 7edc d13d
00000200: 67ea 29be 0a0a 9dbd de3c c0bd a0c2 8c3e
00000210: 4bea 683e 87d4 85be 8318 babd a0b3 a93c
00000220: 0e8c 95be 66db 75be 4885 0dbe 7570 9bbd
00000230: 1a02 8e3e dcbb 113e 29b8 22be 12cd 4b3d
00000240: 4440 1c3e 9925 80bd 1183 5d3e d06c 32bd
00000250: 5d54 0abe fa12 c93d 7540 f5bc b61a 843c
00000260: 0483 d4bb b177 e73e 3ff1 72bd 03c0 593e
00000270: 1b6c 37be ee92 51bd a3c2 6bbb fef5 55be
00000280: e387 bf3e de76 003e 5074 f13e 9b86 b13c
00000290: f93f b43d 5b36 1e3d a307 79be 17b6 5abd
000002a0: 025f d03c 9b89 2b3e bc15 3dbd e83f b2be
000002b0: fdc8 94bd d7f8 3f3e b543 14bd 0c2d 8bbe
000002c0: 7c6d 5d3e f31a be3e ddb9 993e d654 90be

bn1.running_var f4 [180]
0.054259166 0.03462843 0.075181104 0.03788278 0.062345963 0.06278993 0.024814608 0.05225974
0.05530719 0.045532975 0.028959004 0.04288411 0.03851814 0.05774057 0.03791254 0.047101106
0.059156917 0.055291306 0.03974738 0.049023043 0.038408007 0.047637343 0.0499516 0.0463914
0.035366938 0.046330266 0.07470145 0.05010721 0.039808407 0.038754772 0.08210462 0.048193414
0.05633118 0.06252546 0.027370384 0.029141229 0.030607767 0.041274067 0.028557047 0.07921548
0.053895764 0.039023746 0.045171026 0.05544924 0.03716789 0.056803238 0.047387753 0.06106662
0.06983283 0.034191135 0.048605207 0.034671966 0.05785788 0.046621926 0.055801604 0.09620574
0.04953935 0.035101034 0.036211886 0.051048428 0.049576238 0.07339218 0.045583922 0.03343185
0.037160426 0.05289813 0.039899122 0.04940955 0.030960772 0.06420984 0.049765274 0.05027297
0.0396335 0.044690907 0.050430346 0.06554301 0.039005697 0.03368936 0.052781332 0.04257046
0.025385829 0.034500103 0.035249446 0.046825018 0.04592765 0.02970536 0.042744692 0.040814847
0.039495807 0.055135053 0.05243891 0.061716694 0.054386705 0.051753916 0.03246309 0.052832786
0.039658293 0.069185935 0.03293305 0.027432213 0.07316779 0.058677163 0.046181742 0.041438658
0.056320194 0.058488365 0.080160126 0.043923356 0.048377763 0.03984591 0.04855085 0.038753714
0.04195589 0.03899088 0.03079783 0.041467473 0.046734065 0.08870047 0.046651047 0.029009216
0.046827607 0.042379636 0.036384337 0.052082628 0.05904839 0.032802697 0.04798446 0.041072965
0.050821524 0.044551823 0.04699278 0.05858668 0.052326065 0.05212203 0.048896454 0.026944974
0.050688643 0.043352757 0.04505554 0.038411297 0.03321349 0.05231625 0.071584344 0.04984646
0.04252718 0.028560804 0.037420616 0.039255228 0.031681277 0.04818025 0.029268384 0.082195796
0.039542764 0.06661841 0.051918443 0.039762013 0.028360557 0.0450011 0.044025045 0.037080567
0.043373745 0.033942837 0.064985275 0.043239664 0.0471544 0.0405964 0.03467617 0.042507276
0.036174104 0.057132952 0.036398977 0.042014755 0.030914774 0.049919218 0.043302026 0.047117587
0.027864542 0.036622055 0.05054418 0.0509482
00000000: dc3e 5e3d 8ad6 0d3d 8df8 993d f92a 1b3d
00000010: 7b5e 7f3d 0298 803d 0148 cb3c 4f0e 563d
00000020: cb89 623d c980 3a3d 6f3b ed3c 40a7 2f3d
00000030: 32c5 1d3d 6081 6c3d 2e4a 1b3d 17ed 403d
00000040: 864e 723d 2379 623d 26ce 223d 63cc 483d
00000050: b751 1d3d 601f 433d 0d9a 4c3d e904 3e3d
00000060: ecdc 103d cec4 3d3d 13fd 983d 383d 4d3d
00000070: 240e 233d 53bd 1e3d 7826 a83d 7566 453d
00000080: 86bb 663d 590d 803d db37 e03c 96b9 ee3c
00000090: 24bd fa3c ff0e 293d 78f0 e93c ba3b a23d
000000a0: cec1 5c3d 5dd7 1f3d 4105 393d be1e 633d
000000b0: 5c3d 183d 83aa 683d a919 423d fe20 7a3d
000000c0: 8404 8f3d 010c 0c3d 4116 473d 3104 0e3d
000000d0: 62fc 6c3d a2f6 3e3d 3990 643d 8407 c53d
000000e0: c6e9 4a3d 1ac6 0f3d ea52 143d 2818 513d
000000f0: 7410 4b3d a44e 963d 35b6 3a3d d6ef 083d
00000100: 8835 183d b6ab 583d 436d 233d ab61 4a3d
00000110: 72a1 fd3c 7380 833d acd6 4b3d 08eb 4d3d
00000120: bd56 223d d00d 373d 0d90 4e3d 6a3b 863d
00000130: 70c4 1f3d dbfd 093d 3d31 583d 5d5e 2e3d
00000140: f1f5 cf3c fb4f 0d3d b961 103d 97cb 3f3d
00000150: a21e 3c3d a858 f33c 0f15 2f3d 782d 273d
00000160: 5bc6 213d 4bd5 613d 2fca 563d a5ca 7c3d
00000170: 98c4 5e3d eafb 533d 04f8 043d 3167 583d
00000180: bc70 223d 5bb1 8d3d cee4 063d 85b9 e03c
00000190: ffd8 953d 7757 703d 1129 3d3d 95bb 293d
000001a0: 01b0 663d 7f91 6f3d fe2a a43d fae8 333d
000001b0: c327 463d 7735 233d 42dd 463d 37bc 1e3d
000001c0: f0d9 2b3d e7b4 1f3d bb4b fc3c ccd9 293d
000001d0: 386c 3f3d 98a8 b53d 2b15 3f3d bca4 ed3c
000001e0: 4ece 3f3d 4596 2d3d be07 153d 9854 553d
000001f0: b9dc 713d 1f5c 063d 5a8b 443d 203c 283d
00000200: 3b2a 503d f97b 363d 807b 403d 96f8 6f3d
00000210: db53 563d e97d 553d a647 483d b5bb dc3c
00000220: e59e 4f3d a992 313d 288c 383d 2a55 1d3d
00000230: de0a 083d 9049 563d d09a 923d cd2b 4c3d
00000240: fb30 2e3d 59f8 e93c 5c46 193d 17ca 203d
00000250: 3ac4 013d a758 453d 40c4 ef3c 4556 a83d
00000260: 98f7 213d 3c6f 883d 6fa8 543d 7edd 223d
00000270: 6654 e83c 1353 383d 9b53 343d cbe1 173d
00000280: aba8 313d a507 0b3d 0017 853d 131c 313d
00000290: f924 413d 6948 263d 9a08 0e3d 1c1c 2e3d
000002a0: 4c2b 143d 3e04 6a3d 1817 153d aa17 2c3d
000002b0: fb40 fd3c 1878 4c3d 775d 313d 5ffe 403d
000002c0: 2e44 e43c 0201 163d 6a07 4f3d 0faf 503d

bn2.weight f4 [96]
0.9940008 0.9958137 0.97904706 1.0177494 0.9926013 0.9981641 0.98562163 0.98829013
0.99432683 0.9946117 1.0016135 1.012723 1.0137631 0.98517704 1.0012513 1.0037526
1.0020216 1.0270573 0.99409187 1.0032936 0.9987529 0.98541445 0.9905844 1.0022961
1.0209401 1.0209455 0.9963978 0.9814899 1.0289854 1.0187503 0.98544574 0.98893094
1.0065104 0.9887226 0.98447895 0.99971515 0.9809762 0.9807284 0.994181 0.9930342
0.98262405 0.98404187 0.9967269 0.99052507 1.0080203 1.0054202 0.9956177 0.9890162
0.9953679 0.9937554 1.0103803 1.019443 0.99153095 0.989663 0.98007464 0.9909355
0.99238646 1.005541 1.0027664 1.000311 0.99213415 0.99116796 0.98552287 0.9897247
1.0042734 0.9898262 1.0054101 0.99777395 0.992224 1.0018457 0.99347144 0.9856665
0.9948517 0.9925992 0.9934938 0.9987998 0.9885078 0.98363364 0.99066716 1.0150492
0.9830196 1.0003281 0.9916746 0.99029577 0.9949892 0.98302805 1.0117941 0.988117
0.98161924 0.9884764 1.0088055 0.98172134 0.9891983 0.98781526 0.98901826 0.98579824
00000000: d676 7e3f a6ed 7e3f d4a2 7a3f 9d45 823f
00000010: 1e1b 7e3f af87 7f3f b351 7c3f 9500 7d3f
00000020: 348c 7e3f df9e 7e3f df34 803f e8a0 813f
00000030: fdc2 813f 9034 7c3f 0129 803f f77a 803f
00000040: 3e42 803f 9d76 833f ce7c 7e3f ed6b 803f
00000050: 45ae 7f3f 1f44 7c3f f096 7d3f 3d4b 803f
00000060: 2aae 823f 58ae 823f ed13 7f3f ec42 7b3f
00000070: cbb5 833f 6966 823f 2c46 7c3f 942a 7d3f
00000080: 55d5 803f ed1c 7d3f d006 7c3f 55ed 7f3f
00000090: 4221 7b3f 0411 7b3f a582 7e3f 7d37 7e3f
000000a0: 408d 7b3f 2bea 7b3f 7e29 7f3f 0d93 7d3f
000000b0: cf06 813f 9cb1 803f cde0 7e3f 2a30 7d3f
000000c0: 6ed0 7e3f c166 7e3f 2454 813f 1c7d 823f
000000d0: f9d4 7d3f 8e5a 7d3f 2ce6 7a3f f3ad 7d3f
000000e0: 0a0d 7e3f 91b5 803f a65a 803f 310a 803f
000000f0: 81fc 7d3f 2fbd 7d3f 3a4b 7c3f 995e 7d3f
00000100: 088c 803f 4065 7d3f 47b1 803f 1d6e 7f3f
00000110: 6402 7e3f 7b3c 803f 2554 7e3f a454 7c3f
00000120: 9aae 7e3f fb1a 7e3f 9c55 7e3f 58b1 7f3f
00000130: d90e 7d3f 6acf 7b3f 5d9c 7d3f 22ed 813f
00000140: 2ca7 7b3f c00a 803f 63de 7d3f 0684 7d3f
00000150: 9db7 7e3f baa7 7b3f 7882 813f 3cf5 7c3f
00000160: 664b 7b3f ca0c 7d3f 8a20 813f 1752 7b3f
00000170: 1a3c 7d3f 76e1 7c3f 4d30 7d3f 465d 7c3f
