Proposed model/saved_best_DNN_model/0.39289model_fingerp4.pth (torch, 216672 bytes, 19 tensors)

lin1.weight f4 [180, 166]
00000000: 6bbb 32b3 81f6 e9bb e89c 4e3d ed9c b6b9
00000010: ac8a 1dba f330 11ba 2609 873c 2cf2 1abd
00000020: 662a 8ebd a4f1 183d d6ce 463d acb4 f7bc
00000030: 5acc 84bd c512 91bd 7eca 733b bc80 003c
00000040: e07d 1abd f7d4 0fbd f1d9 853c d387 a43c
00000050: 3e8d 8bbb 96e6 0b3d 395f cdbc 1beb d63b
00000060: 5608 c93c a289 1c3d eea0 b83b d8bc 313d
00000070: 9189 86bd b7bd 2b3d 7377 37bd dcad ba3c
00000080: 8e98 983d dc75 35ba 48fa 1c3b 7c69 3f3d
00000090: 1ef6 80bd b8ee 9cbd d260 933d 4679 943d
000000a0: 26d5 5b3c 4820 813c 7ae2 adbc 5da9 d23c
000000b0: df68 4ebc 0831 eebc 42d5 05bd 3b50 68bd
000000c0: 7303 8fbd e2c2 583d d9a0 a03d dfce 9a3b
000000d0: 8e4d 4fbd f906 603d b778 49bd fec2 523d
000000e0: 236e 24ba 9829 42bd 3670 e2bc 6e30 e83b
000000f0: 0868 c83c 3cef 66bd 76e4 90bd 5dd0 4abd
00000100: 8104 44bd 2a9f 863d 4631 833d 094b 7b3d
00000110: f137 283c c1c6 f7ba 8e2f 073d e409 07bc
00000120: bc78 1e3d a4b9 b73c 155e f43c acda 22bc
00000130: 234b 02bd 725b 0f3d dd74 82bd 3ab6 afbd
00000140: 038d ddbb 2774 3b3c 14ee 17bc cba1 5bbb
00000150: 9e12 993d 58b8 6ebd 283c 71bb ad3f 853d
00000160: 824a e53c 903e 84bd a090 e3bb 0347 893d
00000170: 726e a93c 2a4c 213d b8b5 843d 1bc8 a83c
00000180: 4240 3a3c 1e78 82bd 7673 8dbd 68b4 0cbd
00000190: f324 203d cf35 60bd 3821 21bd f066 65bd
000001a0: 7625 b3bb 379e 8fbd 1a9f f13c 6ed0 5e3d
000001b0: 0442 6a3d 79ca 93bd 50c8 8fbd 48f8 2d3d
000001c0: 1969 59bc de41 373d 9df8 a0bd 1bda 6abd
000001d0: dead 8cbc f26e 5a3d 55e5 78bd d43e 26bd
000001e0: 8ec3 533d d624 c3bb 86c0 f53c 7e49 3f3d
000001f0: 7547 553c ef25 803c ed03 833d 9010 443c
00000200: bcbf 80bd e6cc 7f3d f428 92bc 492e a6bd
00000210: 99d5 6a3d 1204 25bc b20f 973d 6ead 64bc
00000220: 128b 1dbd 9175 953d f790 17bd a6dd 4c3a
00000230: 9cc5 96bc c88c 3a3c e236 f3bc a378 26bc
00000240: 27a3 01bc 9b58 d03c a62c 72bb c72d fabc
00000250: 7f80 afbc b5ce 203c 14f6 283d 69c0 92bd
00000260: 86af f13b eec7 45bd bd4e 2bbd 758a 06bd
00000270: c5db 793d 70a0 973d 415e 17bd ddeb 24bd
00000280: b586 f63c c794 deb9 ab1c b73c b97d 53bd
00000290: 0727 3a3b ceaa 2ebd 0704 d930 9574 0ab0
000002a0: 81e3 edbc 9b25 24bb a107 023d 17ef 163d
000002b0: 4b21 febc dd53 543d 5f1d 6d3c 8d8b 333d
000002c0: 26d8 25bd 83e9 9a3d a9b0 543d 0c8d 63bd
000002d0: d281 ad3c b7f0 54bd 074e 3cbd 0a4f eebc
000002e0: 5aea 443d c6e5 7837 50de 83bd 9381 21bd
000002f0: 5929 033d 28a3 853d 1883 2bbd 43a1 913d
00000300: 53f8 bb3c 2988 8e3d 1e7b 9cbd 25a8 91bd
00000310: b5a7 7c3d 2434 15bd 1345 a63c febe 85bd
00000320: d54e cd3c d603 87bd fead 1dbc a80e da3c
00000330: fb3a a0bd d351 863d efa1 843d b715 1b3d
00000340: c625 393b b9cd e23c a386 9bbc a1d4 3d3d
00000350: fd23 733d dc2e e0bc a1d7 0a3d 53db 9a3d
00000360: f669 343c 0bf3 edbc 7c7d 483d 371c 6c3b
00000370: b3a4 793d 01ec a83b 53fe 8fbd 0b66 96bc
00000380: ef49 293d 3a0c 61bc a30c 4a3d f638 60bb
00000390: 4f58 3d3d bb0a f63c 2c38 72bd 9d39 27bd
000003a0: 1e56 e1bc 2dd4 c4bc 8a89 b3bd 643a 7fbc
000003b0: c7ea 93bd 5a41 a0bc d195 c1bb 0af2 073d
000003c0: 5163 8f3c dc02 3cbd 54fe a13d 1078 72bd
000003d0: 159a 73bd 468d 91bd 993c 9c3d 669e 3b3d
000003e0: d614 0dbd 9336 e6bc 7629 9c3c 7a0c 343c
000003f0: 8690 8bbd 5c53 ccba 5904 6f3d 6281 1c3d
-4.161431e-08 -0.0071399813 0.050442606 -0.00034830664 -0.00060097384 -0.0005538605 0.016483855 -0.03782861
-0.069416806 0.03733982 0.048537098 -0.030237518 -0.064842895 -0.07083658 0.0037199552 0.007843193
-0.0377177 -0.03511521 0.016339274 0.020084297 -0.0042587807 0.03415545 -0.02506982 0.0065587885
0.024540108 0.038217194 0.0056344187 0.043392986 -0.065692075 0.041928973 -0.04479165 0.02278798
0.074509725 -0.00069221645 0.002395289 0.046731457 -0.06296943 -0.076627195 0.071962014 0.072496936
0.013417518 0.015762463 -0.021226157 0.025715524 -0.012598245 -0.029076114 -0.03267408 -0.05671714
-0.0698308 0.05292023 0.07843179 0.004724368 -0.05061107 0.05469415 -0.04918739 0.05145549
-0.0006272515 -0.04740295 -0.027641397 0.0070858514 0.024463668 -0.056380495 -0.070748255 -0.049515117
-0.047855858 0.06573327 0.064058825 0.061350856 0.010267244 -0.0018903838 0.033004336 -0.008242104
0.03868936 0.022427388 0.029830018 -0.009939831 -0.031809937 0.03499932 -0.06369946 -0.08579679
-0.0067611947 0.011441267 -0.009273071 -0.0033513184 0.07474254 -0.058281273 -0.0036809538 0.06506286
0.02798963 -0.06457245 -0.006944731 0.067029975 0.020682547 0.039379276 0.064799726 0.02060323
0.011367859 -0.06370567 -0.06906788 -0.034351736 0.039097738 -0.054738816 -0.03933832 -0.056006372
-0.005467112 -0.07012599 0.02949481 0.054397993 0.057191864 -0.07216353 -0.070206285 0.042473108
-0.013269686 0.04474055 -0.07859919 -0.057336908 -0.01717275 0.053328462 -0.060765583 -0.04058726
0.051700167 -0.005955319 0.029999029 0.046700947 0.013017525 0.015643088 0.06397233 0.011966839
-0.062865704 0.062451266 -0.017841794 -0.08114297 0.05733261 -0.010071771 0.073760405 -0.0139573645
-0.038462706 0.07297815 -0.037003484 0.00078150106 -0.018404774 0.011386104 -0.029689256 -0.010160598
-0.007912434 0.025432875 -0.0036952882 -0.030539406 -0.021423576 0.009814908 0.041250303 -0.071656056
0.0073756604 -0.04828637 -0.041823138 -0.032846887 0.061000604 0.07403648 -0.036955122 -0.040264
0.03009353 -0.00042453987 0.022352537 -0.05163357 0.002840461 -0.04264336 1.5789973e-09 -5.036978e-10
-0.029039146 -0.0025046829 0.031745557 0.036849108 -0.031021735 0.05183779 0.014472335 0.043834258
-0.04048934 0.0756407 0.05192629 -0.055554435 0.021180067 -0.051987376 -0.04597285 -0.029090423
0.048075058 1.483545e-05 -0.06438887 -0.039430212 0.032021854 0.0652526 -0.041873068 0.07110836
0.022945559 0.06959564 -0.0764067 -0.07112149 0.061683375 -0.03642668 0.020296609 -0.065305695
0.025062004 -0.065925285 -0.0096240025 0.026618317 -0.0782375 0.065585755 0.06476199 0.037862506
0.0028251274 0.027685987 -0.018985098 0.046345357 0.059360493 -0.027366094 0.033897046 0.07561364
0.011011591 -0.029046556 0.048947796 0.003602756 0.060948085 0.005155087 -0.0703093 -0.018359205
0.041330274 -0.013735825 0.049328458 -0.003421364 0.046226796 0.030034414 -0.0591356 -0.04082643
-0.027506884 -0.024026955 -0.08766468 -0.015577886 -0.072225146 -0.019562412 -0.005907752 0.03318981
0.017503412 -0.045901164 0.07909837 -0.05919653 -0.059473116 -0.07107024 0.076287456 0.045805357
-0.0344437 -0.028102195 0.019062739 0.010989303 -0.06814675 -0.0015588808 0.058353756 0.038209327

lin1.bias f4 [180]
00000000: a2c7 2f39 e781 cbbb e077 aab6 7add da3c
00000010: a6a8 3636 4e98 8a3b a8e3 31bc 5152 493a
00000020: 717d d239 c9a2 803b 981c e536 b3b1 a5b5
00000030: 3b07 9c3a 4a1f 8c3c 63ac 7b3c 1d4c c13a
00000040: 9c6d 493c f549 bcbc d1ae 89b5 ae13 903c
00000050: 2175 cbbc dd86 7bb9 ba00 ad3c da0e 60bb
00000060: a6f0 923a ed8f 0b3d 38cb 8434 571b 5f36
00000070: 5c6a 0aba e783 ef35 9c3f 223c 0052 963c
00000080: ee52 e2bb 6653 0336 30f2 f33b b4f2 063d
00000090: d2b6 b5b8 4c6a c83c c57b a93c 9d9f c3bb
000000a0: a464 3237 f382 c835 e75f 78bc 107e 6635
000000b0: 5991 2339 ead6 8aba 88da 2239 ec06 a93c
000000c0: a002 863c d3c7 d23c b2c9 c9bc f6a3 3c3b
000000d0: 0fe4 db38 7e2f 78bc 6f2b 813c 561d 0abd
000000e0: 65a3 78bc 1dad ccb6 b873 023c ce2b 04b6
000000f0: 2905 5cbc e525 4abb d8a3 4a3c 4f0d f739
00000100: 077c 03bc 10ff 80bb 271d b2bc b397 a63c
00000110: ecc3 d135 2b8b 713c ee8f 3b3b e9b6 d7bc
00000120: 2b03 b63c f932 d93c 141f 08bd 66a7 9035
00000130: 29d8 763c 2152 bfba 3ae0 8f3c bcaf b0b6
00000140: aef4 883a 77f5 f7b5 af94 543c 5f56 9e35
00000150: 864d c2bc 49f7 743b 71c2 433b ffd0 56bb
00000160: e24d f5bc 83d3 a03b f062 cd3c f52c c9ba
00000170: 4a49 64bc 1c0d 20b7 a962 8c37 77a3 8139
00000180: b58e 843c 3984 bebc a601 2039 a058 93bc
00000190: e1d8 9836 2759 b6bb 9c7c b6ba 942b 97bc
000001a0: 96d3 82b7 5219 c03c c5f8 fa3c 0a5a 6b3c
000001b0: dbeb b8b5 e22a 6e3b e35f 0ebd ef8e 8cbc
000001c0: 9136 61bc 5ee6 45bc 8834 0bbc 2581 3e36
000001d0: 6114 07bd 00f7 e535 88be 89b7 278f 86bb
000001e0: b05d dcb5 648d eb3b a33f fbbc 0648 cc34
000001f0: 5730 08bd f3ec 0cbd c41d 2db5 0092 f9b9
00000200: 1ea1 8737 5216 0635 eef2 f33b 1606 83bc
00000210: ba74 c4bb 7107 9bbb ab58 fcbc 4d82 d035
00000220: e55f 013d ecff c0bc 8a13 e636 4327 e0bb
00000230: 931b f63a 6b52 e8bc edbd ccba ea46 0438
00000240: 8366 26b8 a88b 353a 579d 44bc ab17 dcbc
00000250: fe55 903c 2ef1 f53a 67e7 b7bb 5e0d 473c
00000260: 0119 9d3a 2466 c43c 6a0b 37b7 0b57 9e3c
00000270: b9e6 813c 650f d0ba e258 fab3 292f 573c
00000280: 63a8 9abc 4144 b13c 20a4 e3bc 8cd3 bc3b
00000290: e573 db3c 3af4 053a dec6 07bd f824 0f3d
000002a0: 54f8 cebc 96e4 feb5 b2b2 b538 80fe 3bbc
000002b0: 7825 5735 4f82 c43a 606c 8db2 f4d5 e3b7
000002c0: 8b0c a839 86dc ce38 0a55 6737 2549 003a
0.0001676367 -0.006210554 -5.08035e-06 0.026716936 2.721828e-06 0.004229582 -0.0108575 0.00076798076
0.00040147782 0.0039256555 6.8280606e-06 -1.2345175e-06 0.001190401 0.017104764 0.015360924 0.0014747415
0.012294199 -0.022984484 -1.0258174e-06 0.017587509 -0.024836125 -0.00023987466 0.02111851 -0.003418854
0.0011210635 0.034072805 2.4734777e-07 3.3245503e-06 -0.0005280131 1.7845276e-06 0.009902861 0.018349648
-0.0069068586 1.9569065e-06 0.0074446425 0.032946303 -8.6648055e-05 0.024464749 0.0206889 -0.005969955
1.0633059e-05 1.4939272e-06 -0.015159584 8.586512e-07 0.00015599038 -0.0010592614 0.00015530933 0.020633183
0.016358674 0.02573005 -0.024632309 0.0028784252 0.00010485213 -0.015148042 0.015767781 -0.033719383
-0.015175675 -6.099827e-06 0.00796216 -1.969503e-06 -0.013428965 -0.003084534 0.012368165 0.00047121427
-0.008025176 -0.003936656 -0.021742417 0.020336008 1.5628734e-06 0.014742653 0.0028619724 -0.026332336
0.022218307 0.026513563 -0.033232763 1.0777555e-06 0.015066185 -0.001459662 0.017562974 -5.265667e-06
0.0010448897 -1.8474374e-06 0.012974902 1.1797055e-06 -0.023718607 0.0037378839 0.0029870535 -0.003277838
-0.029944364 0.0049080267 0.025071591 -0.0015348481 -0.013933489 -9.539795e-06 1.6735243e-05 0.00024726588
0.01618133 -0.023256408 0.00015259403 -0.017986596 4.555201e-06 -0.005564827 -0.0013922635 -0.018453397
-1.5595735e-05 0.023449574 0.0306362 0.014364729 -1.3777711e-06 0.0036341478 -0.034759413 -0.017158
-0.01374592 -0.01207885 -0.008496411 2.8387378e-06 -0.03297842 1.7133716e-06 -1.6420396e-05 -0.0041064206
-1.6418544e-06 0.007188486 -0.030669993 3.8050365e-07 -0.033249225 -0.03440566 -6.4490837e-07 -0.0004760176
1.616828e-05 4.995137e-07 0.007444731 -0.015994113 -0.00599536 -0.0047311117 -0.030803999 1.553513e-06
0.031585593 -0.023559533 6.856809e-06 -0.006840618 0.0018776528 -0.028359612 -0.0015620567 3.1537296e-05
-3.9672956e-05 0.00069254125 -0.012000403 -0.026866755 0.01761913 0.0018763894 -0.005612302 0.012149183
0.0011985601 0.023974486 -1.09103075e-05 0.019328615 0.015857087 -0.0015873729 -1.16577e-07 0.013133802
-0.018879121 0.021638991 -0.027788222 0.005762523 0.026788661 0.000510994 -0.03314864 0.034947366
-0.025264896 -1.8991002e-06 8.664037e-05 -0.011474252 8.0148266e-07 0.0014992448 -1.6463844e-08 -2.7160138e-05
0.00032052802 9.863921e-05 1.3788473e-05 0.0004893712

lin2.weight f4 [96, 180]
00000000: bc36 cf3c 8906 b53b fec5 2ebd 3ab0 13bd
00000010: 524a dd3c 74a3 afbc 6a3e 993d 6d7f 22bd
00000020: 181c 363d 1715 53bd 6583 7c3d 8fb1 653d
00000030: deab da3b c50d 79bd 9f44 ffbc dc38 5ebb
00000040: 739f 24bd 9675 003d da81 7c3c df98 8abb
00000050: 0f79 35bd 9bd7 163d b92c 3ebd a282 cbba
00000060: 83d8 b63c 1211 30bc 2469 f53c 298c 9b3c
00000070: 219a 40bd ba55 2d3c 6a70 5b3d 3c7b a839
00000080: fd84 10bd 24ad 303d 1a67 2a3c 6959 803d
00000090: 9dbf 8eb9 cfc7 0d3d 5f7d 8b3c 730b 2b3d
000000a0: fb3e 33bd 09a5 51bb cd66 203d dcf7 2bbd
000000b0: 0f6c cebc bd94 e53c c217 70bc e47b 593d
000000c0: 0690 4d3d 3615 59bc 6a94 85bd a099 a9bb
000000d0: 0eee 823d fedd 113d 9404 833d cdaa 5d3d
000000e0: e925 19bd 2b23 523d ddbe 71bd 4cfc 77bd
000000f0: 7638 9c3c d85c babb 2979 00bd 5709 663d
00000100: a65a 563d e3cd 573d 3866 e3bc b9ce 8ebd
00000110: 8eb3 6dbd 15ad 2dbd e25d 9f3c 3b17 84bd
00000120: baae 81bd 1722 243d 9c02 4abd 1452 213d
00000130: 7d3d 24bd e4bf 59bd aa3c 03bc f3e5 4d3d
00000140: 846c ad3c 6f5b e2bc 4fa8 983d 6017 42bd
00000150: 9520 2d3d 8c64 98bc e740 f23b 0dcd 94bd
00000160: 4561 cebc 6984 89bd 8df2 013d 76d8 72bd
00000170: 5f70 10bc cabc 4d3d 12c3 95bc 6c5e 93bb
00000180: 3846 2ebd eb0e ed3c 578c 46bd 728e 61bb
00000190: bdc0 b4bc 0720 21bd 0860 913d 3605 87bc
000001a0: f6be 063b 6646 27bd c455 a13d 685f 583d
000001b0: d534 3bbd 2655 2fbd d5b1 63bd 9fae 933d
000001c0: 1e77 febc d5d2 1dbd e5ab c9bc 909c debc
000001d0: efed 3b3c e179 8bbd 981e 7a3c 70e6 863d
000001e0: 8d36 9e3d 594d 91bc b080 54bd 7ffd 11bc
000001f0: 0ed9 88bd ed16 673d 4b1b 503d 5124 99bc
00000200: 989d 04bd 4ef4 37bd ceee 8bbd 8c5f 0d3c
00000210: eab2 94bd 50c6 41bd 2a40 8bbd 0255 8cbc
00000220: aae0 41bd fbdd 563d 1592 55bc 0a69 053d
00000230: c130 c13b 4d99 473d a857 24bd 068b a73c
00000240: c99f 8ebd 203f 113d a344 e83c 97e0 2bbd
00000250: a837 9fbc 7953 d33c 3d82 eebc 38fc 80bc
00000260: b465 23bd b302 173d 295f 8c3d dcf8 1bbc
00000270: 519c 973d 912a 393d a7d4 5abc 3053 0bbc
00000280: cfb8 56bd f753 8d3d 3b03 50bd 51fe f5bc
00000290: 9117 d6bc ec1f 973d f98a 99bc 54d4 983d
000002a0: 0da9 1c3d b4a8 6d3d f833 60bd a8c7 f13c
000002b0: cf3b 80bd 5e78 f6bb 41e9 693d 9490 65bd
000002c0: cb79 a4bc 1800 de3a 960f 33bd 3b4a 803d
000002d0: 4a13 38ba 8bd5 e03b bb2c 5b3d 20d6 343b
000002e0: f6b2 293c 9be0 9dbd 5e57 253c 2639 213c
000002f0: fe4e 333d 5f3d 07bd 8228 a9bb 7e1d 7c3d
00000300: e019 5abc c448 04bc a2ce 4bbc 5a81 3f3d
00000310: 1fda 61bc 599c 57bd 579f f33c 6329 cfbc
00000320: ea06 753d ebe8 8bbc 463d 8a3d 299d 65bd
00000330: df7a 9d3c beb6 1b3c a766 47bd 8c0c 0cbd
00000340: 3eaf 9e3d 5723 e93b c333 a33a cde7 e4bc
00000350: 285a acbc 6d56 c63c 8f9d e7bc 328a 5b3d
00000360: 5ded 88bd 210b c3bc 3ec9 53bc 74ee 94bd
00000370: b53c 4cbd 63df b3bc b763 c13c 2881 7fbd
00000380: 1162 8fbd 0de8 823d 1e17 59bd 6153 843d
00000390: b547 26bd eaaa 573d eb29 2d3d 055f b4bc
000003a0: c108 d5bb 7a1c 0d3c 2fd2 b03c 3bc2 0ebd
000003b0: f4e9 3bbc 2699 2a3d a921 0a3d b6a7 37bd
000003c0: 24dc 813d 2793 3f3d 89c3 983c 06e1 49bd
000003d0: 565a 32bd f68c 55bd c129 95bd c0c3 523d
000003e0: fcf1 c9bc 2969 60bd abfb 843d 0921 54bb
000003f0: 9e66 113d 57fc f83c e0a5 30bc d8d9 883d
0.025294654 0.0055244607 -0.04266929 -0.036056735 0.027012978 -0.021440245 0.07482608 -0.039672304
0.044460386 -0.051533785 0.061648745 0.056077536 0.00667332 -0.060804147 -0.03116065 -0.0033908403
-0.040191125 0.03136214 0.015411818 -0.0042296494 -0.044304904 0.03682671 -0.04642937 -0.0015526603
0.022320038 -0.010746257 0.029957362 0.018987732 -0.04702199 0.010579521 0.053574003 0.00032135274
-0.035283078 0.04313387 0.010400558 0.06267054 -0.00027227114 0.03461438 0.017027555 0.041758966
-0.043761235 -0.0031989238 0.03916054 -0.041984424 -0.02519801 0.028025026 -0.014654102 0.053096667
0.05018618 -0.013249686 -0.06522448 -0.005175784 0.063930616 0.0356121 0.063973576 0.054117966
-0.03738967 0.05130307 -0.059019912 -0.060543343 0.019069891 -0.0056873374 -0.031365547 0.05616125
0.052332543 0.052686583 -0.027758703 -0.06973023 -0.058032565 -0.042401392 0.019453947 -0.06449743
-0.063321546 0.040071573 -0.049318895 0.039384916 -0.040097702 -0.053161517 -0.008010069 0.050268125
0.021169908 -0.02763149 0.07453977 -0.047385573 0.0422674 -0.018602632 0.007392991 -0.07265673
-0.025192866 -0.06714708 0.031725455 -0.059288464 -0.008815854 0.05022887 -0.018281493 -0.00449734
-0.042547435 0.028937778 -0.048473682 -0.003441718 -0.022064561 -0.039337184 0.07098395 -0.016481977
0.00205606 -0.04083862 0.078776866 0.05282536 -0.04570468 -0.042805813 -0.055589516 0.07211041
-0.031062659 -0.038531143 -0.024618099 -0.027174264 0.011470302 -0.06810356 0.015266083 0.06586921
0.077252485 -0.017737078 -0.05188054 -0.008910536 -0.06682025 0.056418348 0.05080728 -0.018694075
-0.032376856 -0.04491072 -0.06832658 0.008628737 -0.07260688 -0.047308266 -0.06799348 -0.017130379
-0.047333397 0.05245779 -0.013035317 0.032570876 0.0058957045 0.048730183 -0.040122658 0.020452034
-0.0696407 0.03546059 0.028353041 -0.041962232 -0.019435719 0.025796639 -0.029114837 -0.015745267
-0.039891914 0.03686781 0.06854088 -0.009519782 0.07402862 0.04520661 -0.013356364 -0.00850372
-0.05242234 0.06900781 -0.05078433 -0.030028494 -0.026134284 0.073791355 -0.018743025 0.074623734
0.038247157 0.058022216 -0.05473706 0.029514149 -0.062614076 -0.007521673 0.057107214 -0.056046084
-0.020077607 0.0016937284 -0.043716036 0.06264158 -0.0007021917 0.006861394 0.053509455 0.0027593449
0.010357609 -0.07708856 0.010091631 0.009840285 0.043776505 -0.033017512 -0.0051622996 0.061551563
-0.013311833 -0.008073989 -0.012439402 0.04675422 -0.013784914 -0.05263934 0.029739065 -0.02528829
0.059821047 -0.017078837 0.06749968 -0.056058083 0.019223629 0.009504018 -0.04868188 -0.034191653
0.077482685 0.0071148085 0.0012451339 -0.027942562 -0.021039084 0.024211133 -0.028273372 0.05359859
-0.066858985 -0.023809018 -0.012926398 -0.07272044 -0.049862582 -0.021957105 0.023607118 -0.062379032
-0.070011266 0.063919164 -0.053000562 0.06461216 -0.04059573 0.05265323 0.042276304 -0.022017965
-0.0065012877 0.008612746 0.021584598 -0.0348532 -0.011469353 0.04164996 0.033723507 -0.044837676
0.063408166 0.046771195 0.018647926 -0.049286865 -0.043543182 -0.052136384 -0.072833546 0.051456213
-0.02465152 -0.05478779 0.06493314 -0.0032368323 0.035498254 0.030393763 -0.010781735 0.066821754

lin2.bias f4 [96]
00000000: 01b5 f138 a206 d83c be29 edba ea57 b33a
00000010: ca47 0db5 5988 b6bc a9c3 99bb 24f6 4639
00000020: 18fc 25bc b3d9 b0bc 4dad 833c 95a2 b83c
00000030: 484d ee3c b863 e93c deae f434 e84f d4bc
00000040: 1ea4 733c d1bd f6b5 221c 97bc 2b1d b23a
00000050: b86a 4235 4385 83bc 4cd9 ccbc 5ad3 d33c
00000060: efa1 c839 0d21 8db6 1888 cbbc ff23 023d
00000070: 3e87 c5bc 172b 29b8 669d c2bc 1049 fe3c
00000080: 4e9d f2bc 74e9 98bc 32db f7bb 5dc3 46b6
00000090: 1627 bfb8 98a0 eebc 6afd debc c260 8cb5
000000a0: a2ce c23c b032 b7b6 9873 c73b 8ce6 eab4
000000b0: 7c5c ab3c 6fe9 f53c a471 853c 8d6a a4bb
000000c0: 18f1 6d3a 42da 0c3c f18e 99bc 0c11 7cb5
000000d0: 284b 463b 7f05 dbb4 c305 993c 9882 1dba
000000e0: dad4 1735 36ab 933b 9156 0abc 8b27 33bc
000000f0: a184 683b bccd 32bb 89bf 7bb8 1c70 f13c
00000100: 6a0a e334 9a0e 51bb 9921 87bc 1f77 c53b
00000110: 9a36 ee3c 1139 7db5 e00c 01bd 3dcd e33a
00000120: 226b a53c 498b 9038 a0e8 0b36 2245 3836
00000130: 8409 c7bc 63a1 44bc 8ea2 673a 9ed8 f83a
00000140: bfbd 75b6 4881 69bc fcc2 293c 0a2f d9bb
00000150: e6e0 fe3c 7c24 1235 5789 023a 0365 15b6
00000160: 4c48 0ab5 ebc9 f1bc 81f8 da35 4e32 a93a
00000170: f21c b338 d28a 48bb 1776 f13b 81d8 7937
0.0001152549 0.02637035 -0.0018094105 0.0013682817 -5.263106e-07 -0.022281813 -0.004692514 0.00018974446
-0.010130905 -0.021588182 0.016073847 0.022538463 0.029089585 0.028489932 4.5575774e-07 -0.025917009
0.014870672 -1.8383672e-06 -0.018446032 0.0013589015 7.242593e-07 -0.016054755 -0.025005959 0.025857616
0.00038267623 -4.205975e-06 -0.024845168 0.03177261 -0.02411234 -4.033287e-05 -0.023756694 0.031040698
-0.029616024 -0.018666007 -0.007563972 -2.9618016e-06 -9.11487e-05 -0.029129311 -0.027220447 -1.0458973e-06
0.02378017 -5.459726e-06 0.006086778 -4.375364e-07 0.020918123 0.030018536 0.01628954 -0.0050175847
0.0009076758 0.008596959 -0.018744918 -9.390212e-07 0.00302572 -4.0795928e-07 0.018679505 -0.00060085347
5.6561623e-07 0.004506494 -0.008443491 -0.010934721 0.0035479444 -0.0027283272 -6.0021444e-05 0.029472403
4.2289622e-07 -0.0031899572 -0.016495513 0.006026163 0.02907877 -9.4332887e-07 -0.03150642 0.0017379891
0.020192686 6.892399e-05 2.084802e-06 2.7458377e-06 -0.02429653 -0.012001368 0.0008836173 0.0018985455
-3.6618292e-06 -0.014252014 0.010361429 -0.006627922 0.0311131 5.444233e-07 0.00049795717 -2.2261527e-06
-5.151421e-07 -0.029515227 1.631459e-06 0.0012908669 8.5407766e-05 -0.0030600321 0.0073688137 1.4891965e-05

lin3.weight f4 [40, 96]
00000000: 1427 63bd a893 023d 9a24 093d e314 8bbc
00000010: 3e16 093d fd27 413b 9d37 bebd 26f7 33bd
00000020: 2615 b8bd 0566 b9bd d36a dd3c 49ea 21bd
00000030: f843 4ebd f8f4 8dbd 6c0e 793d 135f d53b
00000040: d4e4 42b9 3b5b a0bd ad7b 883d 9bb7 40bd
00000050: 9fa9 953d 1236 cdbd 4ca9 32ba 3fd6 e13c
00000060: 794d ae3d af08 cb3d a740 ba3d 5431 26bc
00000070: 392d 30bd ab58 703d 8d51 d03d 80b0 89bd
00000080: cda5 a93d d2fd fb3c c994 17bd db9d df3d
00000090: 7f3e 703d 7eea d03d ef5e a23d cdf3 a2ba
000000a0: 1312 7f3d 44f6 c53d b19a fd3b 33d2 363d
000000b0: 1ee3 84bd bb9b 883d 3871 4cbd a100 863d
000000c0: 9303 a7bd 9f7e 9b3b c538 9ebd c585 b63d
000000d0: 190d efbc da23 603d 0ddd babc d862 dabc
000000e0: 9262 133d 7943 e83b ac40 bfbb a6df c7bd
000000f0: bed6 8e3d 3e82 a63d d23a b7bd 1605 103d
00000100: 93ed a33d af70 51bc e272 923d a401 843d
00000110: f8a1 893b c684 733d 79a1 c2bc 561f 173d
00000120: 033c febc f00e c43d bd68 393d 4cdf a63d
00000130: 30c7 743d 0ec4 69bd 2f20 4f3d f571 913c
00000140: 62df a7bd 49a6 afbd cda3 df3c 2843 dc3d
00000150: 8051 82bd fd2c 1c3d ac80 963d 15b1 bdbd
00000160: 8d9c aabd 0618 bcbd 2ff4 7fbd d733 7c3c
00000170: ed9b 3a3d 1148 ce3c d775 dbbd 7e86 d93c
00000180: c2a8 30bd 52aa b9bd 4540 b13b 7de6 243d
00000190: 602e 8d3d 30a1 343d 2faa 183b 4bf7 79bd
000001a0: ed45 5f3d 01c0 103d 3e44 2cbc 955d 0f3d
000001b0: 6891 34bd 1a7a a0bd 9c1c 89bc e89a 32bd
000001c0: fb5f 8ebd a451 5abd c550 953d 447f d53c
000001d0: e407 c0bb b68a 033d d551 afbd 9108 14bd
000001e0: 9487 793d 1cb2 bcbb c6aa 12bd 1cc3 ff3c
000001f0: c824 643d f5fc d6bc 7475 0c3d 243c 96bb
00000200: 888a b4bd f02e 7d3d 4dc3 243c 9bda 273d
00000210: fd36 543d 45c4 6bbd baa0 a53c 68b1 d3bd
00000220: b907 65ba 3a03 63bd 16bd da3c 0eb4 7ebd
00000230: 26fc cb3d d236 bebc 7780 ccbd 1184 853d
00000240: 1576 b63d 1825 9abd 6fc6 29bd 1d88 833d
00000250: a27c ccbd 203b e5bc 7a4d 90bd 2c00 793d
00000260: fa1a f3bb c068 b0bd 771f db3c d241 99bd
00000270: 8564 df3c 0f2f db3d 8770 813d e6d1 ca3c
00000280: 01f3 90bd 9682 1a3c 148d 903d 9ae7 bcbc
00000290: 7b22 b03d 6823 cb3d b748 813d 1e11 4cbb
000002a0: 1190 bdbc df17 17bd 0990 033d 3417 dc3c
000002b0: b7ff 6bbb 7f94 c6bd eb3d 07bd 5b25 cdbd
000002c0: 84ec e43d 565a 56bd 501d c1bd cab4 5c3c
000002d0: e0b6 673c 1a94 a33d 30d8 b2bb dafe 93bd
000002e0: d523 cd3d 662d 8fbc c7ce c03d 00b4 cfbc
000002f0: d831 5f3d 0bfc c93d 0757 e7bd 71f0 913d
00000300: 3e9f 583d c65e 233c f114 77bd b915 9e3d
00000310: 3434 c13d ace8 a43d 4638 95bd df15 923c
00000320: 5ff6 85bd d405 16bc 025c 023d b447 33bd
00000330: b568 ed3c adf3 fd3c 5f8f 59bd 9545 8ebd
00000340: b991 b0bd fc21 f13c 2f37 89bd a180 193d
00000350: b2a0 00bd 04da c3bc 428e b13d 999f 96bd
00000360: 2c39 583d 0293 323d fafd e23c 95b5 693c
00000370: 7e4d 313d 6c66 643b b756 253c 2f4f fbbd
00000380: 19ab d53d 3582 9d3d 3870 1cbd 2164 51bd
00000390: 8443 0ebc 8833 903d 18f3 263b 2ed6 35bc
000003a0: 82af 9dbb 0851 643d 391b 253d e6bd a73d
000003b0: 7411 acbc c063 533d 3b97 483d 4b56 d3bc
000003c0: 1a0d bfbd fa83 bbbd 08a7 03bd d1db 793d
000003d0: 3ea3 aabd 4cb8 56bd fa14 b3bc a902 14bd
000003e0: 8b3b 8a3d a628 6fbd d4d4 7cbd 128d 8abd
000003f0: d6fd dc3b 3a1d 8ebd 6974 44bd c7cf ac3c
-0.05545719 0.031879097 0.03348217 -0.016977733 0.033468477 0.0029473298 -0.09287951 -0.04393687
-0.08988409 -0.09052662 0.027028477 -0.039530072 -0.05035779 -0.0693149 0.06080477 0.006511578
-0.00018586527 -0.07829901 0.06664214 -0.0470501 0.07307743 -0.10020079 -0.00068153883 0.02756798
0.085108705 0.09913766 0.09094363 -0.010143597 -0.043011878 0.05867831 0.101718046 -0.06723118
0.08283577 0.03076068 -0.037007127 0.109187804 0.05865335 0.10200976 0.079282634 -0.0012432277
0.062273096 0.09666112 0.007739388 0.044634055 -0.06488632 0.06670328 -0.04991266 0.06543089
-0.081549786 0.004745319 -0.07725672 0.08912233 -0.02918105 0.05472169 -0.022810483 -0.02665846
0.035982676 0.0070881215 -0.005836567 -0.097594544 0.069745526 0.081303105 -0.08946766 0.0351611
0.08004298 -0.0127832135 0.071508184 0.064456254 0.0042002164 0.059452794 -0.023758637 0.03689512
-0.031034475 0.095731616 0.0452659 0.08148059 0.059760273 -0.057071738 0.050567802 0.017754534
-0.08196904 -0.08576638 0.027299786 0.107549965 -0.06363201 0.03812884 0.07348761 -0.09262291
-0.08330641 -0.091842696 -0.06248873 0.015393219 0.04555886 0.025180848 -0.107158355 0.026553389
-0.04312969 -0.09065689 0.005409273 0.040258873 0.06893611 0.044099033 0.0023294797 -0.061026853
0.054510046 0.03533936 -0.010514317 0.035001356 -0.044083983 -0.07835789 -0.016737275 -0.04360476
-0.069519006 -0.053300515 0.07290796 0.026061662 -0.0058603156 0.032114707 -0.0856053 -0.036140982
0.060920313 -0.005758537 -0.035807393 0.031220965 0.05569914 -0.026243666 0.0342917 -0.004584806
-0.08815485 0.06181234 0.010056329 0.040979963 0.051810253 -0.057560224 0.020218242 -0.10336572
-0.00087368075 -0.055423 0.026701491 -0.062183432 0.09960203 -0.0232195 -0.0998544 0.0651933
0.08909241 -0.07526606 -0.041449007 0.06422446 -0.09984709 -0.027982295 -0.070460275 0.06079118
-0.0074189873 -0.086137295 0.026748402 -0.07483257 0.027269611 0.10702335 0.06320291 0.02475829
-0.07077599 0.009430548 0.070581585 -0.023059655 0.08600327 0.099188626 0.063126974 -0.0031138132
-0.023139985 -0.036888 0.032119785 0.026866533 -0.0036010572 -0.09696292 -0.033018034 -0.100168906
0.11177924 -0.052332245 -0.09429419 0.013470838 0.014142722 0.079872325 -0.0054579005 -0.072263435
0.100166 -0.017477702 0.0941444 -0.025354385 0.054490894 0.098625265 -0.11295896 0.07125939
0.05288624 0.009971326 -0.060322706 0.07718987 0.09433785 0.08052191 -0.07286124 0.017832695
-0.06541132 -0.009156663 0.031826027 -0.043769553 0.028980592 0.030999983 -0.053115245 -0.069468655
-0.086215444 0.02943515 -0.066999786 0.037476186 -0.03140325 -0.023907669 0.08669712 -0.073546596
0.0527889 0.04359723 0.027708996 0.014264484 0.043286793 0.0034851087 0.010091475 -0.122709624
0.10433025 0.07690851 -0.038192958 -0.05112088 -0.008683089 0.07041079 0.0025474485 -0.011098428
-0.004812182 0.05574134 0.040309165 0.08190517 -0.021004416 0.0516088 0.04897235 -0.025797984
-0.09328671 -0.09156032 -0.032141715 0.06100065 -0.08331917 -0.052421853 -0.021860588 -0.03613535
0.06749638 -0.058388375 -0.061726406 -0.06765188 0.006744127 -0.06939168 -0.04796258 0.02109517

lin3.bias f4 [40]
00000000: 456f f6b2 8af6 7a36 2484 2e3b 4454 6bb5
00000010: ab02 613d ab84 173d fc76 573d 7ba6 baba
00000020: d8d5 0f3d c6ce 013d a8e8 133d b0aa 603d
00000030: 5848 343c 28f5 7933 0c04 d83a c070 42bc
00000040: ad56 4a3c b406 75b3 1851 3dbd a2d1 823b
00000050: ae9e 81b6 e756 103d dd9c 34bd 4d70 acb7
00000060: 1da4 25bd 5a04 0f3d 9f32 6b3a 4c14 65bc
00000070: d00e 44bd dbc4 5cb5 7365 0d3d 4909 7a3b
00000080: bcb9 babc 27f6 9ebc 4dbf 33bc f836 35b6
00000090: 6153 673b c67d 33bd b271 b2bb 144f c6bb
-2.8688769e-08 3.7396408e-06 0.0026629055 -8.7666945e-07 0.054934185 0.036991756 0.052603707 -0.0014240289
0.035116047 0.031691335 0.03611055 0.05485028 0.011003576 5.81978e-08 0.0016480698 -0.011867702
0.012349767 -5.7049604e-08 -0.046219915 0.0039922753 -3.8629723e-06 0.035239127 -0.04409491 -2.0556292e-05
-0.040439714 0.03491626 0.00089720817 -0.01398189 -0.04786569 -8.224285e-07 0.034520578 0.0038152507
-0.022793643 -0.019404484 -0.010970903 -2.7003098e-06 0.00352975 -0.04382112 -0.0054456824 -0.0060519073

lin4.weight f4 [1, 40]
00000000: 267e e4b9 9aa0 61bd 3f17 183d f75b 123d
00000010: 0152 043e 4a29 e2bd fb7b 843d 0050 bf3c
00000020: 6cf5 373e aa47 e8bd 8bf8 debd b08b 03be
00000030: 399c 38bd f8f7 97bd 3bdb a6bd eb64 8f3d
00000040: daaf 5d3c 594c c9bb 6e87 ecbd 9d62 6dbd
00000050: 5212 f6bd 3613 bcbc 45e4 c0bd 0609 05be
00000060: 50e0 e83d fa6d bebb e83d 813d 324c 3cbc
00000070: f40a 883d bf77 e2bd f3f3 8f3d 5056 853d
00000080: 4793 183e 272c d5bd 8def 4c3e 2f32 d83d
00000090: 3349 57bc a0bb 9cbd e242 063e 9f54 bd3d
-0.00043581537 -0.055084802 0.037131544 0.035732236 0.12921907 -0.110430315 0.0646896 0.023353577
0.17964715 -0.11341794 -0.108872496 -0.12846255 -0.04507086 -0.07420343 -0.08147284 0.070016704
0.013530696 -0.0061431346 -0.11549269 -0.057955373 -0.12015213 -0.02295838 -0.09418539 -0.12991723
0.11370909 -0.00581145 0.06310636 -0.011492776 0.06642714 -0.11057996 0.070289515 0.065106034
0.14899932 -0.10408812 0.20013256 0.10556447 -0.013140011 -0.07652974 0.13111451 0.09244656

bn1.weight f4 [180]
00000000: dab3 7e3f c5bd 7d3f 9940 803f 276a 7e3f
00000010: c07c 7f3f dbf7 803f ee19 803f ca29 7e3f
00000020: 14df 7f3f 61b7 7e3f b27f 813f fe92 7c3f
00000030: c184 7c3f 36f1 7b3f b2b7 813f 5e80 7e3f
00000040: 05b7 7f3f 93a1 7f3f 08bc 7b3f 9385 803f
00000050: 1fc3 7f3f ee17 7e3f 57f5 7c3f ec7c 7d3f
00000060: c6d6 7e3f bf6f 813f bf01 7f3f ef1f 813f
00000070: 9b37 7e3f 1f3a 803f eeb0 7f3f 179f 7f3f
00000080: 5dc3 7f3f 9700 803f 1643 7e3f 1ef0 813f
00000090: 2c16 803f 1ec8 7e3f a3c2 7f3f 2d00 813f
000000a0: 304b 7e3f d34a 803f 352c 7e3f 3761 7f3f
000000b0: 72ee 7b3f 4da9 7d3f e359 813f 6101 7f3f
000000c0: e5b1 803f fc46 803f 09a2 7e3f ea45 7d3f
000000d0: 4d7d 7f3f 886a 7e3f 295e 813f ad1d 803f
000000e0: 8591 7d3f af6e 7e3f 1006 7e3f 2fd0 7e3f
000000f0: 73d2 803f c18c 7e3f 8a1f 813f 5407 813f
00000100: 60e6 7e3f 5d56 7e3f a50d 7d3f ada0 7c3f
00000110: e499 7f3f e9d8 7f3f fe06 7f3f db71 7d3f
00000120: c124 7e3f 2f8c 803f 9df4 7c3f 8f9d 7e3f
00000130: 165b 7f3f d21a 7d3f a0c1 7d3f 089d 7d3f
00000140: b1ed 7e3f 439c 7e3f c429 7e3f b0f9 7f3f
00000150: 75c6 7f3f 810b 813f 77f9 7d3f fc09 7e3f
00000160: 5874 7e3f 7354 7f3f 23fd 7e3f e077 7c3f
00000170: 7c53 813f 1064 7f3f e14f 7e3f 4b5c 7e3f
00000180: 8985 7d3f 1586 823f c3d9 7d3f 0c62 7d3f
00000190: 2d18 803f 68fb 7c3f c87e 7d3f 550e 7e3f
000001a0: 9d24 7e3f 3ca8 7c3f 4e69 813f 4759 7e3f
000001b0: 5f61 7f3f 707f 7d3f d7ce 7c3f 4858 7e3f
000001c0: aac2 7d3f bfdd 7d3f debe 7d3f c41b 7f3f
000001d0: 5ed6 803f 9444 803f e491 7d3f 4582 7e3f
000001e0: a11d 803f e9c2 803f c498 803f fc7e 803f
000001f0: f346 7f3f b68f 7e3f 364f 7e3f 81c2 7c3f
00000200: 4f1f 803f bd09 7d3f 2a8f 7f3f b3c5 7f3f
00000210: 46bf 813f 2041 7c3f 885b 803f dc23 803f
00000220: 40cd 7c3f 19f2 7b3f f9c2 803f 3cbe 7e3f
00000230: 6fe7 7e3f 4a97 7f3f 3315 7e3f fb2a 7e3f
00000240: cfac 7f3f 8463 803f 5b7c 7d3f 63be 7c3f
00000250: 4aa3 7f3f ef7b 7f3f 59b2 803f 97cb 7e3f
00000260: 35aa 7d3f e690 7d3f d932 7f3f b551 7f3f
00000270: d50f 803f 15da 7f3f 8992 7e3f 8e73 803f
00000280: 2d04 7e3f 9de1 7e3f 831a 7d3f 0541 803f
00000290: 5bca 7d3f 8b2a 803f 7a38 7e3f 59a5 7e3f
000002a0: a6d9 7f3f ca5c 803f 3820 7f3f d375 803f
000002b0: 2c9a 803f 1db6 7d3f 8323 7f3f f808 7e3f
000002c0: 46c5 7f3f b309 7e3f f4ff 7e3f 4833 803f
0.9949318 0.9911769 1.0019714 0.99380726 0.9979973 1.007564 1.0007913 0.99282515
0.99949765 0.99498564 1.0117095 0.9866179 0.98640066 0.98414934 1.0134184 0.9941462
0.9988864 0.9985592 0.9833379 1.0040764 0.99907106 0.99255264 0.9881186 0.9901874
0.9954647 1.0112227 0.9961204 1.008787 0.993036 1.0017737 0.9987935 0.99852127
0.99907476 1.000018 0.99321115 1.0151403 1.0006766 0.99524105 0.9990637 1.0078179
0.9933348 1.0022835 0.99286205 0.99757713 0.98410714 0.9908646 1.0105556 0.9961148
1.0054289 1.0021663 0.99465996 0.98934805 0.9980057 0.99381304 1.010686 1.0009056
0.9905017 0.9938764 0.99228 0.9953641 1.0064224 0.99433523 1.008775 1.0080361
0.99570274 0.9935053 0.98848945 0.9868267 0.99844193 0.99940354 0.99620044 0.99001855
0.9927483 1.0042781 0.9881075 0.99459165 0.9974836 0.9886905 0.99123573 0.99067736
0.9958144 0.99457186 0.9928248 0.9999037 0.99912196 1.0081636 0.9920878 0.99233985
0.99396276 0.99738234 0.99605006 0.98620415 1.0103602 0.9976206 0.99340636 0.9935958
0.99031883 1.0197169 0.99160403 0.9897773 1.0007378 0.98821115 0.9902158 0.9924062
0.9927462 0.98694205 1.0110261 0.99354976 0.9975795 0.9902258 0.9875311 0.99353456
0.9912516 0.9916648 0.99119365 0.9965174 1.006542 1.0020928 0.99050736 0.99417526
1.0009042 1.0059482 1.004662 1.0038753 0.99717635 0.99438035 0.99339616 0.9873429
1.0009555 0.98842984 0.99827826 0.9991104 1.0136497 0.9853687 1.0027933 1.0010943
0.98750687 0.98416287 1.0059501 0.99509025 0.9957189 0.99840224 0.992511 0.99284333
0.9987306 1.003037 0.99017876 0.9872801 0.99858534 0.9979848 1.0054427 0.99529403
0.9908784 0.9904922 0.9968696 0.9973405 1.0004832 0.9994214 0.99442345 1.0035264
0.9922512 0.9956301 0.9886858 1.0019842 0.99136895 1.0012983 0.99304926 0.9947105
0.9994148 1.0028317 0.99658537 1.0035957 1.004705 0.9910601 0.9966356 0.99232435
0.9991039 0.9923355 0.99609303 1.001565

bn1.bias f4 [180]
00000000: f86c d63b ce32 03bc e6fd 44bc 51e6 98bb
00000010: 93fc 96bb 373f d23a 4428 e33b 7b95 59bb
00000020: f908 173b c06d 3ebb fbfe 9dbb 98d7 5cbb
00000030: 7dc1 3abb b503 1bbc 02e7 acbb 9de8 06bc
00000040: 4982 10bc cd1a b0bb 3a9a a3bc dd3c ccbb
00000050: c667 80bb d623 44bc 7f0b febb 026e 253b
00000060: 64e2 d3bb ae4e 843b 4d7c bbbb e058 ab3b
00000070: bb70 28bc e190 44bc a477 2ebc f886 b5bb
00000080: 1fa1 ee3a 9f57 b1bb 963d a2bb 8f18 f0bb
00000090: 338e 4fba 7408 95bb e917 d6bb 23b5 ba3b
000000a0: 27e4 25bb 61dd b538 a219 afbb 5c90 5a3b
000000b0: 6bf2 2cbc c9c2 123b 0111 afbb 3049 a43a
000000c0: dbb1 a23a 9936 c43a d437 87bb bf0f 3cbc
000000d0: b274 36bb 728c 96bb 6978 853b de66 163b
000000e0: 0b91 b63a 2da6 60bb cb7c a0bb d3b7 b53b
000000f0: 9f27 883b 0363 15bc 0cc3 7a3a 1412 db3b
00000100: da6f edbb 5008 5cbc 5d60 03bc e486 913a
00000110: ab77 26ba 1ef1 dcbb 2dfc c4bb a1c6 afbb
00000120: 9d94 41bc 40aa 8d3a ca0f 1fbc 70b5 18bc
00000130: c03a d1bb 92dc 67bb b9c4 06bc 0be8 e7bb
00000140: b2b5 06bb 9947 17bc 3457 fcbb 1ebf 693b
00000150: ba0d d5ba 76a6 d4ba c4fd 7dbb 8dc4 b13a
00000160: 113a b63b 3cb1 273b 0612 48bc 6056 1bbc
00000170: 6c63 153b aaed 8dba f383 b3bb d385 7c3a
00000180: fac9 28bc 61a0 4dbb 3b42 d9ba 2583 09bc
00000190: b495 13bb d170 41ba 9ae4 0fbc e97e b4bb
000001a0: d559 bfbb 4ab1 8abb 9e0f d5bb faf5 30bc
000001b0: 4f2d adba ce7f 8aba db04 29bc 520e 27bc
000001c0: 8faf 32bc 7610 14bc bfd4 13bb 20de 943b
000001d0: 1afe 0b3a 23bb 123c 88fc 13bc ee43 09bc
000001e0: cc55 2c3a ea0c 4c38 8d0d 7cbb cd6e 453b
000001f0: 4968 b2bb cf68 0cbb 3896 b4bb 1a68 3abc
00000200: 29be 193c 1ba2 0bbc 67e2 94b9 80d1 c1ba
00000210: 8973 7dbb c35b 55bc 902a 493b d918 d7b9
00000220: a456 2fbb 64f2 e1bb 3f9b 443b e7e1 063c
00000230: 56c3 f63a f75f e4bb affd b3bb 2014 82bb
00000240: 89f4 04bb 81d4 ee38 6562 95bb 7410 9abb
00000250: cac1 093a 8c3e 33bc 4adb 01bb 7b85 25bc
00000260: 0961 8cbb bc5d 21bb 6ebd 30bb b63d babb
00000270: 9419 f93a bf01 b9bb 1053 0abc 5ee5 b93b
00000280: 144a f0bb 37e7 dbbb fb00 20bb 94de 68bb
00000290: fa8f 16bc 8e6c 9cb9 1f5a a3bb 0562 a83b
000002a0: 720b cabb 2fef 0abc 8619 b7bb 5b0b 91bb
000002b0: bf95 cc3b 6d7e 453a e80f 31bc 0847 39bc
000002c0: a391 9eba 77a8 a8bb 1d20 b7bb f61f a1ba
0.006543752 -0.008007718 -0.012023425 -0.0046661277 -0.004607746 0.0016040568 0.0069322903 -0.003320067
0.002304612 -0.0029057115 -0.004821656 -0.003369784 -0.0028496676 -0.009461333 -0.0052765617 -0.00823417
-0.008820125 -0.0053742887 -0.019971002 -0.0062328414 -0.0039186208 -0.011971435 -0.0077528353 0.0025242572
-0.006466197 0.0040376997 -0.005721605 0.0052291006 -0.010280783 -0.011997432 -0.010648642 -0.005539771
0.0018205977 -0.0054120566 -0.0049511893 -0.0073271464 -0.00079176127 -0.004548127 -0.006533612 0.0056978627
-0.0025312991 8.6719876e-05 -0.005343632 0.0033350205 -0.010555844 0.0022393933 -0.005342603 0.0012534019
0.0012412624 0.0014969885 -0.0041265283 -0.011478364 -0.0027840552 -0.004594379 0.004073192 0.0022949497
0.0013928724 -0.0034278736 -0.004897689 0.005545595 0.004155114 -0.0091178445 0.00095658074 0.0066855047
-0.0072459998 -0.013429716 -0.00801858 0.0011102823 -0.00063502294 -0.0067426106 -0.006011507 -0.0053642546
-0.011815217 0.0010808185 -0.009708354 -0.009320602 -0.0063851774 -0.0035379273 -0.008225613 -0.007077222
-0.0020555076 -0.009233379 -0.007700825 0.0035666893 -0.0016254701 -0.0016223926 -0.0038755992 0.0013562605
0.0055611213 0.0025587818 -0.012211328 -0.009481043 0.0022794856 -0.0010828276 -0.005478376 0.00096329785
-0.010302061 -0.003137611 -0.0016575524 -0.008393084 -0.002251965 -0.00073791767 -0.00878253 -0.005508293
-0.0058395662 -0.0042325603 -0.006502106 -0.010800833 -0.0013212356 -0.0010566653 -0.010316099 -0.010196285
-0.010906114 -0.009037128 -0.0022557226 0.004543081 0.0005340293 0.00895575 -0.009032376 -0.008378012
0.0006574064 4.8649417e-05 -0.0038460225 0.0030125857 -0.0054445607 -0.0021424775 -0.0055110715 -0.011377359
0.009383717 -0.008522536 -0.00028397443 -0.0014787167 -0.00386736 -0.013022366 0.0030695535 -0.0004102651
-0.0026754523 -0.0068953503 0.002999976 0.00823257 0.0018826525 -0.0069694477 -0.005492888 -0.0039696842
-0.0020287356 0.00011388306 -0.0045588487 -0.0047016684 0.0005255012 -0.010940205 -0.0019814544 -0.010102625
-0.0042840284 -0.002462252 -0.0026968378 -0.005683626 0.0019004815 -0.00564596 -0.008442655 0.0056730947
-0.0073330496 -0.0067109126 -0.0024414647 -0.0035533058 -0.0091896 -0.00029835518 -0.0049851085 0.005138638
-0.006165915 -0.008479877 -0.0055877594 -0.0044264025 0.006243437 0.00075337925 -0.010807015 -0.011308439
-0.0012097846 -0.0051470357 -0.005588545 -0.001229285

bn1.running_mean f4 [180]
00000000: 85ff 22be 19a9 283e fa28 2cbe 0247 a23e
00000010: ca32 f93e 8d37 4d3e e3c2 5c3e 61bd 133d
00000020: 73f1 a93e 6620 a73e feb7 1bbe 242c 6f3d
00000030: 2e2e 993c 64fe 9bbe d3bf 67bd ba3c 493e
00000040: 4cc6 4cbd c1fb c23e fd32 d7bd 9117 12be
00000050: d159 acbe 56eb ed3c b785 063e 599a 2b3e
00000060: 36e8 c6bc 2db6 8bbd f039 1b3e d360 fdbd
00000070: 3a21 42bd f1ae aa3e 1b8f aebd 4cd5 a63d
00000080: b3d4 73be 770f 533e 3761 14be 090e eebb
00000090: a160 603d e824 e2bd 48f3 a83d 7e7c 43be
000000a0: 0894 ed3a 0bf6 543d 242e 50be 5ea7 9ebe
000000b0: 8926 6b3e 10c3 1ebe a3bd 49be f2a5 6c3e
000000c0: e89f 1f3c 553c 10be 3241 34be b367 603c
000000d0: 502a 5dbe 10fc 253d 0a2e dd3a 53bf a03c
000000e0: 8001 273f a39d 083e 5014 01be 09a7 c9bc
000000f0: 69be 5a3e 2445 06be 9d96 c73d e9e3 6ebe
00000100: c212 3abd 2987 60be 766f 493e 04bf b8bd
00000110: 2ad6 66be 8acb 753d bf0e 1a3e 48d2 59be
00000120: b7a2 12be 0055 43bb 7394 a2bc 4941 833e
00000130: 4790 95bd 1794 2bbe d729 b93e 5d46 3bbe
00000140: 1aa9 f9bd 1457 8f3e d088 6fbe c401 32be
00000150: eb9a 093e 2e3a 7a3d 1496 173d a909 b1be
00000160: ae7e e7be fe2f d4bd e1fc 623d 7229 773d
00000170: bc91 9cbe bc9b bf3e 15fa 1f3d 5e7e 213d
00000180: 9405 4b3b ee38 2e3e 532e e1b9 e38a 2fba
00000190: 9251 ddbc eac7 66bc e2cb c33d 79ac 7abb
000001a0: 2c41 c0be 3483 773d 46a6 ea3c 7c6d fa3b
000001b0: 3776 ab3e f4ac 7abd c41f 333e 20ec a0bd
000001c0: e308 b03d fbf5 753e 3105 6bbe de93 9fbd
000001d0: 796e e5bd 8751 69be 8139 c13d 7d44 b3be
000001e0: f3aa 5f3e 4332 27bd 2881 173c e66c 9e3e
000001f0: fe13 14be bd21 b3bd aa04 9fbd 7faa 883c
00000200: c9b9 0dbe 707b 46be 001c d73b 56e3 fc3c
00000210: 5506 96bc 52b8 00bc 26c8 e2bd e789 973e
00000220: 091f 9a3d 560f 37be 49e8 853e b061 2bbe
00000230: f16c 22be 4605 f83d 71bb 883d 0c98 143e
00000240: 0417 be3e cee8 a43e 9d87 18bc b8fc 97be
00000250: 467f 793e d821 e13d 121c 953e 6ff8 893d
00000260: f2db 1f3b 1b96 c1bb 82ce ccbe 41e8 483e
00000270: 787f 3c3e cc39 033f 3bf0 d6be 168b 9c3d
00000280: 5e2e edbc 807b 5b3e 9f3e 10be 7daf a43e
00000290: 6ec5 9bbd 7cc5 e53d 7568 9ebe eaeb e83b
000002a0: 24da 8c3e d9bb 2ebd f4e7 ebbc 3aa5 583c
000002b0: 1b5b a7be c697 fabd a36c 7d3b a681 1d3d
000002c0: b015 30bf 0d70 f93d 08c0 05bd e730 bbbd
-0.15917785 0.16470756 -0.16812506 0.316948 0.4867156 0.20040722 0.21558718 0.036069278
0.33192024 0.32641906 -0.15206906 0.058391705 0.018698778 -0.30467522 -0.056579422 0.19652072
-0.049993798 0.38082698 -0.10507772 -0.14266802 -0.33662274 0.029042881 0.13136946 0.16758098
-0.024280649 -0.06821857 0.1515882 -0.123719834 -0.04739497 0.33336595 -0.08523389 0.08146152
-0.23811607 0.20611368 -0.1449021 -0.0072648567 0.054779653 -0.110421956 0.08249527 -0.19090459
0.0018125782 0.051992457 -0.20330101 -0.30987066 0.22963919 -0.15504098 -0.19701247 0.23110178
0.009742714 -0.14085515 -0.17602995 0.013696599 -0.21598172 0.04052359 0.0016874683 0.01962248
0.65236664 0.13341384 -0.12605405 -0.024615781 0.21361698 -0.13112313 0.09745524 -0.23329128
-0.045428045 -0.2192656 0.19671425 -0.09020808 -0.22542635 0.060008563 0.15044688 -0.21271622
-0.14319883 -0.0029805303 -0.019846177 0.25635746 -0.07302909 -0.1675571 0.36164734 -0.1828856
-0.12190457 0.27996123 -0.23392034 -0.17383486 0.13438003 0.06109064 0.03700836 -0.34577683
-0.45213836 -0.10360716 0.055416945 0.06034226 -0.30579937 0.37423503 0.039056856 0.039427154
0.0030978667 0.17013904 -0.00042949858 -0.0006696416 -0.027016435 -0.014085749 0.09560372 -0.0038249774
-0.37549722 0.06042786 0.028643738 0.007642446 0.33488628 -0.061200097 0.17492586 -0.07857537
0.08595445 0.24019615 -0.22951199 -0.07791875 -0.112027116 -0.22785006 0.09434796 -0.3501319
0.21842556 -0.040819418 0.009247102 0.30942458 -0.14460751 -0.087466694 -0.077645615 0.016682861
-0.13840403 -0.19383025 0.006564617 0.030870121 -0.018313566 -0.007856445 -0.110733315 0.295974
0.07525451 -0.17876944 0.26153782 -0.16736484 -0.1586187 0.12110381 0.066763766 0.14511126
0.37126935 0.32208866 -0.0093096765 -0.29684997 0.24364957 0.10992783 0.29122978 0.06736838
0.0024392572 -0.0059077865 -0.40001303 0.19619848 0.18408 0.51260066 -0.41980156 0.07643716
-0.028952774 0.2143383 -0.14086388 0.32165137 -0.07606016 0.11219308 -0.3093907 0.0071082013
0.27510178 -0.042659614 -0.028797127 0.013222987 -0.32686695 -0.1223598 0.003866949 0.03845372
-0.6878309 0.12179575 -0.03265384 -0.09140187

bn1.running_var f4 [180]
00000000: 90c2 153d 86b8 013d ac67 db3c 09c3 5f3d
00000010: e3de 863d 9886 093d a843 5b3d 4fc7 843d
00000020: 6874 463d c974 5d3d 0fb8 413d bef6 673d
00000030: efbf 6f3d 4408 623d 2b85 ec3c 8036 eb3c
00000040: 4ffa 0d3d 36b9 4f3d a444 543d d70d 743d
00000050: 2079 4e3d 0cf0 253d 75ac d93c 2bb9 3e3d
00000060: 5352 033d 3c2c 023d 063c 143d 2e48 023d
00000070: a54d 033d cdc7 7b3d 5028 f33c fc27 013d
00000080: 6747 203d ffbf 603d 5b01 413d 8b6a f03c
00000090: ed17 ef3c 5428 733d 009b e63c 6dce f73c
000000a0: 7c91 5b3d ed31 113d 1770 533d a98d 063d
000000b0: d4e8 303d bd2a 713d b09c e33c ca1e 073d
000000c0: f07f 2a3d 235d 0b3d b72e 2b3d bdb3 323d
000000d0: 2d5a 443d 9e9e 393d 3013 4c3d a4a8 053d
000000e0: 984d 933d 1f16 2b3d 6cdc 4e3d 238e 3b3d
000000f0: be1b 143d 4168 a63d 64b6 ef3c 63ff 0a3d
00000100: a8cb ae3c 1236 773d e4c7 4b3d 020d f43c
00000110: b36d 313d a9e5 3a3d 3eba 253d ad9f 813d
00000120: 09ce 363d 5783 113d 925d 063d ecf7 4e3d
00000130: 9850 493d 559a 033d 936a 553d be65 393d
00000140: d179 4b3d 6f0e 293d f85e 2e3d 3a9e 2a3d
00000150: 24fc 113d 0fd9 e13c 6bd9 1f3d 9cb2 843d
00000160: 50c1 743d d123 503d 384a 083d e8b0 063d
00000170: a863 283d 46a0 203d 9cac cf3c 1019 203d
00000180: cfa4 243d 8226 013d 3a74 603d 8196 2d3d
00000190: 39e6 033d ad56 4e3d e7f0 873d 74c2 443d
000001a0: 1139 883d 356a 5c3d 965e 5a3d 5f79 413d
000001b0: 423c 3f3d ca3d 803d b087 843d 7004 403d
000001c0: 26e2 0f3d 5f6c 223d 7cd7 663d 62c3 f23c
000001d0: a9e4 323d e73c 563d 0cea 1d3d f703 373d
000001e0: c3d1 2c3d 6576 233d 6b13 e53c 7898 793d
000001f0: 1543 2a3d 4911 7b3d 3d4b 733d d04f a03d
00000200: d795 203d 2e25 fc3c a6a7 2e3d 44be 2f3d
00000210: 4a52 103d fa85 233d 615c 3a3d a069 a73d
00000220: ce30 1e3d aca2 463d f666 4f3d 8a5e 163d
00000230: 2771 553d 3130 153d eb9d 3c3d 8364 1f3d
00000240: d906 693d c180 6c3d eaad 233d 0d71 5f3d
00000250: 45cb 253d 6916 fe3c 830a 4e3d 3f7f 323d
00000260: e3d1 3d3d 3aaf 393d 8230 053d 5099 373d
00000270: 6e48 ea3c 30ea 603d 7d86 9c3d 015c 6e3d
00000280: c124 1b3d aa90 2e3d 5715 423d f1dd 473d
00000290: c94e 343d 7e56 323d 1df5 223d 0924 6a3d
000002a0: 9d9b 4b3d a261 2e3d ba97 203d 875f 023d
000002b0: 9cd4 5e3d 89b5 7d3d ff26 213d fceb 0f3d
000002c0: eb6b 9e3d b64e 1c3d 6b2e 243d 3688 5c3d
0.036562502 0.031670116 0.026782833 0.05462936 0.06585481 0.033575624 0.05353132 0.064833276
0.048450857 0.054066453 0.047294673 0.056631796 0.05853265 0.055183664 0.028872093 0.028712511
0.03466254 0.05071374 0.051823273 0.05958351 0.050408483 0.04051213 0.026571492 0.04656331
0.032060932 0.031780466 0.036190055 0.031807117 0.03205647 0.06146984 0.029682308 0.031532273
0.039130595 0.0548706 0.047120433 0.029347679 0.029186213 0.05936463 0.028150082 0.030249799
0.05360554 0.035448004 0.05162057 0.03284994 0.043190792 0.05887865 0.027784675 0.032988347
0.041625917 0.03402437 0.041792598 0.043628443 0.04793756 0.045317285 0.049822986 0.03263153
0.07192534 0.041769143 0.05050318 0.04578985 0.03615927 0.081253536 0.029261775 0.033934962
0.021337345 0.0603543 0.049751177 0.029791359 0.043317508 0.045629177 0.040460818 0.06329284
0.044630084 0.035525646 0.03280408 0.050529405 0.049149126 0.032129604 0.05210359 0.045263045
0.04967672 0.04127353 0.042571038 0.041654803 0.03564085 0.027569322 0.039025705 0.064793795
0.05975467 0.050815407 0.033273906 0.032883555 0.041110665 0.03921535 0.025350861 0.0390864
0.040196236 0.031530865 0.054798342 0.04237986 0.03220198 0.05037563 0.06637745 0.048037007
0.066515096 0.053812224 0.05331286 0.04723489 0.046688326 0.06261785 0.06471193 0.046879232
0.03512778 0.039654132 0.056357846 0.029634181 0.0436751 0.052304175 0.038553283 0.044681516
0.042192232 0.03990783 0.02796336 0.06093642 0.04156788 0.06129578 0.059397925 0.07827723
0.0392054 0.030779447 0.04264035 0.04290606 0.035234727 0.039922692 0.045498256 0.08174443
0.038620763 0.04849498 0.0506353 0.036711253 0.052109864 0.036422912 0.04604904 0.038914215
0.056891296 0.057739977 0.03996078 0.054551173 0.040477056 0.031016545 0.050302994 0.043578383
0.04634274 0.045333125 0.032516964 0.044823945 0.02859899 0.05491084 0.07642839 0.05819321
0.037876848 0.04261843 0.047383633 0.048795644 0.044020448 0.043539517 0.03978454 0.057163272
0.04970895 0.04257358 0.039207198 0.031829383 0.05440198 0.061940704 0.03934383 0.03513716
0.077354275 0.038161002 0.04008333 0.05384084

bn2.weight f4 [96]
00000000: 38c0 7f3f b5d3 7c3f 8544 7d3f 4b74 7e3f
00000010: ce48 7e3f 3db8 7e3f 2e22 7d3f b4f1 7c3f
00000020: 9635 7c3f 4af7 7f3f 69b6 803f 7085 803f
00000030: a6c2 803f f6d6 803f 453b 7b3f 903b 7d3f
00000040: 17fe 803f 5d02 7e3f 7692 813f a214 7e3f
00000050: 5a17 7b3f 2b4a 7c3f 40df 7b3f a5a1 803f
00000060: ec06 7f3f a74f 813f ac00 803f bfd4 7e3f
00000070: e060 823f dc27 7c3f 708f 7c3f 2fb6 7f3f
00000080: 5d7b 7f3f 9f39 7e3f 07c5 7b3f 6055 7e3f
00000090: 68d5 7c3f d564 7c3f 0490 7f3f ce37 7e3f
000000a0: 0b3f 7e3f a306 823f 1394 7f3f 94ac 7b3f
000000b0: 7c90 7f3f 3aaf 7b3f f819 803f 210b 7d3f
000000c0: f310 7a3f cf8c 7f3f f9d2 7a3f c1ae 7d3f
000000d0: 2293 7d3f 7a83 7c3f 71d4 7e3f 1c5f 823f
000000e0: f68d 813f adc4 803f dc9e 7e3f 9f26 7c3f
000000f0: a7aa 7d3f d71c 7d3f 6006 7d3f 54e1 7a3f
00000100: e3e8 7c3f b001 803f c1df 7d3f 7922 7e3f
00000110: 5874 7d3f 6996 7f3f 9c19 813f 34e4 813f
00000120: 09ee 813f ec5e 803f 8346 813f 5fc7 7f3f
00000130: e4cb 7d3f 2e2f 823f c855 823f 04e3 7f3f
00000140: 5e77 813f 7af9 7c3f 349c 7c3f 6e45 803f
00000150: 0872 7f3f ff28 7e3f 7247 7f3f d057 803f
00000160: 7f1c 7c3f 9fa9 7b3f b9fb 7b3f c91c 7e3f
00000170: 9799 7f3f a9ba 813f 0c14 843f b812 7d3f
0.9990268 0.9876054 0.9893268 0.993962 0.9932984 0.99499875 0.9888028 0.9880631
0.98519266 0.9998671 1.0055667 1.0040722 1.0059402 1.0065601 0.98137313 0.9891901
1.0077542 0.99222356 1.0122821 0.99250233 0.98082507 0.9855067 0.9838753 1.004933
0.99619937 1.0102433 1.0000205 0.99543375 1.0185814 0.9849832 0.9865637 0.99887365
0.9979761 0.9930667 0.98347515 0.9934902 0.9876313 0.9859136 0.99829125 0.993039
0.99314946 1.0158275 0.9983532 0.9831021 0.9982984 0.9831425 1.0007925 0.98845106
0.9768211 0.9982423 0.9797817 0.9909478 0.9905263 0.9863812 0.9954291 1.0185275
1.0121448 1.0060021 0.9946115 0.9849643 0.9908852 0.9887213 0.9883785 0.98000073
0.98792857 1.0000515 0.99169546 0.9927135 0.9900565 0.9983888 1.008594 1.0147767
1.0150768 1.0028968 1.0099643 0.9991359 0.9913924 1.0170648 1.0182428 0.99955773
1.0114553 0.9881817 0.9867585 1.0021188 0.9978337 0.99281305 0.9971839 1.0026798
0.9848098 0.98305696 0.98430973 0.9926267 0.99843735 1.0135089 1.0318618 0.9885669
