Proposed model/saved_best_DNN_model/0.39289model_fingerp5.pth (torch, 216672 bytes, 19 tensors)

lin1.weight f4 [180, 166]
-9.8988234e-11 0.033246476 0.046580236 -0.018021986 -0.02531212 -0.0083500575 -0.0338867 -0.008697326
0.026069932 0.01983915 -0.013069806 -0.018799942 0.02837542 -0.06900443 0.012475342 0.024861183
0.009602628 -0.0015525684 -0.062673315 -0.015964272 -0.034104325 0.0752487 0.010905903 0.013675026
-0.05953195 -0.016884072 0.06256715 -0.013571307 0.07477442 0.00692412 0.020915434 0.023291664
-0.037299685 -0.039311863 0.0069716647 0.06999451 -0.018999241 -0.07279163 0.02034066 -0.06281721
-0.022026032 0.07075737 0.021430675 -0.08559651 0.008666192 -0.02071648 0.06927284 -0.050240926
0.032141063 -0.056070298 -0.035651516 -0.039319437 0.029439028 -0.03041067 -0.08474085 -0.037795182
-0.012003478 -0.036416166 -0.068594456 -0.06166676 0.046642665 0.048120372 -0.013554125 0.028805956
-0.081556395 -0.017680487 -0.002393721 -0.043418966 0.049331795 -0.004420137 0.07966649 -0.018375421
-0.026185967 0.018573623 -0.05479224 0.03828268 -0.027912855 0.026462238 -0.009553955 -0.07073622
0.06675836 0.0696026 0.011091698 -0.023714427 -0.051968962 0.058959708 -0.04366118 -0.04467651
0.03962384 0.036574166 -0.03329491 0.0657772 -0.02757483 -0.042569466 0.082033195 -0.053333
0.08636059 0.019202843 -0.019489992 -0.0014948547 0.017653214 -0.051624153 -0.026851583 0.010799032
-0.05907374 0.022963105 0.06832292 -0.042710707 0.06894718 -0.015478399 -0.019822557 0.032191616
-0.022255495 -0.06332962 -0.0039732293 -0.06722837 0.056706116 0.08667971 0.08438578 -0.072824836
0.004417814 -0.0008814107 -0.06646653 0.008571925 -0.06966209 -0.060339525 0.03360224 -0.0016045218
-0.016812118 -0.044126876 -0.011594237 0.022885738 0.07692469 0.06159236 -0.0066496874 0.059838805
0.0011828955 -0.03276764 -0.058837827 0.05573037 0.07797161 -0.060157634 0.0028624034 0.013940738
0.03671331 0.06873796 -0.03014412 -0.03133055 0.038504865 0.06081868 -0.029535847 -0.03084639
-0.017607952 0.07564076 -0.023724034 0.07112715 0.079557374 0.028084438 -0.052937604 -0.05878946
-0.053118546 0.046956904 -0.06756486 -0.04195062 0.04411841 -0.03639621 -0.0048424746 0.006344137
0.046884403 0.027339023 0.0071776616 0.050725576 -0.0003720547 -0.030182088 -0.0007596564 0.010635159
0.043186292 -0.012017503 -0.0590059 -0.06975591 0.024697488 -0.03572659 -0.03170769 0.030719535
0.032429338 2.918374e-11 0.058773924 0.059727374 -0.0013589971 0.050665155 -0.03578374 -0.026837539
0.028164806 -0.05112015 0.07263082 0.00788106 0.013236473 0.06973399 -0.07313402 -0.018482475
0.0466686 -0.0057708556 0.03384466 0.043608077 -0.03138759 -0.018211659 0.05282356 -0.03396795
0.0072947806 -0.07653717 -0.031900376 -0.013235954 -0.0037239448 0.0073371674 0.018930232 0.04615753
0.04595692 -0.0019991333 0.004410235 -0.075100906 0.008044641 0.020691633 -0.074778564 0.071005955
0.04430974 -0.03485625 -0.06540548 0.04972489 0.0076239165 -0.023101214 -0.013109069 -0.031454388
0.05123927 -0.047293574 0.026269054 -0.07544664 -0.05222282 0.015446749 0.039663944 -0.049233228
0.020274032 -0.039298452 -0.012361584 0.069915265 0.03285514 -0.032864995 -0.06914454 -0.060264394
-0.043849405 0.014597844 -0.020746052 -0.013168763 -0.0517925 -0.06450634 0.06403745 0.016013447
00000000: 6cad d9ae 752d 083d ebca 3e3d d8a2 93bc
00000010: 5d5b cfbc aece 08bc c8cc 0abd 3b7f 0ebc
00000020: 9c90 d53c b785 a23c bd22 56bc 5602 9abc
00000030: 9273 e83c 3252 8dbd 6065 4c3c aea9 cb3c
00000040: 5754 1d3c 8d7f cbba de5a 80bd 81c7 82bc
00000050: fab0 0bbd fe1b 9a3d acae 323c 370d 603c
00000060: c6d7 73bd 7750 8abc 3523 803d 305a 5ebc
00000070: 5523 993d bae3 e23b d856 ab3c 29ce be3c
00000080: 8ec7 18bd 7a05 21bd 9072 e43b 4859 8f3d
00000090: 4ca4 9bbc c713 95bd 75a1 a63c 4fa6 80bd
000000a0: f06f b4bc 3de9 903d 628f af3c 394d afbd
000000b0: a5fc 0d3c 9cb5 a9bc ebde 8d3d 6ec9 4dbd
000000c0: 59a6 033d f8a9 65bd 5307 12bd 6b0d 21bd
000000d0: 1e2a f13c cc1f f9bc 9c8c adbd 1fcf 1abd
000000e0: 3caa 44bc 1e29 15bd 407b 8cbd 4996 7cbd
000000f0: 610c 3f3d de19 453d 1f12 5ebc 78fa eb3c
00000100: 0a07 a7bd abd6 90bc f9df 1cbb 16d8 31bd
00000110: 2310 4a3d ccd6 90bb 2f28 a33d 0d88 96bc
00000120: f483 d6bc b627 983c d46d 60bd 4dce 1c3d
00000130: 80a9 e4bc 56c7 d83c 3188 1cbc 27de 90bd
00000140: 9bb8 883d cf8b 8e3d f4b9 353c c244 c2bc
00000150: 68dd 54bd bc7f 713d 11d6 32bd b7fe 36bd
00000160: 9c4c 223d cbce 153d 3e60 08bd 32b6 863d
00000170: 9ce4 e1bc 525d 2ebd 0501 a83d b473 5abd
00000180: d2dd b03d 484f 9d3c 7aa9 9fbc 00ef c3ba
00000190: 799d 903c d973 53bd daf7 dbbc 6cee 303c
000001a0: 4ef7 71bd 1f1d bc3c e3ec 8b3d 6cf1 2ebd
000001b0: 2e34 8d3d 1c99 7dbc ea62 a2bc 5bdb 033d
000001c0: 2851 b6bc f6b2 81bd dd31 82bb 07af 89bd
000001d0: ac44 683d 2285 b13d 74d2 ac3d 3025 95bd
000001e0: 4fc3 903b 790e 67ba 9b1f 88bd 4271 0c3c
000001f0: ffaa 8ebd 9426 77bd 81a2 093d d14e d2ba
00000200: 91b9 89bc 62be 34bd c1f5 3dbc df7a bb3c
00000210: b18a 9d3d 4548 7c3d 9fe5 d9bb 8919 753d
00000220: 630b 9b3a 5c37 06bd efff 70bd 8745 643d
00000230: 94af 9f3d da67 76bd 2997 3b3b b167 643c
00000240: b260 163d 7dc6 8c3d cdf0 f6bc 7654 00bd
00000250: 47b7 1d3d 021d 793d 29f5 f1bc 92b1 fcbc
00000260: 8d3e 90bc 8be9 9a3d e858 c2bc 1cab 913d
00000270: faee a23d 5611 e63c 1ad5 58bd 38cd 70bd
00000280: d592 59bd e255 403d 725f 8abd 6ad4 2bbd
00000290: 82b5 343d 3114 15bd 9fad 9ebb 7ae2 cf3b
000002a0: dc09 403d 16f6 df3c 9732 eb3b 9fc5 4f3d
000002b0: 5610 c3b9 6d40 f7bc ae23 47ba 173f 2e3c
000002c0: 1ce4 303d 10e5 44bc 2cb0 71bd 30dc 8ebd
000002d0: 6352 ca3c 0b56 12bd ecdf 01bd 89a7 fb3c
000002e0: a0d4 043d f859 002e edbc 703d b1a4 743d
000002f0: 6020 b2ba 4486 4f3d f991 12bd 66da dbbc
00000300: e1b9 e63c 5d63 51bd 78bf 943d 901f 013c
00000310: cbdd 583c b2d0 8e3d 4ac7 95bd 8f68 97bc
00000320: 9327 3f3d 7219 bdbb b3a0 0a3d 629e 323d
00000330: 4690 00bd 9e30 95bc 845d 583d fa21 0bbd
00000340: 0e09 ef3b 85bf 9cbd f8a9 02bd 9ddb 58bc
00000350: 6d0d 74bb 9f6c f03b 9313 9b3c ae0f 3d3d
00000360: 533d 3c3d e403 03bb bc83 903b 81ce 99bd
00000370: accd 033c 8081 a93c 8125 99bd 926b 913d
00000380: 217e 353d 6dc5 0ebd 4ff3 85bd 54ac 4b3d
00000390: 0cd2 f93b c23e bdbc 6cc7 56bc 51d6 00bd
000003a0: 45e0 513d e8b6 41bd 3332 d73c c583 9abd
000003b0: 99e7 55bd 5c14 7d3c a976 223d c8a8 49bd
000003c0: ba15 a63c 6af7 20bd 3e88 4abc bc2f 8f3d
000003d0: 1c93 063d 729d 06bd a79b 8dbd ccd7 76bd
000003e0: 6f9b 33bd cc2b 6f3c a0f3 a9bc ccc1 57bc
000003f0: 5f24 54bd e61b 84bd 1126 833d a22e 833c

lin1.bias f4 [180]
1.1253593e-07 0.030515559 -0.026227914 0.034248207 2.7676292e-06 0.019602375 -0.0006219866 -0.0033868349
-0.028450327 0.026337827 -3.1427617e-06 0.0023908706 -0.00047647528 -2.6972702e-06 0.02273609 0.024921156
-0.003945709 0.00037911063 -0.03480763 -0.010049695 0.029284265 0.00021172268 0.007591772 0.023785654
0.03499883 0.019844746 1.2163895e-05 4.2791537e-05 -0.01643484 -0.0028399348 -0.01365133 -0.00015129214
3.514979e-05 -0.018713212 0.0052326974 -0.0024109 0.003591102 -0.022586083 -0.0034409473 -0.027024869
-8.9574656e-05 0.005926156 -0.017274939 0.0123035945 -0.014920302 0.008002015 2.100634e-05 0.010198629
8.7748145e-07 0.02185401 -0.0018093055 -0.019258238 0.02109769 0.003086039 -0.0011627926 6.0730086e-05
-0.032189097 -0.014589689 -2.3791233e-06 -0.010637235 0.026189603 0.023165504 -1.2713517e-05 -0.00082041556
1.1297906e-06 -3.3872544e-05 -9.0455444e-08 -0.0020343068 -0.00012730579 0.005586204 -0.017011872 0.004019685
0.00057292066 -0.003104072 0.0030234698 0.016963923 0.0021890206 -0.02992344 -0.0047081537 0.00288674
-0.006202584 -0.029671866 0.0058273957 -0.016966144 0.006551617 -6.6253415e-07 5.025564e-06 0.00539903
0.021341952 -0.019036558 5.8149715e-07 0.03275136 -5.296787e-06 0.00045218974 0.025645431 -0.000928068
0.012768263 -0.025598189 -0.015844014 -0.010702624 -4.5050393e-07 0.02427375 1.7996592e-05 0.032818817
-0.019511659 0.02411526 -8.002814e-06 -5.1668076e-06 -2.7534884e-07 3.081844e-06 -0.012596462 -0.016355285
0.0023020112 -0.0049660383 0.0021675287 -0.016738674 0.014622032 -3.8479047e-06 0.031081758 0.0014270047
0.0018043924 -0.029267399 -0.02879237 -0.034906995 0.023786196 1.816396e-05 -0.008685488 4.933132e-06
-0.012035864 2.7829776e-06 0.010109705 0.0028365348 -0.017250737 -7.919721e-06 -0.030660687 0.003302697
-0.00023937081 0.006046953 -0.034995254 -0.027184086 2.9782182e-06 -4.188171e-06 -0.0029122808 -0.03341752
-1.6086514e-07 -0.0031337845 -0.0025774129 -0.013608096 -0.005889934 -0.003541439 -1.2792739e-06 -0.026787741
-0.002653067 -0.0023794388 0.019293424 0.023607004 -0.03315294 0.00491072 -7.535972e-07 -0.015775029
0.0047922237 0.026308896 -0.013337528 -0.01604431 -0.018820118 -0.02130387 -0.019147556 0.034167584
0.0001501105 -5.5270484e-05 -0.0009550386 0.0007528884 0.005615631 0.029164493 -0.031069644 8.1886574e-05
0.017258665 0.016240291 0.008575104 0.026844569
00000000: 48ab f133 c4fb f93c ecdb d6bc d947 0c3d
00000010: 82bb 3936 2995 a03c d00c 23ba a9f5 5dbb
00000020: a910 e9bc 6dc2 d73c 3ce8 52b6 27b0 1c3b
00000030: 6ecf f9b9 c002 35b6 0941 ba3c 7427 cc3c
00000040: 024b 81bb 5ec3 c639 7292 0ebd 7aa7 24bc
00000050: 8ee5 ef3c e001 5e39 66c4 f83b 22da c23c
00000060: ef5a 0f3d 7391 a23c 8813 4c37 107b 3338
00000070: 5ca2 86bc 331e 3abb d4a9 5fbc 2da4 1eb9
00000080: cd6d 1338 734c 99bc 0c77 ab3b 3100 1ebb
00000090: b258 6b3b 7306 b9bc 8481 61bb 4263 ddbc
000000a0: 07da bbb8 3330 c23b 2c84 8dbc 0495 493c
000000b0: 4874 74bc e21a 033c c636 b037 2718 273c
000000c0: 118c 6b35 2e07 b33c 3826 edba 74c3 9dbc
000000d0: 10d5 ac3c 253f 4a3b d868 98ba 6fb8 7e38
000000e0: b7d8 03bd 9709 6fbc 07a9 1fb6 cc47 2ebc
000000f0: 948b d63c 95c5 bd3c 244c 55b7 2811 57ba
00000100: 4fa3 9735 5e12 0eb8 6840 c2b3 0152 05bb
00000110: 637d 05b9 7a0c b73b 7b5c 8bbc 90b7 833b
00000120: 0e30 163a b06d 4bbb 6825 463b edf7 8a3c
00000130: ac75 0f3b 0122 f5bc db46 9abb 762f 3d3b
00000140: 0c3f cbbb 6a12 f3bc bdf3 be3b 95fc 8abc
00000150: f2ae d63b 00d9 31b5 44a1 a836 59ea b03b
00000160: 51d5 ae3c 8ef2 9bbc 2e18 1c35 4a26 063d
00000170: 0ebb b1b6 e113 ed39 5e16 d23c 9749 73ba
00000180: fa31 513c 4bb3 d1bc 4ecb 81bc 0f5a 2fbc
00000190: cadc f1b4 bed9 c63c 63f7 9637 066d 063d
000001a0: ead6 9fbc 5e8d c53c d343 06b7 8a5e adb6
000001b0: a8d3 93b4 add1 4e36 6461 4ebc 85fb 85bc
000001c0: 57dd 163b 26ba a2bb 190d 0e3b 8b1f 89bc
000001d0: 3f91 6f3c 401d 81b6 2c9f fe3c 550a bb3a
000001e0: 5d81 ec3a 2fc2 efbc fadd ebbc a3fa 0ebd
000001f0: 45db c23c cf5e 9837 944d 0ebc 4887 a536
00000200: 1332 45bc 31c3 3a36 2da3 253c 28e5 393b
00000210: 6b51 8dbc f1de 04b7 1f2c fbbc 1072 583b
00000220: 9dff 7ab9 8525 c63b 2f57 0fbd 29b1 debc
00000230: 66dd 4736 1d88 8cb6 f7db 3ebb cfe0 08bd
00000240: 46ba 2cb4 2e60 4dbb d0e9 28bb 7ef4 5ebc
00000250: 5900 c1bb 7d17 68bb 84b3 abb5 f771 dbbc
00000260: 14df 2dbb 5cf0 1bbb 3e0d 9e3c 7a63 c13c
00000270: 61cb 07bd 1bea a03b ce4a 4ab5 a23a 81bc
00000280: 1608 9d3b c185 d73c a685 5abc 5b6f 83bc
00000290: a62c 9abc 7485 aebc 56db 9cbc 4ff3 0b3d
000002a0: fb66 1d39 3bd2 67b8 8e5b 7aba 7c5d 453a
000002b0: 5403 b83b 60ea ee3c c485 febc 85ba ab38
000002c0: 0b62 8d3c 5c0a 853c 987e 0c3c 24e9 db3c

lin2.weight f4 [96, 180]
-0.03415287 -0.022122355 0.032670375 0.047107592 0.056070775 -0.040850174 -0.022890747 0.04632074
0.036513414 0.06006379 0.01928972 0.015049694 0.030581579 0.016052146 0.054383583 -0.044295818
0.022993704 0.051623136 0.012511073 -0.06395362 -0.0030633123 0.066877134 0.030179786 0.013820509
-0.027520897 0.048304517 0.043080613 0.023358641 0.07901904 0.00790577 0.03206227 -0.01598218
-0.04934313 0.015608683 -0.024486981 -0.005084138 0.039130837 -0.039943356 -0.010929169 0.057669133
0.059217103 -0.037551608 0.044910956 -0.019013718 -0.00842772 0.0389904 0.007829412 -0.049812514
-0.052236095 0.006702285 -0.04330351 0.059085418 0.06015396 0.020667214 0.03669935 0.014491083
0.06258487 -0.054998506 -0.043944046 -0.039241273 -0.07398044 0.06071111 -0.005702324 -0.003476917
-0.07173323 -0.025016835 -0.008420345 -0.06958654 -0.044537213 0.065630995 0.04217304 0.03413584
-0.040286213 -0.002789813 0.070627116 0.01770958 0.06126505 0.008080312 -0.03674339 0.044791177
0.021658968 0.022601113 -0.009927688 -0.010527856 -0.017735615 0.036314268 0.04033739 0.00047137754
-0.07700238 -0.0035386458 -0.04059477 -0.038281348 0.019097896 0.037507866 -0.044209525 -0.029368171
0.0667867 -0.016926918 0.045100704 -0.04580361 0.05624059 0.05157887 -0.075359926 -0.02916028
0.031108974 -0.015409494 -0.03494658 0.006203272 0.004471906 -0.049782515 0.049054638 -0.03806306
0.021619527 -0.009241529 -0.009546124 -0.054681435 -0.051351435 -0.00022176422 -0.04502856 0.011782769
-0.016475838 -0.0022975418 -0.036343366 -0.045337114 0.0399307 -0.032038886 0.016527902 -0.02130871
-0.011090614 0.0148511315 0.06227972 -0.01954157 -0.0057722274 0.023085808 -0.016723957 0.020800576
-0.03521541 -0.014016594 0.045371193 -0.009783555 -0.027377624 0.0671623 0.07172923 0.069697246
0.038923457 0.07406283 -0.033117294 0.06276098 -0.0042824545 -0.054014523 0.036135145 0.017829577
-0.07765764 0.057466917 -0.010661348 0.005553457 0.017163256 -0.0262647 -0.049313147 0.053441256
0.013647544 -0.010731922 0.015072861 0.078881234 0.0032661252 0.006952114 -0.018446928 -0.008259759
-0.06150758 0.07453946 0.00083390705 0.05860085 -0.04650436 0.004911669 0.017450865 0.0090657985
-0.0033218006 0.0020094288 0.04010876 0.024035726 -0.05111837 0.00079224294 -0.07073561 0.035017412
-0.042024106 0.05209719 0.07300068 -0.0246193 0.047996987 0.012964083 0.007966798 0.07192143
-0.028791498 0.043828715 -0.0055299033 0.028172456 0.02360612 -0.064422406 0.040193446 -0.037062306
0.06850562 -0.020089502 -0.04960285 0.022409037 0.066912 0.080141194 -0.02118906 0.064495794
0.0060986136 -0.013741573 0.042317796 0.061862357 -0.015372037 0.03137322 -0.065356515 -0.00854481
0.008793989 0.051572077 0.006960207 -0.04604956 0.01952455 0.034855813 0.0007406717 0.07121562
-0.057305053 -0.011691424 -0.04704274 -0.009111027 0.013308849 0.050974593 -0.04514503 -0.025525453
-0.07206019 0.03659283 0.004586443 -0.07140529 -0.046318337 0.06137619 0.0051900055 0.04562862
-0.07599524 -0.04117106 0.019562865 0.060639493 0.07488542 0.029133672 0.015970645 0.0026745263
0.0071859085 -0.0120940665 0.039530963 -0.05721969 -0.07200133 -0.056552608 -0.081032835 -0.04995484
00000000: e1e3 0bbd f139 b5bc 5fd1 053d e4f3 403d
00000010: 78aa 653d 8352 27bd 6085 bbbc d1ba 3d3d
00000020: 178f 153d 7305 763d 7a05 9e3c fe92 763c
00000030: 3886 fa3c ca7f 833c 52c1 5e3d 886f 35bd
00000040: 4b5d bc3c c872 533d 3efb 4c3c 1efa 82bd
00000050: dac1 48bb e1f6 883d 993b f73c 6b6f 623c
00000060: 8173 e1bc f5da 453d 4c75 303d 9f5a bf3c
00000070: bcd4 a13d 3487 013c ba53 033d 10ed 82bc
00000080: 061c 4abd 90bb 7f3c ec98 c8bc d798 a6bb
00000090: a847 203d a59b 23bd 4210 33bc 7836 6c3d
000000a0: a28d 723d b7cf 19bd 8df4 373d a8c2 9bbc
000000b0: 6b14 0abc 66b4 1f3d ef46 003c 3508 4cbd
000000c0: 84f5 55bd d79e db3b 055f 31bd 8d03 723d
000000d0: 0064 763d 4a4e a93c 0f52 163d 026c 6d3c
000000e0: 7f2c 803d 1d46 61bd acfe 33bd 75bb 20bd
000000f0: 0f83 97bd 36ac 783d 90da babb fddc 63bb
00000100: dfe8 92bd 1bf0 ccbc 7df5 09bc 6383 8ebd
00000110: a76c 36bd 8b69 863d a3bd 2c3d 06d2 0b3d
00000120: 2803 25bd 4cd5 36bb f3a4 903d ae13 913c
00000130: 10f1 7a3d 4963 043c 3d80 16bd f476 373d
00000140: 266e b13c f825 b93c bea7 22bc 077d 2cbc
00000150: 484a 91bc 45be 143d d238 253d 3923 f739
00000160: 6cb3 9dbd a0e8 67bb b446 26bd e7cc 1cbd
00000170: 3173 9c3c d9a1 193d 0c15 35bd 8595 f0bc
00000180: 77c7 883d 52aa 8abc 84bb 383d 919c 3bbd
00000190: 885c 663d 5d44 533d 4e56 9abd 8ae1 eebc
000001a0: 3fd8 fe3c 1a78 7cbc 2524 0fbd d144 cb3b
000001b0: 1189 923b c0e8 4bbd 84ed 483d 03e8 1bbd
000001c0: 6f1b b13c c869 17bc 5967 1cbc a4f9 5fbd
000001d0: e255 52bd 6189 68b9 de6f 38bd 840c 413c
000001e0: 56f8 86bc 5b92 16bb c8dc 14bd 69b3 39bd
000001f0: 608e 233d 353b 03bd 8665 873c 9b8f aebc
00000200: 68b5 35bc 2952 733c 0519 7f3d a515 a0bc
00000210: f424 bdbb 731e bd3c ae00 89bc f865 aa3c
00000220: 093e 10bd dba5 65bc 25d7 393d 344b 20bc
00000230: 0a47 e0bc 638c 893d c6e6 923d 6ebd 8e3d
00000240: 346e 1f3d 41ae 973d 00a6 07bd d488 803d
00000250: d553 8cbb 553e 5dbd 7202 143d 550f 923c
00000260: f80a 9fbd 6e62 6b3d efac 2ebc c6f9 b53b
00000270: f599 8c3c 1129 d7bc 95fc 49bd 38e5 5a3d
00000280: f399 5f3c f2d4 2fbc 29f4 763c 7c8c a13d
00000290: 7d0c 563b 8fce e33b 031e 97bc f153 07bc
000002a0: 5fef 7bbd 25a8 983d 8e9a 5a3a 7207 703d
000002b0: 5b7b 3ebd 11f2 a03b 1ef5 8e3c b788 143c
000002c0: 91b2 59bb 9fb0 033b 1549 243d 92e6 c43c
000002d0: 7f61 51bd 86ae 4f3a d5dd 90bd 6b6e 0f3d
000002e0: 7821 2cbd dd63 553d 6181 953d 6aae c9bc
000002f0: 7d98 443d 4e67 543c 2c87 023c 8b4b 933d
00000300: 26dc ebbc bd85 333d 3134 b5bb ecc9 e63c
00000310: 9f61 c13c e5ef 83bd e2a1 243d a5ce 17bd
00000320: ad4c 8c3d bd92 a4bc 5c2c 4bbd 2893 b73c
00000330: 2909 893d 1121 a43d ae94 adbc 5f16 843d
00000340: e1d6 c73b 5624 61bc 6d55 2d3d 6263 7d3d
00000350: ffda 7bbc 3581 003d a3d9 85bd 88ff 0bbc
00000360: aa14 103c 3e3d 533d 7312 e43b 779e 3cbd
00000370: f3f1 9f3c f8c4 0e3d a329 423a 7fd9 913d
00000380: b4b8 6abd 638d 3fbc e3af 40bd 6b46 15bc
00000390: 5c0d 5a3c bcca 503d ffe9 38bd c11a d1bc
000003a0: 4b94 93bd 5de2 153d df49 963b f03c 92bd
000003b0: 4cb8 3dbd 9a65 7b3d ec10 aa3b 13e5 3a3d
000003c0: 64a3 9bbd fca2 28bd 4d42 a03c 1e61 783d
000003d0: 875d 993d bda9 ee3c dfd4 823c 1b47 2f3b
000003e0: c577 eb3b 3126 46bc 38eb 213d 325f 6abd
000003f0: 6f75 93bd b5a3 67bd 8bf4 a5bd 729d 4cbd

lin2.bias f4 [96]
0.00780944 -1.8184796e-06 -0.028614704 1.4558033e-06 -0.017448736 -9.951465e-07 4.9159866e-07 0.004822294
-2.3897217e-05 0.022892741 0.0053188126 -0.0077288374 1.2299315e-06 -8.631134e-05 6.909909e-07 -0.0029941648
-7.531482e-07 -0.012946316 -0.02060081 -1.8072426e-06 -0.01766237 -1.0305844e-06 0.013219809 -0.0016893034
0.0045381268 -0.02966012 -0.0026937672 0.003916796 0.022844423 0.028960122 -0.0050236974 1.6508172e-06
-3.3613196e-06 -7.431002e-06 -0.0043426207 -0.000906396 -2.7633726e-07 -0.02048526 -0.005653808 1.7017735e-06
-0.02261565 -0.02188424 1.5736748e-06 -1.9133818e-06 -2.3971659e-06 -2.1623764e-06 -0.026720978 0.0016537496
-0.0019649405 -0.028108245 -0.023223218 3.3734623e-06 -0.030395962 0.013428616 -0.0046603726 0.0014846572
-0.02759519 6.3241423e-06 -0.012854178 -0.029686363 0.018050328 -3.2710474e-07 -0.031232478 1.6857715e-06
0.010548885 -0.0001012342 0.009764335 0.002444238 0.025458142 -0.004679084 -0.017101008 -0.012185692
0.0003411442 -0.02783851 0.0009213199 0.031186283 0.006171657 7.712831e-05 -0.012178191 0.023095248
0.016078122 0.0030608543 -8.122258e-07 0.01728894 2.4438968e-06 1.5802799e-06 -0.010138722 0.029709108
0.013258312 -0.02785943 0.020214565 0.0035033927 -0.015084003 -0.01999281 0.010984747 6.557506e-06
00000000: 55e6 ff3b 7c12 f4b5 6269 eabc 0565 c335
00000010: a7f0 8ebc f990 85b5 67f6 0335 5604 9e3b
00000020: e276 c8b7 8f89 bb3c 6f49 ae3b 3042 fdbb
00000030: 2014 a535 0c02 b5b8 887c 3935 c039 44bb
00000040: f32b 4ab5 c91c 54bc 08c3 a8bc 6290 f2b5
00000050: adb0 90bc 9c52 8ab5 e697 583c 9e6b ddba
00000060: 91b4 943b c8f9 f2bc ea89 30bb 7758 803b
00000070: 3a24 bb3c c73d ed3c d49d a4bb a691 dd35
00000080: 0893 61b6 d257 f9b6 8b4c 8ebb 359b 6dba
00000090: 815b 94b4 b4d0 a7bc 9443 b9bb 7e68 e435
000000a0: 7544 b9bc 9446 b3bc 0e37 d335 a667 00b6
000000b0: ffde 20b6 581d 11b6 f4e5 dabc a1c2 d83a
000000c0: 3bc6 00bb 4343 e6bc 9e3e bebc a463 6236
000000d0: f400 f9bc b303 5c3c 0ab6 98bb d498 c23a
000000e0: 4f0f e2bc f833 d436 559a 52bc d130 f3bc
000000f0: 48de 933c ef9c afb4 41db ffbc ab42 e235
00000100: 3bd5 2c3c b34d d4b8 97fa 1f3c 822f 203b
00000110: 988d d03c 0053 99bb 6a17 8cbc 7fa6 47bc
00000120: 99db b239 960d e4bc bb84 713a 607a ff3c
00000130: 9c3b ca3b f2bf a138 0987 47bc 3f32 bd3c
00000140: 44b6 833c 9d98 483b bb07 5ab5 89a1 8d3c
00000150: d401 2436 011a d435 e21c 26bc 8460 f33c
00000160: 6439 593c 7639 e4bc 0499 a53c 2d99 653b
00000170: e522 77bc f6c7 a3bc 5ef9 333c 8c08 dc36

lin3.weight f4 [40, 96]
-0.099086694 -0.032157138 0.06632163 -0.06839799 -0.062500656 0.007824073 -0.092995815 -0.03269293
-0.023954438 0.005164519 -0.04975753 0.036712788 0.002157607 -0.02659153 0.044375636 0.10439213
-0.049672015 0.09733317 0.017891154 0.05480963 0.061570123 0.0718934 -0.08849295 0.07813316
-0.07802226 0.06547932 -0.06741519 -0.038413055 -0.034244057 -0.018373394 -0.0288749 -0.07803124
-0.100298785 0.042878803 -0.052707415 0.017881326 -0.02966491 -0.0307147 -0.08817208 -0.027472511
-0.053407535 -0.008725959 -0.025212811 0.020979129 -0.016066346 0.048098054 -0.04007843 0.08316148
-0.03732852 -0.06775309 0.013921752 0.0059623523 0.08386354 0.042624295 -0.018513422 0.05770316
0.040029053 -0.081204206 -0.023627473 0.014362283 0.016955614 0.06307499 0.043637305 -0.07347741
-0.0061876443 -0.033052575 -0.10023235 -0.06511785 0.03746923 -0.029448735 0.08022262 -0.057804335
0.083353825 -0.018488795 0.014862255 0.03973897 0.056497563 -0.09289254 0.04664098 0.055550553
0.030996013 0.09353415 -0.040397268 -0.07294173 0.020341573 0.013652793 -0.0052424916 -0.05575431
0.055647664 -0.036335833 0.06142847 0.085937686 0.057375018 -0.0031007736 0.030730274 0.0016782666
-0.008521255 0.08198493 -0.062169153 0.069981135 0.032003414 0.079413906 0.051526118 0.0066390974
-0.026940802 -0.0037727114 0.04305243 0.07414105 -0.016509967 0.04179609 0.01484542 -0.0037259602
0.04815348 -0.06330118 -0.07885932 -0.054129876 0.05584695 0.060633406 0.04863428 0.024208134
0.051187612 -0.06846116 -0.09464808 -0.028424602 -0.07949983 0.04610214 0.024728144 0.034817357
0.038587056 -0.014866447 0.043205243 -0.10669746 0.07107288 0.09723036 0.025824647 0.04557598
-0.0359663 -0.034893055 0.026948866 -0.08525692 -0.066038385 0.069275334 -0.012137191 0.08835069
0.044223502 0.017510649 0.04794522 -0.0042595626 0.012086148 0.00094757107 0.00037278453 -0.07118114
0.08268389 0.060746297 0.07290749 -0.11184534 0.076397896 -0.050750192 0.019421438 -0.04150325
-0.08948191 -0.054776985 0.019051619 0.061160382 0.014281473 0.01260535 -0.04083502 -0.07766389
0.069452435 -0.055447243 0.063640215 -0.015368419 -0.014770203 -0.07337435 -0.014737269 -0.042145368
-0.09689517 0.005617857 0.08825156 -0.034118064 -0.028101943 -0.08668814 0.06647807 0.029538441
-0.05949519 0.022877213 0.055320587 0.0058237654 -0.07899116 -0.034700643 -0.0018423524 0.079884894
0.08629735 -0.10212341 0.07181078 0.059107076 0.08400993 -0.09776671 0.0052267434 0.019052524
-0.010152422 -0.062386442 0.057225227 -0.069950685 0.03565338 -0.066289194 0.071542464 0.035731267
0.03131567 -0.0541549 -0.009381536 -0.09327455 0.061747376 0.029362904 0.020116221 -0.05871101
0.08027596 -0.071894825 -0.055875175 0.07148357 0.07435811 -0.038346633 -0.023630211 -0.08874985
0.078069985 0.10084409 0.08163248 0.005965275 0.07845505 0.036523957 0.06148823 -0.046987023
0.017583529 0.01603496 0.04216127 -0.032693397 -0.021433277 -0.061081484 0.040249 -0.062008727
-0.08526467 0.011235927 0.018108107 0.07114516 -0.09419028 0.06318385 -0.055582676 0.0901853
0.015010001 -0.009451829 -0.054332078 -0.011398041 -0.052757002 -0.087254934 -0.0015144703 0.0408811
00000000: f7ed cabd 34b7 03bd a2d3 873d 3f14 8cbd
00000010: 5800 80bd 8a30 003c 9774 bebd 06e9 05bd
00000020: 193c c4bc 203b a93b 8dce 4bbd 2660 163d
00000030: a466 0d3b 7bd6 d9bc 3ac3 353d 8bcb d53d
00000040: e274 4bbd 9d56 c73d 7890 923c 1080 603d
00000050: f430 7c3d d93c 933d cb3b b5bd 4704 a03d
00000060: 22ca 9fbd 061a 863d fa10 8abd 0257 1dbd
00000070: 7f43 0cbd cd83 96bc 0e8b ecbc d8ce 9fbd
00000080: 7369 cdbd afa1 2f3d bbe3 57bd dc7b 923c
00000090: d303 f3bc 659d fbbc 9093 b4bd 080e e1bc
000000a0: dcc1 5abd 53f7 0ebc 198b cebc 6cdc ab3c
000000b0: 929d 83bc 7702 453d 4829 24bd 9150 aa3d
000000c0: cae5 18bd 22c2 8abd 0f18 643c d65f c33b
000000d0: a6c0 ab3d d096 2e3d 76a9 97bc 265a 6c3d
000000e0: 81f5 233d 644e a6bd 678e c1bc c84f 6b3c
000000f0: 80e6 8a3c 762d 813d 08bd 323d 537b 96bd
00000100: b9c1 cabb 2362 07bd 9e46 cdbd 825c 85bd
00000110: 5679 193d 793e f1bc c24b a43d 3dc4 6cbd
00000120: 69b5 aa3d d075 97bc d180 733c 55c5 223d
00000130: fd69 673d 723e bebd 9d0a 3f3d fa88 633d
00000140: 5aeb fd3c d58e bf3d 9b77 25bd 7962 95bd
00000150: 5fa3 a63c f7af 5f3c 35c9 abbb a25e 64bd
00000160: ceee 633d e2d4 14bd 6b9c 7b3d 1900 b03d
00000170: 1102 6b3d 5936 4bbb 0ebe fb3c 48f9 db3a
00000180: bc9c 0bbc b7e7 a73d 15a5 7ebd 4552 8f3d
00000190: 0316 033d c2a3 a23d 0d0d 533d c98c d93b
000001a0: f5b2 dcbc 983f 77bb bf57 303d 43d7 973d
000001b0: e93f 87bc 6032 2b3d 343a 733c 3d2f 74bb
000001c0: 953c 453d 0da4 81bd ff80 a1bd 4ab7 5dbd
000001d0: c5bf 643d bc5a 783d bd34 473d 2350 c63c
000001e0: 1aaa 513d 5d35 8cbd dad6 c1bd b6da e8bc
000001f0: cfd0 a2bd 99d5 3c3d ad92 ca3c a59c 0e3d
00000200: 760d 1e3d 6692 73bc fbf7 303d 3384 dabd
00000210: a88e 913d b620 c73d 368e d33c e1ad 3a3d
00000220: 6651 13bd 05ec 0ebd dec3 dc3c 2e9b aebd
00000230: 223f 87bd 3ae0 8d3d 12db 46bc 35f1 b43d
00000240: b423 353d 7e72 8f3c 3562 443d cd93 8bbb
00000250: fb04 463c 6b66 783a 4b72 c339 6bc7 91bd
00000260: 2c56 a93d 1cd1 783d 8650 953d 2b0f e5bd
00000270: 8076 9c3d 6fdf 4fbd b519 9f3c 50ff 29bd
00000280: 4b42 b7bd d55d 60bd 2412 9c3c 4f83 7a3d
00000290: d7fc 693c ac86 4e3c 9f42 27bd 3f0e 9fbd
000002a0: 143d 8e3d a61c 63bd cd55 823d d2cb 7bbc
000002b0: b9fe 71bc 4b45 96bd 9674 71bc 9fa0 2cbd
000002c0: fa70 c6bd 0016 b83b 3cbd b43d 62bf 0bbd
000002d0: 0c36 e6bc 8d89 b1bd a825 883d 9afa f13c
000002e0: 3ab1 73bd fe68 bb3c d797 623d 49d5 be3b
000002f0: 1ec6 a1bd 4322 0ebd 177b f1ba b19a a33d
00000300: aabc b03d 1426 d1bd 8811 933d 431a 723d
00000310: 660d ac3d ea39 c8bd 1a45 ab3b 0a14 9c3c
00000320: 5856 26bc ed88 7fbd 0065 6a3d 4e42 8fbd
00000330: 4709 123d a1c2 87bd db84 923d f35a 123d
00000340: dc44 003d 87d1 5dbd 04b5 19bc ba06 bfbd
00000350: d1ea 7c3d 798a f03c c6ca a43c f57a 70bd
00000360: b967 a43d 983d 93bd 5edd 64bd fa65 923d
00000370: 1149 983d 5c11 1dbd 2594 c1bc 7bc2 b5bd
00000380: 28e3 9f3d 5987 ce3d ee2e a73d 5b78 c33b
00000390: 0bad a03d 259a 153d 15db 7b3d 7775 40bd
000003a0: 550b 903c c05b 833c 4cb1 2c3d 83e9 05bd
000003b0: d794 afbc 9430 7abd 23dc 243d ddfc 7dbd
000003c0: 3e9f aebd e516 383c 7457 943c 8eb4 913d
000003d0: d5e6 c0bd 8966 813d a9aa 63bd 12b3 b83d
000003e0: 82ec 753c d8db 1abc 508b 5ebd d9be 3abc
000003f0: ba17 58bd b7b2 b2bd 3181 c6ba f172 273d

lin3.bias f4 [40]
-0.013834637 -0.003487264 0.034175664 -0.0014031436 0.015764149 -0.037368815 -0.004538112 0.041824948
-4.353078e-06 -0.0036265065 -0.043812294 -0.0058555505 2.3250355e-07 -0.007954122 0.001631676 0.012497256
6.867868e-07 -0.0014924805 0.015772939 -0.029090092 -0.0032068526 2.046673e-06 0.03942163 -0.03818786
0.025581695 0.024445884 0.035244968 -0.033652455 -3.909147e-05 0.012872165 -3.852069e-06 0.03022598
0.056302108 -0.0020670712 -0.041135725 0.029796464 0.04136963 -0.00013968763 0.042187873 -0.016987326
00000000: acaa 62bc 958a 64bb c8fb 0b3d b0e9 b7ba
00000010: d123 813c 0b10 19bd 71b4 94bb a350 2b3d
00000020: a810 92b6 afaa 6dbb 8574 33bd ebdf bfbb
00000030: 17a6 7934 0152 02bc f6dd d53a 4ac1 4c3c
00000040: a15b 3835 569f c3ba 4036 813c 584e eebc
00000050: 0f2a 52bb 9359 0936 9378 213d e06a 1cbd
00000060: b490 d13c bc42 c83c 075d 103d 28d7 09bd
00000070: 25f6 23b8 c6e5 523c 0541 81b6 799c f73c
00000080: 0a9d 663d b377 07bb ef7d 28bd b717 f43c
00000090: 3373 293d 1d79 12b9 31cd 2c3d 0129 8bbc

lin4.weight f4 [1, 40]
-0.021719962 0.0876779 0.1873354 0.061563846 0.09174815 0.022929953 0.12118053 0.0010780782
-0.12036244 0.084414124 0.14518069 -0.14185053 -0.07233285 -0.14099562 0.06701821 0.052666932
-0.034079093 -0.12489006 -0.08388881 0.07915892 0.044905778 0.15614751 -0.15179232 0.11203687
0.058155805 0.14602028 -0.12729643 0.15075749 -0.12771009 0.1514965 -0.11886873 -0.045303736
0.16187282 0.16569014 -0.10746501 0.13117296 0.13462678 0.19026078 0.13211909 -0.027076054
00000000: 10ee b1bc 7990 b33d dad4 3f3e 5f2a 7c3d
00000010: 74e6 bb3d 99d7 bb3c 7f2d f83d 4d4e 8d3a
00000020: 9580 f6bd 50e1 ac3d 3faa 143e 4441 11be
00000030: 3f23 94bd 2861 10be d840 893d 48b9 573d
00000040: 8596 0bbd 5cc6 ffbd e5cd abbd 121e a23d
00000050: 1fef 373d 22e5 1f3e 726f 1bbe 9673 e53d
00000060: c834 6e3d 5786 153e ff59 02be 2c60 1a3e
00000070: 6fc6 02be e621 1b3e 7371 f3bd 6990 39bd
00000080: fdc1 253e adaa 293e 9d16 dcbd 3452 063e
00000090: 9adb 093e b9d3 423e 3a4a 073e 9ace ddbc

bn1.weight f4 [180]
0.9976195 0.9894305 0.9918802 0.99206704 0.99335295 0.9963743 0.99463105 0.99502915
0.9950486 0.9888365 0.99294215 1.0061059 1.0073926 0.9928234 0.9910063 1.0069336
0.9915583 1.0129807 0.9998952 0.9943593 0.99527395 0.9951828 0.99929005 0.99039406
1.0038857 1.0124036 0.9973972 0.9866303 0.99334794 0.98206085 0.9865444 0.99149185
0.99303156 0.9982547 1.0025476 1.0065917 0.9974842 0.99663645 0.9906369 0.9891425
0.99694514 0.9903135 0.98517466 0.9986984 0.98971117 0.99786 0.99462014 0.99623144
0.9888535 1.0020385 0.9974008 1.0013772 1.0015404 0.9967948 0.98775935 0.9916246
0.9963309 0.98380005 1.010513 1.0007951 0.98993367 0.99839085 0.9917185 0.99969864
0.9854968 0.98841697 0.9958963 1.000793 0.9959598 1.0000962 0.99414206 1.0000265
1.0068189 1.0081005 1.0038333 1.0019665 1.0007037 0.9948576 0.995525 0.9873025
0.99994934 1.0035014 0.99017644 1.0053275 1.0031395 0.9946069 1.0095638 0.9943193
1.0037628 0.99901044 0.980577 0.998393 0.99723554 1.0019624 0.98713017 0.99524736
0.99228674 0.98785895 1.0169729 0.99500674 0.9898075 0.99253553 1.0008696 1.0077626
1.0016347 0.9881553 1.0060794 0.9972966 0.9963707 0.9934771 0.99541926 0.98840517
0.9989768 0.9966569 0.9955111 0.9861229 0.9971075 1.0098112 0.9953634 0.9981358
0.997082 0.9919834 0.98884517 1.0020566 0.9950993 1.0035187 0.998762 0.99321526
0.98618764 0.9912542 0.99030465 1.0032573 0.98477226 1.0107607 1.0040085 0.9924018
1.0020345 1.0027924 0.99693525 0.9879312 0.99924636 0.995276 0.99064195 0.99847424
0.9925105 0.9945199 0.98802596 1.0136284 0.98967475 1.0113702 0.9998828 1.0016663
1.0046395 0.9991445 0.9949625 0.98120165 0.99616605 0.9935435 1.0062858 0.9905587
1.012979 0.9995119 0.9882444 1.0008682 1.0014826 0.9920952 1.0012721 0.9925004
1.0056671 0.9926248 1.0016005 1.0045604 1.0002508 1.0044293 0.9918771 0.99294466
1.0046487 1.0163256 1.0079669 1.0100373
00000000: fe63 7f3f 514b 7d3f dceb 7d3f 1bf8 7d3f
00000010: 614c 7e3f 6312 7f3f 24a0 7e3f 3bba 7e3f
00000020: 81bb 7e3f 6424 7d3f 7531 7e3f 14c8 803f
00000030: 3ef2 803f ad29 7e3f 97b2 7d3f 33e3 803f
00000040: c4d6 7d3f 5aa9 813f 22f9 7f3f 558e 7e3f
00000050: 46ca 7e3f 4dc4 7e3f 79d1 7f3f 778a 7d3f
00000060: 547f 803f 7196 813f 6c55 7f3f ce93 7c3f
00000070: 0d4c 7e3f 5768 7b3f 2c8e 7c3f 69d2 7d3f
00000080: 5137 7e3f 9f8d 7f3f 7b53 803f ffd7 803f
00000090: 205b 7f3f 9123 7f3f 619a 7d3f 7138 7d3f
000000a0: cc37 7f3f 2f85 7d3f 6834 7c3f b3aa 7f3f
000000b0: b65d 7d3f c173 7f3f 6d9f 7e3f 0609 7f3f
000000c0: 8125 7d3f cc42 803f a955 7f3f 212d 803f
000000d0: 7a32 803f f22d 7f3f ccdd 7c3f 1cdb 7d3f
000000e0: 8b0f 7f3f 52da 7b3f 7d58 813f 0e1a 803f
000000f0: 4b6c 7d3f 8b96 7f3f 43e1 7d3f 40ec 7f3f
00000100: 8549 7c3f e508 7d3f 0ff3 7e3f fc19 803f
00000110: 39f7 7e3f 2703 803f 1880 7e3f de00 803f
00000120: 71df 803f 7009 813f 9c7d 803f 7040 803f
00000130: 0f17 803f fdae 7e3f bada 7e3f dbbf 7c3f
00000140: aefc 7f3f bc72 803f 347c 7d3f 92ae 803f
00000150: e066 803f 8f9e 7e3f 6339 813f b68b 7e3f
00000160: 4d7b 803f 26bf 7f3f 1807 7b3f af96 7f3f
00000170: d44a 7f3f 4e40 803f 90b4 7c3f 88c8 7e3f
00000180: 8106 7e3f 53e4 7c3f 2b2c 823f c3b8 7e3f
00000190: 0664 7d3f cf16 7e3f 7f1c 803f 5dfe 803f
000001a0: 9135 803f bff7 7c3f 36c7 803f d44e 7f3f
000001b0: 2612 7f3f 8454 7e3f ccd3 7e3f 1f08 7d3f
000001c0: f2bc 7f3f e824 7f3f d1d9 7e3f 8d72 7c3f
000001d0: 7042 7f3f 7e41 813f 23d0 7e3f d485 7f3f
000001e0: c440 7f3f a0f2 7d3f f524 7d3f 6443 803f
000001f0: d4be 7e3f 4d73 803f deae 7f3f 5b43 7e3f
00000200: cb76 7c3f d6c2 7d3f 9b84 7d3f bc6a 803f
00000210: 091a 7c3f 9b60 813f 5a83 803f 0b0e 7e3f
00000220: ab42 803f 805b 803f 2637 7f3f 0fe9 7c3f
00000230: 9cce 7f3f 68ca 7e3f b69a 7d3f 029c 7f3f
00000240: 2b15 7e3f db98 7e3f 45ef 7c3f 93be 813f
00000250: 535b 7d3f 9474 813f 52f8 7f3f 9a36 803f
00000260: 0798 803f efc7 7f3f ddb5 7e3f 0830 7b3f
00000270: bd04 7f3f de58 7e3f f9cd 803f 4195 7d3f
00000280: 4ca9 813f 03e0 7f3f 96fd 7c3f 731c 803f
00000290: 9530 803f f3f9 7d3f af29 803f 8214 7e3f
000002a0: b3b9 803f a91c 7e3f 7234 803f 6f95 803f
000002b0: 3808 803f 2491 803f a8eb 7d3f 9f31 7e3f
000002c0: 5498 803f f516 823f 0f05 813f e748 813f

bn1.bias f4 [180]
-0.0046149036 -0.008629732 -0.0066394983 -0.010071315 -0.010191875 -0.008648528 -0.0027367058 -0.006267432
-0.009593306 -0.007471728 -0.003531641 0.0052459133 -0.0038673996 -0.0022497005 0.0036435567 -0.00917838
-0.002043879 0.002974806 -0.0030200756 -0.008165563 -0.002374177 0.0011245236 0.0011424423 -0.006602421
-0.0012180939 0.00053375616 -0.0033100564 -0.008317399 -0.0034390863 -0.009935592 -0.009014606 -0.009829607
-0.008064398 -0.008135898 -0.004916036 -0.0057663303 -0.00855848 -0.009235911 -0.00633281 -0.013992945
0.0013642878 -0.011871093 -0.00860216 0.0027935554 -0.008839805 -0.0018761524 0.0008259103 -0.0013687646
-0.004963387 0.0010805804 0.0025964978 0.005591371 -0.008173279 -0.009463836 -0.009192335 -0.0067912075
0.0017928755 -0.012931453 -0.00892953 -0.0056096613 -0.0005329438 -0.0040445835 -0.005888585 0.004596102
-0.008719284 -0.012597387 -0.011149699 -0.01029108 -0.006580127 0.0022920899 -0.003634911 0.004674994
-0.0019923034 0.0020037694 0.008570395 -0.004798754 -0.008955158 -0.0039327005 -0.011413478 -0.0089937
-0.0009084832 -0.0024460808 -0.0069792713 0.0016461642 0.0030960746 0.0016769185 -0.005691222 -0.009401023
0.001867039 -0.008846998 -0.021044517 -0.009674274 -0.0048254905 -0.003083679 -0.011874156 0.005167754
0.0009421517 -0.015057974 0.008624385 0.006369992 -0.009263703 -0.008093828 0.00051411806 0.004175842
-0.0039612115 -0.004391408 0.0044493084 -0.011046744 -0.003180463 -0.012903417 -0.0028937457 -0.0037163298
-0.008263332 -0.011656082 -0.0036403004 -0.0074410033 -0.012416716 0.009636337 -0.00024744766 -0.0071979444
0.0018838876 -0.008104511 -0.0056185643 0.006596088 -0.003693224 -0.009205557 -0.0005471857 -0.00550034
-0.013073905 -0.0032932262 -0.009302008 0.007663216 -0.0055442792 -0.0065536746 -0.0102457255 -0.003667485
-0.013278782 -0.0018488988 -0.008285272 -0.0024660563 0.0027008692 0.0007091317 -0.007453111 -0.011125594
-0.006852651 0.00019192863 -0.0070135887 0.012074289 -0.0038644953 0.004072531 0.0017972989 0.0010586467
-0.005846871 0.00250397 -0.0027910117 -0.013066396 -0.0022115982 -0.004384983 0.00018922555 -0.0057171895
0.0049661994 -0.004140974 -0.0059257993 -0.010649625 -0.005644907 -0.002208965 -0.0005363775 -0.0003894961
0.0024476685 -0.005149874 0.0029969586 0.0030218142 -0.005023907 0.00777724 -0.008562964 -0.013927494
0.00228963 0.009930788 0.0017857527 -0.012446697
00000000: 9e38 97bb b863 0dbc 2690 d9bb 2802 25bc
00000010: d2fb 26bc 8eb2 0dbc 4e5a 33bb 085f cdbb
00000020: 3e2d 1dbc 66d5 f4bb 1b73 67bb e9e5 ab3b
00000030: 3374 7dbb b66f 13bb bdc8 6e3b ea60 16bc
00000040: 99f2 05bb f6f4 423b 76ec 45bb dbc8 05bc
00000050: 1598 1bbb c064 933a 01be 953a 1f59 d8bb
00000060: 73a8 9fba c5eb 0b3a 88ed 58bb b345 08bc
00000070: 4b62 61bb e5c8 22bc ffb1 13bc 5c0c 21bc
00000080: 8920 04bc 6e4c 05bc b316 a1bb 7cf3 bcbb
00000090: de38 0cbc 3852 17bc 7683 cfbb aa42 65bc
000000a0: e7d1 b23a f97e 42bc 13f0 0cbc 1514 373b
000000b0: d4d4 10bc 3ae9 f5ba e781 583a 1e68 b3ba
000000c0: e8a3 a2bb 43a2 8d3a 012a 2a3b d237 b73b
000000d0: 38e9 05bc 350e 1bbc 739b 16bc c788 debb
000000e0: ebfe ea3a 72de 53bc 2a4d 12bc 40d1 b7bb
000000f0: 41b5 0bba 6d88 84bb 08f5 c0bb e69a 963b
00000100: 54db 0ebc 4565 4ebc 3aad 36bc eb9b 28bc
00000110: 1b9e d7bb e336 163b b037 6ebb b130 993b
00000120: 4e91 02bb ac51 033b d86a 0c3c de3e 9dbb
00000130: a8b8 12bc e2dd 80bb 99ff 3abc 505a 13bc
00000140: 4727 6eba 6d4e 20bb 5fb2 e4bb 1bc4 d73a
00000150: 83e7 4a3b 0ccc db3a 6e7d babb c006 1abc
00000160: 6fb7 f43a 00f3 10bc 8d65 acbc d980 1ebc
00000170: 261f 9ebb 8c17 4abb d28b 42bc 4356 a93b
00000180: bbfa 763a b8b5 76bc 4b4d 0d3c 5ebb d03b
00000190: c9c6 17bc fa9b 04bc e1c5 063a 80d5 883b
000001a0: 0dcd 81bb cde5 8fbb 81cb 913b 67fd 34bc
000001b0: 516f 50bb db68 53bc ffa4 3dbb ab8d 73bb
000001c0: ed62 07bc 27f9 3ebc 1b92 6ebb a9d3 f3bb
000001d0: 7b6f 4bbc bae1 1d3c ddbb 81b9 bcdc ebbb
000001e0: c7ec f63a c8c8 04bc ef1b b8bb ff23 d83b
000001f0: 040a 72bb e8d2 16bc 0371 0fba 323c b4bb
00000200: ef33 56bc 2bd3 57bb 7367 18bc b71b fb3b
00000210: c9ac b5bb 35c0 d6bb b0dd 27bc 305a 70bb
00000220: 408f 59bc c056 f2ba f3be 07bc 8f9d 21bb
00000230: 1101 313b 06e5 393a 3a39 f4bb 2048 36bc
00000240: 348c e0bb 7340 4939 3fd2 e5bb 3dd3 453c
00000250: 7943 7dbb de72 853b 5893 eb3a 4ac2 8a3a
00000260: 1c97 bfbb a519 243b 68e9 36bb 7014 56bc
00000270: 76f0 10bb e7af 8fbb d96a 4639 4357 bbbb
00000280: 80bb a23b 02b1 87bb 352d c2bb c47b 2ebc
00000290: e9f8 b8bb 48c4 10bb af9b 0cba 4835 ccb9
000002a0: 1069 203b 46c0 a8bb 9f68 443b a109 463b
000002b0: 969f a4bb 38d8 fe3b ad4b 0cbc 2530 64bc
000002c0: 9e0d 163b beb4 223c eb0f ea3a 3bed 4bbc

bn1.running_mean f4 [180]
0.023663107 0.20404471 0.050702818 0.062003728 -0.34797162 -0.17534472 -0.1639462 0.15049744
0.003682347 0.05017947 0.049990583 -0.21509899 -0.034119315 -0.123936 0.074525304 -0.24004593
0.23119369 0.21765675 -0.07726185 0.16118276 -0.12929314 0.056287948 0.07847584 0.40277702
-0.03943418 0.40316108 0.21890329 0.0387949 -0.420025 0.12656331 -0.082932286 -0.20368062
-0.12132 -0.019124873 -0.023833137 0.17675622 0.010938175 -0.5952003 0.17677136 -0.061188173
0.12910038 -0.37938908 -0.2905391 0.28400677 -0.20004316 0.0066923667 -0.22118646 0.10204
-0.20906745 0.03337635 0.2582928 -0.13602883 0.071845494 0.21722667 0.20494941 -0.07597347
0.23066929 -0.019970113 0.08449702 0.007136847 0.22788611 -0.09804004 -0.2208531 -0.4857969
0.35830912 -0.1574687 0.42120284 -0.22800893 0.07591073 0.29540983 -0.043019302 0.10977591
-0.05154052 -0.1827839 0.22280496 -0.3501035 0.039893858 0.06911732 0.16898835 0.18863805
0.2199796 0.04225452 0.37353572 0.15207571 0.19714703 0.18552543 0.01514593 -0.14854068
0.08984474 0.33840835 -0.22814389 -0.030237924 -0.00401196 -0.31767184 0.0637692 -0.4978475
0.11578336 0.040332664 -0.23919088 -0.16734198 0.34413928 0.21188608 -0.11683523 0.149935
0.21415843 0.23490457 -0.28441456 0.10591803 0.0070255133 0.041823737 -0.26519787 0.15769753
0.10193832 -0.023288138 0.021351432 0.32727516 -0.06103011 -0.13903324 0.42270342 0.12561361
-0.21867338 -0.16203703 0.21167098 -0.25214666 -0.042382732 0.33296078 -0.09442356 -0.1380926
0.23496135 -0.24603608 0.3384456 -0.015381129 0.57169515 0.1813824 -0.14626166 0.38875827
-0.81350535 0.1269417 -0.20674334 -0.06907666 -0.34276417 0.15921257 -0.57766724 0.10814981
-0.062164366 -0.12131414 -0.08216615 0.07319589 0.22480066 0.0668049 0.4086009 -0.024355968
-0.1859202 0.5030495 -0.3646817 -0.040124234 -0.24782516 0.5347138 0.33186492 0.060460135
-0.058882385 0.0038181234 -0.14225069 -0.095993996 0.004282061 0.18555193 0.31173176 -0.048175946
-0.046574175 0.34845012 -0.14049019 -0.14225477 -0.04484127 0.23596983 0.060126614 0.05228088
0.28028953 0.12909049 0.33348578 -0.111090906
00000000: 22d9 c13c 19f1 503e c2ad 4f3d 9ff7 7d3d
00000010: 5629 b2be 918d 33be 83e1 27be 001c 1a3e
00000020: 8853 713b fd88 4d3d edc2 4c3d e942 5cbe
00000030: b2c0 0bbd 28d2 fdbd b9a0 983d 9ace 75be
00000040: 0abe 6c3e 69e1 5e3e 763b 9ebd 180d 253e
00000050: 6c65 04be 318e 663d f1b7 a03d ca38 ce3e
00000060: bc85 21bd 216b ce3e 2f28 603e 67e7 1e3d
00000070: 840d d7be d099 013e 67d8 a9bd a791 50be
00000080: 9f76 f8bd c4ab 9cbc b63d c3bc 95ff 343e
00000090: 0836 333c 0c5f 18bf 8d03 353e 73a0 7abd
000000a0: e432 043e 493f c2be 8ac1 94be 5669 913e
000000b0: 1dd8 4cbe a44b db3b b47e 62be 59fa d03d
000000c0: c715 56be a4b5 083d f43e 843e 244b 0bbe
000000d0: bb23 933d ab70 5e3e 42de 513e fb97 9bbd
000000e0: 9234 6c3e 5d98 a3bc c60c ad3d 36dc e93b
000000f0: fa5a 693e 37c9 c8bd 5127 62be 5fba f8be
00000100: 4b74 b73e 7a3f 21be e6a7 d73e 2c7b 69be
00000110: 1677 9b3d f53f 973e 0235 30bd 31d2 e03d
00000120: 271c 53bd b42b 3bbe fc26 643e c440 b3be
00000130: be67 233d 628d 8d3d 480b 2d3e 552a 413e
00000140: 5542 613e 1313 2d3d 1340 bf3e bcb9 1b3e
00000150: e9e0 493e 61fa 3d3e a326 783c 0c1b 18be
00000160: 8500 b83d dc43 ad3e 8d9e 69be 86b5 f7bc
00000170: c276 83bb e2a5 a2be 6d99 823d dee5 febe
00000180: d41f ed3d dd33 253d 74ee 74be b25b 2bbe
00000190: 0633 b03e aaf8 583e 4f47 efbd 9088 193e
000001a0: 594c 5b3e d38a 703e c99e 91be 8deb d83d
000001b0: 4736 e63b 5e4f 2b3d 04c8 87be 767b 213e
000001c0: 0ac5 d03d c4c6 bebc 33e9 ae3c 9c90 a73e
000001d0: b5fa 79bd bb5e 0ebe 956c d83e dba0 003e
000001e0: eaeb 5fbe 09ed 25be 47c0 583e 5e19 81be
000001f0: 8499 2dbd d679 aa3e 2461 c1bd 2668 0dbe
00000200: b599 703e e2f0 7bbe be48 ad3e 2201 7cbc
00000210: 9d5a 123f 4fbc 393e 9ec5 15be 530b c73e
00000220: e341 50bf 01fd 013e 87b4 53be 1078 8dbd
00000230: c97e afbe 9f08 233e 00e2 13bf a67d dd3d
00000240: 10a0 7ebd 8c73 f8bd ba46 a8bd bae7 953d
00000250: 2532 663e 02d1 883d 2334 d13e 2b86 c7bc
00000260: dd61 3ebe dac7 003f 8fb7 babe 4f59 24bd
00000270: e1c5 7dbe 01e3 083f 33ea a93e 0ca5 773d
00000280: a82e 71bd 7b39 7a3b 2aaa 11be 8098 c4bd
00000290: 8850 8c3b 5301 3e3e 4e9b 9f3e 2454 45bd
000002a0: 90c4 3ebd 0e68 b23e a9dc 0fbe 3cab 11be
000002b0: 7bab 37bd 13a2 713e 5347 763d 7a24 563d
000002c0: 1c82 8f3e 4c30 043e a6be aa3e a183 e3bd

bn1.running_var f4 [180]
0.05685072 0.048904326 0.05288966 0.02696106 0.056743927 0.057052724 0.050665334 0.034098763
0.03845119 0.034199744 0.05531263 0.042631775 0.031734265 0.036362156 0.033265337 0.047549997
0.059997704 0.039973333 0.06614368 0.054254647 0.029059127 0.03418254 0.045020483 0.051484972
0.042049106 0.08628965 0.044152744 0.031591494 0.050425984 0.048575196 0.055180177 0.056918796
0.0388744 0.062469523 0.039762616 0.053606544 0.034370303 0.105995975 0.034494072 0.037222583
0.05186097 0.07406957 0.06708524 0.048883103 0.040671423 0.033517092 0.04279656 0.039150808
0.040523395 0.023942746 0.045713596 0.036436908 0.037176963 0.036762107 0.054207157 0.036621917
0.047013316 0.04451797 0.059778757 0.039692923 0.054803677 0.06863697 0.037800103 0.082861096
0.06801146 0.048935693 0.060215436 0.054932047 0.054815084 0.053054 0.043116875 0.040011607
0.038341627 0.04561259 0.029898215 0.060452048 0.031369362 0.065308124 0.03913266 0.031844083
0.049967956 0.020423781 0.06610157 0.054818198 0.042678677 0.05945543 0.051322244 0.036787517
0.034779225 0.061309855 0.041057587 0.05375641 0.040729463 0.037721746 0.044376776 0.08920248
0.120025754 0.06797032 0.047981635 0.029053183 0.03512036 0.04852089 0.036271915 0.042895496
0.03982877 0.057829708 0.0575998 0.030669097 0.038588516 0.05192206 0.0585371 0.05739461
0.033606853 0.044846587 0.047875665 0.06884459 0.039819006 0.034087148 0.042449635 0.042522155
0.045840777 0.044722434 0.03830605 0.044562776 0.038373783 0.04885954 0.032818932 0.052572917
0.041679263 0.045106634 0.040906988 0.038987104 0.072518975 0.03684239 0.04587397 0.04386275
0.10190433 0.048987407 0.05223882 0.047262106 0.04734094 0.04363752 0.06427945 0.046714235
0.022437263 0.052846916 0.042889185 0.040198736 0.045106266 0.030192332 0.050863117 0.04051002
0.036719978 0.06260354 0.057050563 0.054769807 0.06366322 0.0499241 0.05138738 0.03612019
0.03356125 0.035766166 0.03225646 0.043046013 0.04023909 0.035263665 0.06996444 0.035595927
0.029425832 0.092867136 0.044650186 0.04065558 0.038499396 0.049151618 0.04276333 0.039493665
0.05730963 0.033868626 0.062478114 0.030164663
00000000: 4ddc 683d e74f 483d d4a2 583d 71dd dc3c
00000010: 526c 683d 1eb0 693d 7486 4f3d 25ab 0b3d
00000020: ff7e 1d3d 0815 0c3d 7f8f 623d a89e 2e3d
00000030: cafb 013d 7cf0 143d 3c41 083d c9c3 423d
00000040: 27c0 753d 14bb 233d 5676 873d 1f3a 5e3d
00000050: 680d ee3c fe02 0c3d 6667 383d e8e1 523d
00000060: af3b 2c3d a1b8 b03d 82d9 343d 1566 013d
00000070: 7a8b 4e3d c9f6 463d 9c04 623d af23 693d
00000080: c33a 1f3d 0be0 7f3d 20de 223d 8992 5b3d
00000090: e0c7 0c3d 6b14 d93d a849 0d3d b576 183d
000000a0: 2b6c 543d c9b1 973d fc63 893d a639 483d
000000b0: 1497 263d 3849 093d 724b 2f3d 995c 203d
000000c0: dcfb 253d 9423 c43c 2e3e 3b3d de3e 153d
000000d0: df46 183d dd93 163d 5308 5e3d dd00 163d
000000e0: 0991 403d 7a58 363d 92da 743d 0c95 223d
000000f0: d279 603d 8a91 8c3d 48d4 1a3d 14b3 a93d
00000100: 9849 8b3d cb70 483d 76a4 763d 6d00 613d
00000110: c885 603d 274f 593d 529b 303d 36e3 233d
00000120: 1c0c 1d3d 44d4 3a3d 1aed f43c 919c 773d
00000130: 297d 003d 44c0 853d 9149 203d f16e 023d
00000140: 33ab 4c3d c64f a73c 4360 873d 0c89 603d
00000150: d6cf 2e3d 8987 733d 4637 523d 82ae 163d
00000160: a974 0e3d 0b20 7b3d 002c 283d ae2f 5c3d
00000170: f0d3 263d 1e82 1a3d 6cc4 353d caaf b63d
00000180: 10d0 f53d 0634 8b3d 6488 443d f100 ee3c
00000190: 5eda 0f3d d7bd 463d dc91 143d 30b3 2f3d
000001a0: 7e23 233d d8de 6c3d c5ed 6b3d c23d fb3c
000001b0: fe0e 1e3d 3aac 543d 99c4 6f3d 9c16 6b3d
000001c0: 57a7 093d 0eb1 373d 4619 443d 64fe 8c3d
000001d0: 4119 233d f79e 0b3d abdf 2d3d b62b 2e3d
000001e0: 8ac3 3b3d df2e 373d cee6 1c3d 7587 363d
000001f0: d42d 1d3d f120 483d 256d 063d b356 573d
00000200: e0b7 2a3d bcc1 383d 168e 273d f1b0 1f3d
00000210: d484 943d 0ce8 163d 58e6 3b3d 6da9 333d
00000220: 38b3 d03d 05a7 483d 5ff8 553d e995 413d
00000230: 93e8 413d 42bd 323d f2a4 833d 6d57 3f3d
00000240: 5ace b73c 0276 583d 92ac 2f3d 6ea7 243d
00000250: 59c1 383d e955 f73c d855 503d d6ed 253d
00000260: b067 163d 4936 803d daad 693d 4e56 603d
00000270: dd61 823d 377d 4c3d 937b 523d c4f2 133d
00000280: 8577 093d 8b7f 123d 5a1f 043d 0451 303d
00000290: bed1 243d a270 103d 8449 8f3d 09cd 113d
000002a0: 710e f13c 2031 be3d 1de3 363d 7786 263d
000002b0: 8bb1 1d3d 3553 493d 9a28 2f3d 1cc4 213d
000002c0: 81bd 6a3d d4b9 0a3d 0de9 7f3d e21b f73c

bn2.weight f4 [96]
1.0126479 1.0002539 1.0018845 0.9802798 0.99071777 0.99131334 0.9882307 0.994981
1.0019008 0.9955415 1.000812 0.99296135 0.9929512 0.9969671 0.9825498 0.99465394
0.9898945 1.010167 1.0032508 0.9927367 0.991157 0.9891655 0.9965391 0.9953434
0.98921543 1.0076368 1.0071894 0.99820656 0.9970059 0.99003625 1.0081232 0.99412787
0.98781747 1.0054559 0.9928806 0.98747694 1.0089449 0.99229527 0.9962614 0.9885632
0.9903438 0.98986757 0.993041 1.0092388 0.97968256 0.98678106 0.9809628 0.9901428
0.98913234 0.99074465 0.99015224 0.99302214 1.0182772 0.983329 0.9993896 0.9835801
0.9915628 1.0004343 0.99570125 1.019893 1.0053498 0.99336594 0.9992914 0.99296397
0.991846 1.019388 1.0146683 1.0088043 1.012373 0.98993486 0.98516256 0.9917138
0.9913033 0.98681295 1.0005449 0.9908195 0.98939633 1.0096312 0.9995997 0.9907412
0.9871759 1.0071354 0.98445916 0.9939773 0.9872285 0.9962556 0.99083054 1.0107073
0.9880968 1.0172558 0.9872719 1.0173345 1.0108356 0.9901617 0.9912984 0.99708384
00000000: 729e 813f 5208 803f c03d 803f 9ef3 7a3f
00000010: ae9f 7d3f b6c6 7d3f b0fc 7c3f 13b7 7e3f
00000020: 493e 803f cfdb 7e3f 9c1a 803f b732 7e3f
00000030: 0d32 7e3f 3c39 7f3f 6288 7b3f a4a1 7e3f
00000040: ba69 7d3f 274d 813f 866a 803f fe23 7e3f
00000050: 77bc 7d3f f339 7d3f 301d 7f3f d3ce 7e3f
00000060: 393d 7d3f 3efa 803f 95eb 803f 778a 7f3f
00000070: c73b 7f3f 0473 7d3f 2e0a 813f 2a7f 7e3f
00000080: 9be1 7c3f c7b2 803f 6c2d 7e3f 4acb 7c3f
00000090: 1b25 813f 1007 7e3f fd0a 7f3f 7a12 7d3f
000000a0: 2c87 7d3f f667 7d3f ef37 7e3f bd2e 813f
000000b0: 7acc 7a3f af9d 7c3f 6120 7b3f 007a 7d3f
000000c0: c737 7d3f 71a1 7d3f 9e7a 7d3f b336 7e3f
000000d0: e856 823f 73bb 7b3f ffd7 7f3f e8cb 7b3f
000000e0: 0fd7 7d3f 3b0e 803f 47e6 7e3f db8b 823f
000000f0: 4daf 803f 3b4d 7e3f 90d1 7f3f e332 7e3f
00000100: 9fe9 7d3f 4e7b 823f a7e0 813f 8020 813f
00000110: 7095 813f 5f6c 7d3f 9d33 7c3f f5e0 7d3f
00000120: 0ec6 7d3f c69f 7c3f db11 803f 59a6 7d3f
00000130: 1449 7d3f 983b 813f c4e5 7f3f 37a1 7d3f
00000140: 8fb7 7c3f d0e9 803f 8405 7c3f 4c75 7e3f
00000150: 02bb 7c3f 9b0a 7f3f 12a7 7d3f db5e 813f
00000160: e9f3 7c3f 7035 823f dabd 7c3f 0438 823f
00000170: 1063 813f 3d7b 7d3f bbc5 7d3f e340 7f3f
