Proposed model/saved_best_DNN_model/0.39289model_fingerp6.pth (torch, 216672 bytes, 19 tensors)

lin1.weight f4 [180, 166]
0	0x391e07cd	0.0001507096
1	0x3d0532a5	0.032519
2	0xbcd5b39a	-0.026086617
3	0xbcc93376	-0.024560671
4	0x3c75ba06	0.014997965
5	0x3b170198	0.0023041721
6	0xbc95c856	-0.018284004
7	0xbd79efb5	-0.061019618
8	0xbd129219	-0.03578386
9	0xbcec1307	-0.028817667
10	0x3c8b2464	0.016985126
11	0xbc50bb1c	-0.012739923
12	0xbd5b1073	-0.053482484
13	0xbca9b056	-0.020713966
14	0x3c99deb1	0.018782945
15	0x3b77c524	0.0037806714
16	0x3cb78490	0.022402078
17	0x389a9ab3	7.372107e-05
18	0x3bf1ec11	0.0073828776
19	0x38d05867	9.934679e-05
20	0x3d5f0d9d	0.054456342
21	0xbd5da03c	-0.05410789
22	0xbd22c8c5	-0.03974225
23	0xbd6c58a0	-0.057701707
24	0x3cb9e9f9	0.022694575
25	0x3d9c2936	0.07625048
26	0x3d1e7bdc	0.03869234
27	0xbd953d1b	-0.072870456
28	0xbc9f833a	-0.019471753
29	0x3c1dc15f	0.009628623
30	0xbd418ba1	-0.0472523
31	0x3cf628fa	0.030048836
32	0xbd86dfc9	-0.065856524
33	0xbd8b2dcd	-0.06795845
34	0xbd506a74	-0.05088277
35	0xbd70b537	-0.05876657
36	0x3d26f053	0.040756535
37	0x3d8653f8	0.065589845
38	0xbd441493	-0.047871184
39	0xbcb0f88e	-0.021602895
40	0xbcd16a07	-0.025563253
41	0xbcd05479	-0.025430905
42	0xbd43c26f	-0.04779285
43	0xbc561fee	-0.013069136
44	0x3d8d2031	0.06890906
45	0x3bdccd31	0.006738328
46	0xbd9f1b7d	-0.07768915
47	0xbd708ec8	-0.058729917
48	0x3d5eb77e	0.05437421
49	0xbd9976a2	-0.074933305
50	0x3c970622	0.018435542
51	0x3c1a8dd4	0.0094332285
52	0x3d6fc113	0.05853374
53	0xbd2be064	-0.041962042
54	0xbd168f42	-0.036757715
55	0x3bef98e1	0.0073119258
56	0x3d2c500d	0.04206853
57	0x3d058f59	0.03260741
58	0x3d6be030	0.05758685
59	0xbd9c6d97	-0.0763809
60	0xbd91044a	-0.07080896
61	0xbce4ee6b	-0.027945718
62	0x3d84d4c3	0.064858936
63	0xbcf2edcd	-0.029654408
64	0x3d3b5237	0.045732703
65	0xbd3f0fcb	-0.04664592
66	0x3d8f4c35	0.06996957
67	0xbd0c0951	-0.034188572
68	0xbccb8ce6	-0.024847459
69	0x3d2304eb	0.039799612
70	0xbb93b2b7	-0.0045073885
71	0x3d050ecf	0.032484826
72	0x3d25d01c	0.04048167
73	0x3c2066fd	0.009790179
74	0x3d94eed5	0.07272116
75	0xba982255	-0.0011606911
76	0x3d683a3b	0.056696158
77	0x3cef59ec	0.029217683
78	0xbd3cfbc3	-0.046138536
79	0xbd822aac	-0.06355795
80	0xbd475659	-0.048666332
81	0xbad0eba5	-0.0015939368
82	0x3d0794fe	0.033101074
83	0x3d9ba1b7	0.07599204
84	0x3ce69c99	0.028150843
85	0xbcc35e4e	-0.023848679
86	0xbc8c50cd	-0.017128373
87	0xbd0d8233	-0.034547996
88	0xbc5b3c87	-0.01338113
89	0x3d7bf3d6	0.061511837
90	0x3d57b03b	0.0526583
91	0xbd4085e4	-0.047002688
92	0xbd2c3a9b	-0.042048078
93	0xbd0106a7	-0.031500485
94	0xbbc7ea0e	-0.0061008995
95	0xbc8b83cd	-0.017030621
96	0x3bfbb13a	0.007681039
97	0x3d888ead	0.06667838
98	0xbd468ea2	-0.04847587
99	0x3d087179	0.03331134
100	0xbc5ffc8e	-0.013671054
101	0xbd0b8d35	-0.034070212
102	0xbcd0cd16	-0.025488418
103	0xbd12c1e7	-0.03582945
104	0x3b510e49	0.0031899384
105	0x3d947c1a	0.07250233
106	0xbc9d251b	-0.019182732
107	0x3db48c73	0.08815851
108	0x3ad22187	0.001603172
109	0x3d6e94a0	0.05824721
110	0x3dac39f6	0.08409493
111	0x3cded4e9	0.027201133
112	0x3b2267b9	0.0024781062
113	0x3d61e5aa	0.055150665
114	0x3d3b1bf6	0.045680963
115	0xbd456c26	-0.04819884
116	0x3d83d750	0.06437552
117	0xbd000027	-0.031250145
118	0x3d0cba8f	0.034357604
119	0xbd5aa351	-0.053378407
120	0x3d0cc978	0.034371823
121	0x3d2cebee	0.042217188
122	0xbd671385	-0.0564151
123	0x3b1dc2fe	0.0024072523
124	0xbcbb0055	-0.022827307
125	0x3c1835fa	0.009290213
126	0xbd65f53a	-0.05614207
127	0xba33a6dd	-0.00068531727
128	0x3d56bfe4	0.052429095
129	0xbd21345c	-0.039356574
130	0xbd8632bb	-0.06552645
131	0xbcca6e68	-0.024710849
132	0xbd22f5a6	-0.03978505
133	0x3d589844	0.052879587
134	0xbcb2849e	-0.021791752
135	0xbd866902	-0.065629974
136	0xbce18455	-0.027528921
137	0x3d17512d	0.03694265
138	0xbd6a105b	-0.057144504
139	0xbd81619e	-0.06317447
140	0xbd041200	-0.03224373
141	0xbc41de10	-0.011832729
142	0x3da892b7	0.08231109
143	0xbd301599	-0.042989347
144	0xbd8c81e0	-0.06860709
145	0x3b388f67	0.0028161646
146	0x3c857321	0.01629025
147	0x3b7af04d	0.0038290203
148	0xbdb2781e	-0.08714317
149	0xbd396185	-0.045259017
150	0x3c6c176c	0.014409881
151	0xbd7d45cf	-0.061834153
152	0x3d224908	0.03962043
153	0x3d4d60e6	0.050141238
154	0x3d4a2749	0.04935387
155	0xbc14b998	-0.009077452
156	0xbc93fbea	-0.018064458
157	0x3d9e1cd1	0.0772034
158	0x3cbde1fe	0.02317905
159	0xbd7fbb44	-0.06243445
160	0xbbfb2dad	-0.007665357
161	0x3d10742d	0.035267044
162	0xbc878896	-0.016544621
163	0xbd273fe3	-0.04083241
164	0x3d69b367	0.057055857
165	0xbd46ab9d	-0.048503507
166	0xbca665e0	-0.02031225
167	0xbc5fe044	-0.013664309
168	0xbd5bb73b	-0.05364154
169	0x3cf5dca1	0.03001243
170	0x3c90d8ce	0.017681506
171	0x3c2a3f3c	0.010391053
172	0xbd06bb2a	-0.032893337
173	0x3d4ef855	0.050529797
174	0x3d45120c	0.048112914
175	0x3a719762	0.0009215978
176	0x3d972ece	0.07381974
177	0x3a6b9c51	0.00089878315
178	0xbd904174	-0.07043734
179	0x3b616659	0.003439328
180	0x3ba87140	0.0051404536
181	0x3d27ecea	0.040997423
182	0xbd729f7e	-0.059234135
183	0xbb3270a9	-0.0027227795
184	0xbd3b3074	-0.045700505
185	0xb3550e28	-4.9605802e-08
186	0x3d8b97fd	0.06816099
187	0x3c55939a	0.013035679
188	0xbb8b39bc	-0.004248826
189	0x3d8bba1c	0.06822607
190	0xbd241c97	-0.040066328
191	0x3ce51594	0.02796439
192	0x3d6ff6db	0.05858503
193	0x3b489b66	0.0030610203
194	0x3d65476a	0.05597631
195	0xbda1f4d8	-0.07908028
196	0xb9c276dd	-0.00037091124
197	0xbc89114e	-0.016731884
198	0x3c997c57	0.018736048
199	0x3c85297c	0.016255133
200	0xbcd691ef	-0.026192633
201	0xbd79937f	-0.06093168
202	0x3ab3086d	0.0013659127
203	0x3d0e786f	0.034782823
204	0xbc551a1c	-0.013006713
205	0x3d504baf	0.050853427
206	0x3d5c20f4	0.053742364
207	0x3d0fc5e3	0.03510083
208	0xbd851124	-0.0649741
209	0x3d0e0232	0.034670062
210	0xbd046a5f	-0.032328006
211	0x3d30adb9	0.043134425
212	0xbdb5d4db	-0.088784896
213	0xbd7116e9	-0.05885974
214	0xbcba1330	-0.022714227
215	0xbc0b8c27	-0.008517302
216	0x3d5f6139	0.054536078
217	0xbd6434e1	-0.05571449
218	0xbd58d653	-0.05293877
219	0x3cbffc89	0.023435848
220	0xbd619679	-0.055075143
221	0xbc6068fa	-0.013696903
222	0x3d54fb1c	0.05199729
223	0xbd14fe66	-0.036375426
224	0x3d3a338e	0.045459323
225	0x3c9b5317	0.018960519
226	0x3ca0caa1	0.019627871
227	0xbd7d2f68	-0.06181279
228	0xbd84c54c	-0.06482944
229	0xbce03e92	-0.027373586
230	0xbcb34ce6	-0.021887254
231	0x3b8e8d1f	0.004350319
232	0xbc8fbc9d	-0.017545993
233	0x3c93eb6f	0.0180566
234	0x3d14720b	0.036241572
235	0xbca068b2	-0.019581173
236	0x3b27581a	0.002553469
237	0x3c472b01	0.012156249
238	0x3d5a827e	0.053347103
239	0xbd942bda	-0.072349265
240	0x3d6ee00b	0.058319133
241	0x3d47f397	0.04881629
242	0x3d034774	0.032050565
243	0x3d226671	0.039648477
244	0x3d29e9cf	0.041482743
245	0xbd803f0a	-0.06262024
246	0xbccbff2e	-0.024901953
247	0x3d6552ec	0.055987284
248	0xbbc43993	-0.0059883087
249	0xbcc15a51	-0.023602637
250	0xbd2da166	-0.04239025
251	0xbd8b8cd2	-0.06813969
252	0x3d5df039	0.054184172
253	0x3c81989f	0.015819846
254	0x3d186627	0.037206795
255	0xbc0deb2f	-0.008662029

lin1.bias f4 [180]
0	0xbcab4171	-0.020905228
1	0xba3cd5e0	-0.0007203501
2	0xbc5370df	-0.012905329
3	0x3bb94f9d	0.0056552426
4	0xbb01c9ac	-0.0019804044
5	0x3c042bc3	0.008067074
6	0xb6adfcf2	-5.1852485e-06
7	0x3cf54935	0.029942134
8	0x336162ea	5.2476857e-08
9	0x3c0b50d4	0.008503158
10	0x361e891d	2.3623645e-06
11	0x3ce6d611	0.028178247
12	0xbcc7b92b	-0.024380287
13	0xb4055011	-1.2415718e-07
14	0xbc2261f5	-0.00991105
15	0xbcd2dc00	-0.02573967
16	0xbbd0e93d	-0.0063754604
17	0x395e7506	0.00021215164
18	0x3d0e27ef	0.034706052
19	0x3530e90d	6.590424e-07
20	0xba17f30a	-0.00057964085
21	0x3bf0b813	0.007346162
22	0xba57480f	-0.00082123367
23	0x3bcb7f5c	0.006210251
24	0x3642a7ce	2.9005928e-06
25	0xbba82927	-0.005131859
26	0xbb2311bb	-0.0024882394
27	0xb7b79f58	-2.18895e-05
28	0xb66fde72	-3.5743255e-06
29	0x354bbe1e	7.590005e-07
30	0xbcb58123	-0.022156304
31	0xbcc415c4	-0.02393616
32	0xbccbb434	-0.024866201
33	0x35d9250d	1.6178543e-06
34	0x37a5667d	1.9717258e-05
35	0xb651d9ea	-3.127027e-06
36	0x3d0c6c55	0.034283
37	0x3c710532	0.014710711
38	0xbc72089a	-0.014772559
39	0x38835ff8	6.264442e-05
40	0x37066a85	8.011823e-06
41	0x3ce5c308	0.0280471
42	0x369947ee	4.568129e-06
43	0x3bb41664	0.0054958332
44	0xbbf281dd	-0.007400735
45	0x3bf315e2	0.00741838
46	0xb667ea2e	-3.4557993e-06
47	0x3a8d6b84	0.0010789488
48	0xbc800c8b	-0.015630981
49	0xb6c6b9f8	-5.9225094e-06
50	0x3c3d102d	0.011539501
51	0x3c655c3d	0.013999042
52	0x399fc2c8	0.00030471967
53	0x36a62cdb	4.9524074e-06
54	0x3c97e849	0.01854338
55	0xbcc0c78e	-0.023532655
56	0x3ce38f44	0.027778275
57	0xbc3f13cf	-0.011662438
58	0x3c8a18f6	0.016857605
59	0x3c934b73	0.017980313
60	0xb62523da	-2.4607784e-06
61	0xb56b33dc	-8.761979e-07
62	0x3c59bfc4	0.013290349
63	0xbc0c6d96	-0.008571049
64	0xba2cb6b9	-0.0006588507
65	0xbbfeb563	-0.007773088
66	0x3885ad6d	6.374237e-05
67	0x3745d820	1.17924355e-05
68	0xbce5ed34	-0.028067209
69	0x3b287905	0.00257069
70	0x3786eaa1	1.6083302e-05
71	0xbc26ceab	-0.010181109
72	0x3c1687bd	0.009187636
73	0x3c150f4e	0.009097887
74	0x3a97db35	0.0011585715
75	0x3c78ce0a	0.015185842
76	0xbc0dc42c	-0.008652728
77	0x3c2da754	0.010598976
78	0xbc970236	-0.018433671
79	0x3617725e	2.2567324e-06
80	0xbd047190	-0.032334864
81	0xbc185df4	-0.009299744
82	0xbd0995cc	-0.033590123
83	0xbc58b011	-0.013225571
84	0x3cc3cd26	0.023901533
85	0xb4f75a3a	-4.6072984e-07
86	0xb835085e	-4.3161555e-05
87	0xbcbaeacf	-0.022817044
88	0xb9aa7cb3	-0.00032517835
89	0xbcd0123d	-0.025399322
90	0x3c7fd2de	0.0156142395
91	0x3ced3fca	0.028961081
92	0x390f56a4	0.00013669819
93	0xbc32f10a	-0.010921726
94	0x3c791bb2	0.015204357
95	0xbbd143b0	-0.006386243
96	0x3bad9c2e	0.005298159
97	0x3d06ba90	0.032892764
98	0xbc5cbf48	-0.013473339
99	0x36062cd4	1.999365e-06
100	0x39698de6	0.00022273473
101	0xb833b267	-4.2843076e-05
102	0x3a20029a	0.0006103903
103	0x3acfb17b	0.001584574
104	0xbccd8540	-0.025087953
105	0x3c07583a	0.008260781
106	0xbc60d020	-0.013721496
107	0xb5e0dae8	-1.6753011e-06
108	0xb660d3b0	-3.350182e-06
109	0x3c9cb403	0.019128805
110	0x35926d37	1.0909633e-06
111	0xbb28ddda	-0.0025767
112	0x390fdaeb	0.00013719096
113	0xbc1d8858	-0.009615026
114	0x36798534	3.7181426e-06
115	0xbac7f9d7	-0.0015256953
116	0x3c5dbd29	0.013533869
117	0x3d0064e5	0.03134622
118	0x3c6c616b	0.014427523
119	0x3c7b877b	0.015352125
120	0x3982b4d6	0.00024930265
121	0x3cbc51b7	0.022988183
122	0x3b445f3d	0.0029963993
123	0x3cd5f267	0.026116563
124	0x3cef05a6	0.029177498
125	0xb90f8f43	-0.00013690912
126	0xb4462103	-1.8452197e-07
127	0x3aba2b47	0.0014203571
128	0xbc9d1cb0	-0.019178718
129	0x37fdb00e	3.0241932e-05
130	0x3d0c91b2	0.034318633
131	0x3cd0f52d	0.025507534
132	0xb85daca9	-5.285131e-05
133	0xbc5fe6bb	-0.01366585
134	0xbd099d1c	-0.033597097
135	0xb49e8f00	-2.953384e-07
136	0x3c8c0fea	0.017097432
137	0xbcbb8611	-0.022891076
138	0xb91f042a	-0.00015164973
139	0xbcda7a7f	-0.026669739
140	0x364bda6b	3.0376493e-06
141	0xbc8c8a53	-0.017155802
142	0xb736e8b9	-1.090223e-05
143	0xbc6de673	-0.014520275
144	0x3cf205e6	0.029543828
145	0xb59f722a	-1.1879649e-06
146	0x3658f553	3.2329306e-06
147	0xb623437a	-2.432817e-06
148	0xbc168bec	-0.009188633
149	0x3c3e39a2	0.01161042
150	0x3a7aa605	0.0009561482
151	0x34a6bff8	3.1059585e-07
152	0xbbf1ff80	-0.0073851943
153	0xbc236858	-0.009973608
154	0x360f6f66	2.1373503e-06
155	0x3c1f9f8f	0.009742632
156	0xbacec4d3	-0.0015775211
157	0x3b4e4b02	0.0031477814
158	0x3b2c476d	0.002628769
159	0x3cfe7724	0.03106267
160	0xba44bfcf	-0.00075053883
161	0xbb1721f5	-0.0023061011
162	0xba2b9eed	-0.0006546814
163	0xbc89343c	-0.01674854
164	0x3d0f47bd	0.034980524
165	0xb51c2c0c	-5.8178625e-07
166	0xbc135723	-0.008992943
167	0xb969594f	-0.00022253882
168	0xb9e439d1	-0.00043530625
169	0xbbc4187c	-0.005984364
170	0x3c231a35	0.009954979
171	0x3b579663	0.0032896034
172	0xbd00d20e	-0.031450324
173	0x3c867760	0.016414344
174	0xbbddfb9b	-0.0067743785
175	0x3c68151c	0.014165189
176	0xbad916e5	-0.0016562609
177	0xbc50ec2d	-0.012751621
178	0x3c928dd6	0.017889898
179	0xb8bd0ef2	-9.015006e-05

lin2.weight f4 [96, 180]
0	0xbd813b4a	-0.063101366
1	0x3c6872b6	0.0141875055
2	0xbd8a109f	-0.067414515
3	0xbd08876e	-0.03333228
4	0xbce6fdb1	-0.028197141
5	0x3d10fb57	0.035395946
6	0xbcd4a1e4	-0.025956102
7	0xbc399d0b	-0.011328946
8	0x3ce18231	0.0275279
9	0x3d39838f	0.04529148
10	0xbd970348	-0.07373673
11	0xbd510203	-0.05102731
12	0xbd7b73cd	-0.061389733
13	0x3d0ed017	0.03486642
14	0x3d846e2d	0.06466327
15	0x3d4022d2	0.046908207
16	0xbd97eba5	-0.074179925
17	0xbce509cc	-0.027958773
18	0xbc84c38d	-0.016206527
19	0x3d4a53d8	0.049396366
20	0xbc2949b0	-0.01033251
21	0xbd4f258c	-0.050572917
22	0xbcd63b3f	-0.026151298
23	0x3c916f87	0.017753376
24	0xbd68d4c9	-0.056843553
25	0xbd80e28a	-0.06293209
26	0x3cf29f53	0.029616987
27	0xbd76ab98	-0.06022224
28	0xbd56a037	-0.052398887
29	0x3cdd3cc9	0.027006524
30	0xbb238f30	-0.0024957173
31	0xbc5f0b97	-0.013613603
32	0xbc5aa4ea	-0.013344983
33	0x3d8103ef	0.062995784
34	0xbd300d23	-0.04298128
35	0xbd7d5697	-0.061850157
36	0xbd2bfefb	-0.041991215
37	0xbc8bbf68	-0.017059043
38	0xbd8b09d0	-0.06788981
39	0xbd81cae1	-0.06337524
40	0x3cdc6ff3	0.02690885
41	0x3d176fd4	0.036971882
42	0xb98cf86c	-0.0002688797
43	0x3d7c426b	0.06158678
44	0xbcc20b55	-0.023687044
45	0x3d851061	0.06497265
46	0xbb1c55c9	-0.0023854843
47	0xbd36c9f4	-0.04462619
48	0xbd1fedec	-0.03904526
49	0x3d4dab65	0.050212283
50	0xbd15de9f	-0.03658926
51	0xbd421751	-0.047385518
52	0xbd819385	-0.06326965
53	0x3da8498f	0.08217155
54	0xbc82f3cd	-0.015985394
55	0x3d3209c7	0.043466356
56	0xbd452335	-0.04812928
57	0xbbc74be8	-0.006082047
58	0x3cad6b72	0.021169398
59	0x3bd58200	0.0065157413
60	0x3d8de03b	0.06927534
61	0x3d43b019	0.04777536
62	0x3ba3bb67	0.0049967053
63	0x3b81465b	0.0039451546
64	0xba79f304	-0.00095348083
65	0xbc9c8ad5	-0.019109169
66	0xbd8f7bae	-0.07006012
67	0x3c89c226	0.01681621
68	0x3d66d83a	0.056358553
69	0xbd7ef142	-0.0622418
70	0xbcfe3ee5	-0.03103585
71	0xbd96bfaa	-0.07360776
72	0xbcb0524a	-0.021523613
73	0xbd84b540	-0.06479883
74	0xbd4c307d	-0.04985093
75	0xbba05978	-0.004893478
76	0xbcf29d08	-0.029615894
77	0xbbdd84f7	-0.0067602354
78	0x3d84c2e8	0.06482488
79	0x3d1fb0b7	0.038986888
80	0x3ca86725	0.020556996
81	0x3ce2f9b0	0.02770695
82	0xbc820364	-0.015870757
83	0x3cea0851	0.028568419
84	0xbd68c13e	-0.056824915
85	0xbd281460	-0.041035056
86	0xbcc6511f	-0.024208603
87	0x3c3f8ad8	0.011690818
88	0x3cff7b93	0.031186854
89	0xbd549acb	-0.051905435
90	0x3c6b4752	0.014360266
91	0x3d9031b5	0.07040731
92	0x3d56de8c	0.05245833
93	0xbcac91dd	-0.021065647
94	0x3d7b3a56	0.06133493
95	0xbcca7ba2	-0.024717156
96	0x3d99e6eb	0.07514747
97	0xbd580412	-0.052738257
98	0xbd6cd937	-0.05782434
99	0xbd98bf2e	-0.0745834
100	0x3d9915b8	0.07474846
101	0xbd53441a	-0.05157862
102	0xbccdeaf5	-0.02513645
103	0x3c3ad45e	0.011403171
104	0x3cd79a6d	0.026318753
105	0xb9e2af19	-0.00043236537
106	0xbc465426	-0.0121050235
107	0x3d4f2dd9	0.050580833
108	0xbd1c36d8	-0.03813824
109	0x3d6ebd03	0.058285724
110	0x3cc29531	0.02375278
111	0xbd7c0ddb	-0.06153665
112	0xbcd2c7e7	-0.025730086
113	0xbc4ff0ef	-0.01269172
114	0xbc520aee	-0.012819989
115	0x3d80ad63	0.06283071
116	0x3b68decb	0.0035533186
117	0x3b575fb8	0.003286345
118	0x3d18a667	0.03726807
119	0x3d565c78	0.05233428
120	0x3d3f5ac3	0.046717416
121	0xbd4629b0	-0.0483796
122	0xbd8106cf	-0.06300127
123	0xbd7a11c8	-0.061052114
124	0xbd81ca49	-0.06337411
125	0xbc6a7586	-0.014310246
126	0xb9b05c3b	-0.00033638053
127	0xbca99eb0	-0.02070555
128	0x3d15fe36	0.036619388
129	0x3d25dd37	0.04049417
130	0x3d6e357f	0.058156487
131	0x3d8524a9	0.06501133
132	0xbc879645	-0.016551146
133	0x3cf09770	0.029369086
134	0x3c0b9112	0.008518474
135	0xbd880927	-0.06642371
136	0xbd56c178	-0.0524306
137	0xbd23e4d9	-0.040013168
138	0x3ce34793	0.02774409
139	0x3cf2b164	0.029625602
140	0x3cf32baf	0.029683916
141	0xbcd7c34a	-0.026338238
142	0x3b847e9e	0.0040434143
143	0x3d801638	0.06254238
144	0xbcf28701	-0.02960539
145	0xbcc7c3d4	-0.02438537
146	0x3ab76a9e	0.0013993566
147	0xbd4fa6a9	-0.05069605
148	0x3d46cfdc	0.048538074
149	0x3c711cfc	0.014716383
150	0x3cc20b13	0.023686921
151	0x3ca7680b	0.020435354
152	0x3d5ff2db	0.054674964
153	0xbbf48641	-0.0074622934
154	0x3d1810ca	0.037125386
155	0xbd810cc8	-0.06301266
156	0xbd81f98f	-0.06346428
157	0xbd1b34ef	-0.03789228
158	0x3b97baf8	0.0046304427
159	0xbceacf79	-0.028663384
160	0xbd4bc445	-0.049747724
161	0x3ce7a9bd	0.02827918
162	0x3d4afad2	0.049555607
163	0xbbb873d3	-0.0056290417
164	0x3cf5cd78	0.030005202
165	0x3d0b5dea	0.03402511
166	0x3cab442f	0.020906536
167	0x3c64b970	0.013960227
168	0xbd4aa74f	-0.049475964
169	0xbc5fbb74	-0.013655532
170	0xbd89fdb9	-0.06737847
171	0xbd5d6124	-0.05404772
172	0xbd87eeed	-0.06637368
173	0xbbe3d34e	-0.0069526797
174	0xbd63f8b0	-0.05565709
175	0x3c44113d	0.011967001
176	0xbd910124	-0.07080296
177	0x3d01eb38	0.031718463
178	0x3d765401	0.060138706
179	0xbc3a7b9f	-0.011382013
180	0xbd0b0d92	-0.03394849
181	0x3d22c1a6	0.03973546
182	0x3d91f0ef	0.071260326
183	0xbd98babc	-0.07457492
184	0xbd94ae84	-0.07259849
185	0xbd26fb6f	-0.04076713
186	0x3d86f388	0.06589419
187	0xbd290623	-0.041265618
188	0x3ce841b0	0.028351635
189	0x3bae6bd8	0.0053229146
190	0x3cda1650	0.026621968
191	0xbc8b4e4e	-0.017005112
192	0x3d338c61	0.043835048
193	0x3d5504ec	0.052006647
194	0xbd8e05a9	-0.06934673
195	0xbcca5b73	-0.02470181
196	0xbca6e3e0	-0.020372331
197	0xbd761513	-0.06007869
198	0xbc6c5166	-0.014423704
199	0x3d4402b4	0.04785414
200	0x3d493800	0.04912567
201	0x3d2c08bb	0.042000514
202	0x3d434cb5	0.047680575
203	0x3b82c59d	0.0039908425
204	0xbc39c648	-0.011338778
205	0xbd146225	-0.03622641
206	0x3d6198e8	0.055077463
207	0xbd1e8dac	-0.038709328
208	0xbd3d1e10	-0.046171248
209	0xbd036c5b	-0.032085758
210	0x3d27269b	0.0408083
211	0xbcbeffc5	-0.02331532
212	0x3c1f79a7	0.009733594
213	0xbcd27878	-0.02569221
214	0x3cc2c71c	0.023776583
215	0xbce14feb	-0.027503928
216	0xbc60a074	-0.01371013
217	0x3d035c1e	0.03207027
218	0xbcffe81d	-0.03123861
219	0x3c996775	0.01872609
220	0x3d659c1a	0.056057073
221	0x3d32fa6d	0.043695856
222	0x3d192b6a	0.03739492
223	0xbc18080b	-0.009279261
224	0x3d56a8f0	0.052407205
225	0xbced09dc	-0.028935365
226	0xbcb8b22f	-0.022545902
227	0xbca63ab8	-0.020291671
228	0x3c53438c	0.012894522
229	0x3d48c852	0.049019165
230	0x3d60f710	0.054923117
231	0xbc11fdbd	-0.008910594
232	0x3d8c72e6	0.06857853
233	0x3d8717fa	0.0659637
234	0xbd310f93	-0.043227743
235	0x3c12726b	0.008938412
236	0x3d5f3dfd	0.054502476
237	0xbcfa2c3b	-0.030538669
238	0x3b828e86	0.0039842753
239	0xbd34e517	-0.04416379
240	0x3d2fff81	0.042968277
241	0xbd959dbe	-0.073054776
242	0xbd6e3245	-0.05815341
243	0x3c9a946d	0.018869603
244	0x3cbf6407	0.023363126
245	0x3b562c15	0.0032680084
246	0xbd9e19c8	-0.07719761
247	0xbd9d990b	-0.07695206
248	0x3c276109	0.010216006
249	0xbb45997a	-0.0030151294
250	0xbcca41aa	-0.024689514
251	0x3ce287c9	0.027652638
252	0x3da24f38	0.07925266
253	0xbc7696c5	-0.015050595
254	0x3d69bcc7	0.057064798
255	0x3d855792	0.06510843

lin2.bias f4 [96]
0	0x39692ef8	0.00022238109
1	0x3cd5a990	0.02608183
2	0x3bcc7499	0.0062394855
3	0xbccb85b3	-0.024844026
4	0x3b805cf9	0.003917333
5	0xb4a0e627	-2.996978e-07
6	0x3ba11c95	0.0049167373
7	0x361c9108	2.333023e-06
8	0x3c7618d3	0.015020567
9	0x3a7d2568	0.0009656758
10	0x3cedb226	0.029015612
11	0xbcb69f1b	-0.022292664
12	0x35495a38	7.500962e-07
13	0xbcc15365	-0.023599336
14	0xb800e73e	-3.073294e-05
15	0xbb4a4f90	-0.0030870177
16	0xbc2db68c	-0.010602605
17	0xb46bcd2b	-2.196072e-07
18	0x349728ab	2.8155532e-07
19	0x39e77a1b	0.0004415073
20	0x36326bd6	2.6586836e-06
21	0x3625eec7	2.4725903e-06
22	0x35c28f12	1.4495765e-06
23	0xbb4fb804	-0.0031695375
24	0x3a6d3a12	0.00090494857
25	0x3cffefce	0.031242277
26	0x3b903eab	0.004402002
27	0x3be35faf	0.0069388966
28	0xb514471d	-5.523778e-07
29	0xbc5425e9	-0.012948492
30	0x3c4edb10	0.012625471
31	0x3cb9d33a	0.022683728
32	0xbc8ec88d	-0.017429614
33	0x35493b57	7.4964686e-07
34	0xbc153388	-0.009106524
35	0xbb0213a2	-0.0019848128
36	0xbc4461bd	-0.011986193
37	0x39156279	0.00014246431
38	0xbc7fa6db	-0.015603746
39	0x3c9bd477	0.01902221
40	0x3cd057b4	0.025432445
41	0x365357c2	3.1492532e-06
42	0xbce63b58	-0.02810447
43	0x33ef9c93	1.11577855e-07
44	0x3ba13181	0.0049192314
45	0x3cc4135f	0.023935018
46	0xbc68b44d	-0.014203143
47	0x3c419a6f	0.011816605
48	0xbc9ed0dc	-0.019386701
49	0x3c3e941f	0.0116319945
50	0xbd0252db	-0.0318173
51	0x3bfc877a	0.0077065798
52	0x3bfa205c	0.007633252
53	0x358881c3	1.0170555e-06
54	0xb4e6e263	-4.3005556e-07
55	0xba010077	-0.0004921029
56	0xbbb18c81	-0.0054183607
57	0x3c16a16a	0.009193758
58	0xbd0359ad	-0.032067943
59	0x3cf19057	0.029487772
60	0x3b754c0a	0.0037429356
61	0xbcb697f6	-0.022289257
62	0x3c9eb980	0.019375563
63	0xbcc1126f	-0.02356836
64	0x3c8948f9	0.016758429
65	0x3753210a	1.2584273e-05
66	0xb393eed0	-6.888661e-08
67	0x3c1a00a5	0.009399568
68	0x34dfdf45	4.1699437e-07
69	0x3985569d	0.0002543227
70	0x3ce2f196	0.027703088
71	0x3cd505d7	0.026003761
72	0xbc120d18	-0.008914255
73	0xb4a60753	-3.0925239e-07
74	0xbb990339	-0.0046695736
75	0xbadf0373	-0.0017014578
76	0xba80e243	-0.0009833056
77	0xbbd58505	-0.0065161013
78	0x3c259b4f	0.010107829
79	0x38ad9d80	8.2786195e-05
80	0xbb6688d8	-0.003517678
81	0x35bca47c	1.4054963e-06
82	0xbca2e46e	-0.019884314
83	0x3824f6fb	3.9330665e-05
84	0xbb681435	-0.0035412435
85	0xb5a87336	-1.2550506e-06
86	0xbbebf358	-0.0072006397
87	0x3a1fd9a9	0.00060978025
88	0x3c8af71a	0.01696353
89	0x3c3257df	0.010885208
90	0x3c935029	0.01798256
91	0xb5ce6200	-1.5376718e-06
92	0xb72ad52d	-1.01824235e-05
93	0x3bcb6e77	0.006208237
94	0xba270e36	-0.0006372662
95	0x3939921f	0.00017697409

lin3.weight f4 [40, 96]
0	0xbc561cc7	-0.0130683845
1	0xbddf664b	-0.10908183
2	0x3d06f33e	0.032946818
3	0x3cbd2de8	0.023093179
4	0xbb3d9674	-0.0028928788
5	0xbbe1daae	-0.0068925237
6	0xbac64e25	-0.001512949
7	0xbd9329c5	-0.07185701
8	0x3dce90d6	0.10086219
9	0x3d9841e0	0.0743444
10	0xbd26b936	-0.040703975
11	0x3d0e1f4a	0.03469781
12	0xbd2570b2	-0.040390678
13	0x3d702277	0.05862662
14	0x3d4a8f4f	0.049453076
15	0x3d012126	0.031525753
16	0xbdab62e6	-0.08368473
17	0xbd80ba64	-0.06285551
18	0xbc15ab18	-0.00913503
19	0xbd40c7f6	-0.047065698
20	0xbcbdf39f	-0.023187457
21	0xbc4f13cf	-0.012639
22	0xbd1eebd3	-0.03879912
23	0x3d9d27ba	0.07673593
24	0x3d5333d9	0.051563118
25	0x3d33606f	0.043793138
26	0xbd69805b	-0.057007175
27	0xbda2f9cd	-0.07957802
28	0x3db8eb4d	0.09029255
29	0xbd02c56b	-0.031926554
30	0xbd5e44e6	-0.054264925
31	0x3d763569	0.06010953
32	0x3d9537c1	0.07286025
33	0xbca0a6c3	-0.019610768
34	0xbd4f95ee	-0.050680093
35	0xbd5c9239	-0.053850386
36	0xbd258256	-0.0404075
37	0x3d6beb11	0.057597224
38	0x3cd40e74	0.025885798
39	0xbd48e4b9	-0.049046252
40	0xbdaadf2e	-0.083433494
41	0xbcdf384f	-0.02724853
42	0x3d9f5d6b	0.0778149
43	0xbd91c018	-0.07116717
44	0xbdb7df35	-0.0897812
45	0x3db7293b	0.08943411
46	0xbd8a968b	-0.06766995
47	0x3887467c	6.4504304e-05
48	0x3d8c9c50	0.06865752
49	0x3dc9e5c4	0.098582774
50	0xbdcb313e	-0.099215016
51	0x3d941cf9	0.072320886
52	0xbc691d11	-0.014228121
53	0xbb7127ff	-0.0036797521
54	0x3d8772d7	0.06613701
55	0x3dbd6aa9	0.092488594
56	0x3cf4115b	0.029793432
57	0x3d62ff04	0.055418983
58	0x3ddfef66	0.109343335
59	0x3d11534a	0.03547982
60	0xbc2c0f8f	-0.010501756
61	0x3b09f860	0.0021052584
62	0x3c54a69e	0.012979178
63	0xbd1952bb	-0.037432414
64	0x3d52b107	0.051438358
65	0xbcb7cf64	-0.022437759
66	0xbcb23b6e	-0.021756854
67	0x3d15af70	0.036544263
68	0x3daf279f	0.08552479
69	0x3d2874df	0.041127082
70	0xbdddb3fe	-0.108253464
71	0x3d8ee086	0.06976418
72	0xbdd86b15	-0.10567299
73	0x3ce6be6f	0.028166978
74	0xbda608af	-0.08107125
75	0x3d0cd005	0.03437807
76	0x3d10b130	0.03532523
77	0x3dd6a9ef	0.10481631
78	0xbdddd6b9	-0.10831971
79	0x3d27fb75	0.041011292
80	0x3b9ce382	0.004787863
81	0x3d17b692	0.037039347
82	0xbc8cd9cf	-0.017193703
83	0xbd140481	-0.036137108
84	0xbc61cb00	-0.013781309
85	0xbd432367	-0.047641184
86	0x3dabc1c0	0.08386564
87	0x3d95d482	0.07315923
88	0x3d7b1ccd	0.061306763
89	0x3ced24a4	0.028948136
90	0x3db742e7	0.089483075
91	0xba88fb68	-0.0010450901
92	0xbc869ca6	-0.016432118
93	0x3dd54fab	0.10415586
94	0x3c87dd53	0.016585028
95	0x3d7ed3b8	0.06221363
96	0xbd9b7cc5	-0.07592157
97	0x3d8307a9	0.063979454
98	0x3d74d7e6	0.05977621
99	0xbd080a84	-0.033213153
100	0xbcd8186c	-0.026378833
101	0xbd8a9342	-0.067663684
102	0x3d814143	0.06311276
103	0xbd1222b6	-0.035677634
104	0xbdbf4f71	-0.09341324
105	0x3d5731d5	0.052537758
106	0x3d93357d	0.071879365
107	0xbdd5f2c0	-0.104466915
108	0x3d524b16	0.05134114
109	0x3dc7585c	0.0973365
110	0xbd18a33d	-0.03726505
111	0xbd82f044	-0.06393483
112	0x3d7ccf90	0.061721385
113	0x3bcdcced	0.0062805326
114	0xbda16a13	-0.0788156
115	0x3d545a06	0.051843666
116	0x3bffda3c	0.007807998
117	0xbd990b96	-0.07472913
118	0x39a0fd09	0.00030706104
119	0x3cebf18e	0.028801706
120	0xbd253791	-0.040336195
121	0x3dbdae65	0.09261779
122	0x3d709085	0.058731575
123	0x3cd8f5ca	0.026484389
124	0x3dac834a	0.08423479
125	0x3d9bbec2	0.076047435
126	0xbd41bacd	-0.047297288
127	0xbc9f0aed	-0.01941439
128	0x3d4a53c4	0.04939629
129	0x3bd804eb	0.006592383
130	0xbd4cac34	-0.049968913
131	0x3d823a57	0.06358784
132	0xbd80c325	-0.06287221
133	0x3dba4f7f	0.09097194
134	0xbdc5898f	-0.09645378
135	0xbd41d54f	-0.047322568
136	0xbc045d13	-0.008078831
137	0xbdbe0de7	-0.092799954
138	0xbba81609	-0.00512958
139	0xbd4bba05	-0.04973795
140	0x3ce614e0	0.028086126
141	0xbdca6a2f	-0.09883534
142	0xbd5a0a32	-0.05323238
143	0xbd2bbd85	-0.041928787
144	0xbcfd8144	-0.030945428
145	0xbdd75dff	-0.10515975
146	0xbd616267	-0.055025484
147	0xbd0523af	-0.032504734
148	0x3d0bd7e9	0.034141455
149	0xbd0aec62	-0.03391684
150	0x3dbbcc2f	0.09169804
151	0x3ca38b34	0.019963838
152	0x3d56ee70	0.052473485
153	0x3da2c59b	0.079478465
154	0xbdd55462	-0.10416485
155	0xbd3c8b7b	-0.046031456
156	0xbd84a416	-0.064766094
157	0x3ce8321e	0.02834421
158	0xbd96d52a	-0.073648766
159	0xbda755fb	-0.08170696
160	0xbdb47973	-0.08812227
161	0xbd19eeb0	-0.037581146
162	0xbd0a2752	-0.033728905
163	0x3cab3c08	0.020902649
164	0x3db8e876	0.090287134
165	0x3d564245	0.052309293
166	0xbd0c9580	-0.03432226
167	0xbdc1dc4c	-0.094658464
168	0x3da44636	0.08021204
169	0x3d27ecaa	0.040997185
170	0xbca2db8f	-0.019880084
171	0x3d8857cc	0.06657371
172	0xbda2dd61	-0.07952381
173	0xbda011f3	-0.078159235
174	0xbb4f5741	-0.00316377
175	0x3a10f117	0.0005529089
176	0xbdcd16ba	-0.100141004
177	0xbdab8c7e	-0.08376406
178	0xbd14e571	-0.036351625
179	0xbbdec8dc	-0.0067988466
180	0xbdbb046f	-0.09131705
181	0xbd83cc81	-0.064354904
182	0xbdb060c1	-0.08612204
183	0xbcaf42e6	-0.021394204
184	0x3d2ae684	0.041723743
185	0xb9c71c17	-0.00037977166
186	0xbce3462b	-0.02774342
187	0x3d329e8f	0.043608245
188	0xbc72c670	-0.014817819
189	0x3d17fd79	0.037106965
190	0xbcba3409	-0.02272989
191	0xbdba8f50	-0.09109366
192	0x3d807fe8	0.06274396
193	0x3ddafb2e	0.1069244
194	0x3dd1d175	0.10245029
195	0x3c62b8e3	0.013838026
196	0xbca9b60a	-0.020716686
197	0x3d958edc	0.07302639
198	0x3d5ec658	0.054388374
199	0xbca9dabd	-0.020734185
200	0xbd88d585	-0.066813506
201	0xbc8c1006	-0.017097484
202	0xbdc7d155	-0.09756724
203	0x3bed688e	0.00724513
204	0xbd9beb44	-0.07613233
205	0x3c9fe631	0.019518944
206	0xbdb94c78	-0.090477884
207	0xbd025b9f	-0.031825658
208	0x3d077edd	0.03307997
209	0xbdc1fadb	-0.09471675
210	0xbda8f8ff	-0.08250617
211	0xbdbd5d80	-0.09246349
212	0x3b4dfe60	0.0031432137
213	0xbc6b028a	-0.014343867
214	0x3ca6b68e	0.02035072
215	0xbd56ade7	-0.05241194
216	0x3d7005a4	0.05859913
217	0xbd2c7700	-0.042105675
218	0xbc8a0b18	-0.016850993
219	0x3b2eac03	0.002665282
220	0xbd13430e	-0.03595262
221	0x3d621bfa	0.05520246
222	0x3da51e56	0.08062427
223	0x3cacb832	0.021083925
224	0x3c972599	0.018450545
225	0xbd31905b	-0.04335056
226	0x3c0f0d4f	0.0087312
227	0x3dca29e5	0.09871272
228	0xbd8c9bd0	-0.068656564
229	0x3d60667b	0.054785233
230	0xbd44442c	-0.047916576
231	0xbd95daa6	-0.073170945
232	0x3b23158a	0.0024884664
233	0x3c9aa8a6	0.018879246
234	0xbd95a412	-0.073066846
235	0xbda3fac0	-0.08006811
236	0x3d18c629	0.037298355
237	0x3c48efe9	0.01226423
238	0xbd6ef3c8	-0.058337957
239	0xbdc09d97	-0.09405058
240	0xbc0019f1	-0.007818685
241	0xbd88a8cd	-0.06672821
242	0xbd7ee2ef	-0.06222814
243	0xbde0ae7d	-0.10970781
244	0xbcc934ce	-0.024561312
245	0xbd5e7ba9	-0.05431715
246	0xbd9e4c85	-0.07729439
247	0xbd5fb058	-0.054611534
248	0x3c8c22ed	0.017106498
249	0xbd80c9e3	-0.06288507
250	0xbd7d5234	-0.061845973
251	0xbca99a6f	-0.020703522
252	0x3dd0071c	0.10157606
253	0x3d3d653d	0.046239126
254	0x3d095653	0.03352959
255	0xbdbe699f	-0.092974894

lin3.bias f4 [40]
0	0xbd0b4232	-0.033998676
1	0xbd19857f	-0.037480827
2	0x35c3668e	1.455848e-06
3	0xbbc3157f	-0.0059534903
4	0xb5a39f9d	-1.21909e-06
5	0x3bf11355	0.007357041
6	0xbd073dfa	-0.03301809
7	0xbafd4ffe	-0.0019326208
8	0x3d2c0aae	0.042002372
9	0x368b0c9b	4.1439903e-06
10	0x3a10271d	0.00054989924
11	0xbc446bf0	-0.011988625
12	0x3c8e8a9d	0.01740008
13	0x3c6030b8	0.01368349
14	0xba40ab1e	-0.0007349717
15	0xb52b3797	-6.378336e-07
16	0xbc98e6a7	-0.018664671
17	0x3c85733e	0.016290303
18	0x3c69740c	0.014248859
19	0x3d0c8be3	0.034313094
20	0x3cdf4cfd	0.02725839
21	0xbd4d28a1	-0.050087575
22	0x3d1ba1dd	0.03799616
23	0x362f3015	2.610502e-06
24	0xbc6230c3	-0.013805571
25	0xbd01a534	-0.03165169
26	0x3d4037a1	0.04692805
27	0xbca77d07	-0.02044536
28	0x3cb1a368	0.021684363
29	0xbacd9ff0	-0.0015687924
30	0x3cd21040	0.025642514
31	0xbd00df9b	-0.031463247
32	0x3bec446e	0.007210306
33	0xb6e9ae7e	-6.9642547e-06
34	0x3d117144	0.03550841
35	0x3d2359a7	0.03988042
36	0x3a869150	0.0010266695
37	0xbca2721c	-0.019829802
38	0xbbbc3553	-0.0057436614
39	0x38c3c0f1	9.334263e-05

lin4.weight f4 [1, 40]
0	0xbe0a55e9	-0.13509335
1	0x3df8ac03	0.12142184
2	0x3dfa4086	0.12219338
3	0xbd5cf09f	-0.05394041
4	0x3e055da7	0.13024007
5	0x3dd1d78e	0.10246192
6	0xbd75fc4d	-0.060055066
7	0x3d4f0192	0.050538607
8	0xbd02700c	-0.031845137
9	0xbdf9f778	-0.12205404
10	0x3d5bbae6	0.053645037
11	0x3d34159a	0.043965913
12	0xbcb6bd56	-0.02230708
13	0x3df2ab17	0.11849039
14	0xbcbb9955	-0.022900263
15	0xbd5dae43	-0.054121267
16	0x3c6380b3	0.013885665
17	0xbcda213c	-0.026627176
18	0xbd5a43b3	-0.05328722
19	0xbd3a301b	-0.045456033
20	0xbcb131b3	-0.021630144
21	0xbdf0d805	-0.117599525
22	0x3e11ef2b	0.14251392
23	0x3d948f93	0.07253947
24	0x3df86157	0.12127941
25	0x3e3f9cfa	0.18712226
26	0x3cea2dd6	0.02858631
27	0xbdc5d81a	-0.09660359
28	0x3d4f0fe4	0.050552264
29	0x3e114db2	0.14189795
30	0x3e0e5035	0.13897784
31	0xbdb56dc3	-0.08858826
32	0x3ddb27d9	0.1070096
33	0xbd88ffdb	-0.066894256
34	0xbcd3de1a	-0.025862742
35	0x3df553d9	0.11978883
36	0x3d758e93	0.059950422
37	0x3d9aa7ac	0.07551512
38	0x3e15312c	0.14569539
39	0x3d312a58	0.043253273

bn1.weight f4 [180]
0	0x3f7f5054	0.99731946
1	0x3f80328f	1.0015429
2	0x3f7ebca1	0.99506575
3	0x3f81479a	1.0099976
4	0x3f7d23d0	0.9888277
5	0x3f7c14a6	0.98469007
6	0x3f806283	1.0030063
7	0x3f7def5b	0.9919335
8	0x3f7c2ed5	0.9850896
9	0x3f806f81	1.0034028
10	0x3f7fe72e	0.9996213
11	0x3f7ef818	0.9959731
12	0x3f7ee942	0.99574673
13	0x3f7b2f5d	0.98119146
14	0x3f7f7b03	0.99797076
15	0x3f7cfbde	0.9882182
16	0x3f7ea11f	0.994646
17	0x3f7e57dd	0.9935282
18	0x3f80fc0c	1.0076919
19	0x3f7d898c	0.99038005
20	0x3f7cae09	0.98703057
21	0x3f7f8a56	0.9982046
22	0x3f7c88e9	0.9864641
23	0x3f807047	1.0034264
24	0x3f80318c	1.001512
25	0x3f7f3281	0.9968644
26	0x3f7d983d	0.9906042
27	0x3f7f0325	0.99614173
28	0x3f7cc617	0.9873976
29	0x3f7c1b32	0.98478997
30	0x3f7d1dfe	0.9887389
31	0x3f7d8f29	0.9904657
32	0x3f7f80b8	0.99805784
33	0x3f7fc54d	0.9991043
34	0x3f807ebd	1.0038677
35	0x3f7f1f7f	0.99657434
36	0x3f7f5756	0.9974264
37	0x3f7f9df3	0.99850386
38	0x3f802c21	1.0013467
39	0x3f819d88	1.01262
40	0x3f7d6ae2	0.98991215
41	0x3f7ed511	0.99543864
42	0x3f7c9ca4	0.98676515
43	0x3f7f1d86	0.99654424
44	0x3f81482e	1.0100152
45	0x3f803278	1.0015402
46	0x3f7db5cc	0.99105525
47	0x3f80e685	1.0070349
48	0x3f7ef712	0.9959575
49	0x3f7bdcbc	0.9838369
50	0x3f7d0b3f	0.98845285
51	0x3f807c04	1.0037847
52	0x3f80b141	1.0054094
53	0x3f80d30d	1.0064408
54	0x3f80aff0	1.0053692
55	0x3f7caa74	0.9869759
56	0x3f7ccab0	0.98746777
57	0x3f819fb4	1.0126863
58	0x3f7ec156	0.9951376
59	0x3f7fe862	0.99963963
60	0x3f801eeb	1.0009435
61	0x3f8004a1	1.0001413
62	0x3f7fd952	0.9994098
63	0x3f7d6ac3	0.9899103
64	0x3f7e3e93	0.9931423
65	0x3f7e6f52	0.9938861
66	0x3f7fe408	0.99957323
67	0x3f80107d	1.0005032
68	0x3f806c9e	1.0033147
69	0x3f7ec1d8	0.9951453
70	0x3f7c3b7e	0.9852828
71	0x3f7e081d	0.9923113
72	0x3f813577	1.0094441
73	0x3f7e5182	0.9934312
74	0x3f7e779c	0.9940126
75	0x3f7f7455	0.99786884
76	0x3f7fdcaf	0.9994611
77	0x3f7deb35	0.9918702
78	0x3f7cd793	0.9876644
79	0x3f7e7958	0.99403906
80	0x3f807bd5	1.003779
81	0x3f7e4141	0.9931832
82	0x3f7f7388	0.9978566
83	0x3f8088be	1.004173
84	0x3f8113d5	1.0084177
85	0x3f7e1ae8	0.99259806
86	0x3f7ebc13	0.9950573
87	0x3f8077a0	1.0036507
88	0x3f7f845b	0.99811333
89	0x3f7de1ca	0.9917265
90	0x3f7f2196	0.99660623
91	0x3f8002a4	1.0000806
92	0x3f8051ec	1.0025
93	0x3f80fac4	1.0076528
94	0x3f803c0a	1.0018322
95	0x3f7c7134	0.98610234
96	0x3f813826	1.009526
97	0x3f81b558	1.0133467
98	0x3f7f5c83	0.99750537
99	0x3f7ea8af	0.9947614
100	0x3f8097b5	1.0046297
101	0x3f7f96f6	0.99839723
102	0x3f7f7b39	0.997974
103	0x3f7e1673	0.99253005
104	0x3f7f0c83	0.99628466
105	0x3f7fe4df	0.99958605
106	0x3f7ad9c3	0.9798853
107	0x3f7dfc5c	0.99213195
108	0x3f7e7957	0.994039
109	0x3f80505e	1.0024526
110	0x3f7db489	0.991036
111	0x3f7dbd34	0.99116826
112	0x3f7e2353	0.9927265
113	0x3f7eb93b	0.9950139
114	0x3f7e8e16	0.99435556
115	0x3f7e2d9d	0.9928835
116	0x3f7e6921	0.99379164
117	0x3f7f4ebd	0.9972952
118	0x3f807fa4	1.0038953
119	0x3f7e26da	0.9927803
120	0x3f7dd9d4	0.99160504
121	0x3f7fc073	0.9990303
122	0x3f801057	1.0004987
123	0x3f7e034d	0.99223787
124	0x3f7d6857	0.98987335
125	0x3f7fc7f9	0.9991451
126	0x3f7f6eb9	0.99778324
127	0x3f7d192c	0.98866534
128	0x3f7d12d2	0.9885684
129	0x3f7d62c8	0.98978853
130	0x3f80b049	1.0053798
131	0x3f817545	1.0113913
132	0x3f802e49	1.0014125
133	0x3f7de821	0.99182326
134	0x3f7fcc85	0.9992145
135	0x3f7f4eb0	0.9972944
136	0x3f7f8013	0.998048
137	0x3f80a332	1.0049803
138	0x3f803736	1.0016849
139	0x3f7d47f8	0.9893794
140	0x3f80356f	1.0016307
141	0x3f7edc59	0.99554974
142	0x3f8024da	1.0011246
143	0x3f7f3695	0.9969266
144	0x3f7fd19e	0.99929225
145	0x3f7fa431	0.9985991
146	0x3f7dbf56	0.9912008
147	0x3f7cde05	0.98776275
148	0x3f7c5d32	0.98579705
149	0x3f7e88c5	0.99427444
150	0x3f7e76d6	0.9940008
151	0x3f7d8ee0	0.99046135
152	0x3f7b8557	0.98250335
153	0x3f80bdb1	1.0057889
154	0x3f802e2f	1.0014094
155	0x3f7dd21c	0.99148726
156	0x3f816f98	1.0112181
157	0x3f801e57	1.0009259
158	0x3f7ce1df	0.9878215
159	0x3f81ba2b	1.0134939
160	0x3f7d5984	0.98964715
161	0x3f8075e2	1.0035975
162	0x3f803833	1.0017151
163	0x3f7dc023	0.991213
164	0x3f7efa0d	0.996003
165	0x3f7e4ff5	0.99340755
166	0x3f7f5468	0.9973817
167	0x3f7f283a	0.99670756
168	0x3f7e838a	0.9941946
169	0x3f7d120e	0.98855674
170	0x3f7e141f	0.9924945
171	0x3f7c3412	0.98516953
172	0x3f7e6241	0.99368674
173	0x3f809558	1.0045576
174	0x3f7e24d2	0.99274933
175	0x3f7e2e9b	0.99289864
176	0x3f7e1556	0.99251306
177	0x3f7c6fa9	0.9860788
178	0x3f7bf826	0.9842552
179	0x3f7dbc7b	0.99115723

bn1.bias f4 [180]
0	0x3b8d7166	0.0043164967
1	0xbbb48bbe	-0.0055098226
2	0x39bd97ca	0.0003616198
3	0x398acf9b	0.0002647609
4	0xbbfb15c0	-0.007662505
5	0xbc558f93	-0.013034719
6	0x3b40885d	0.0029378154
7	0xbc0bfb4e	-0.008543802
8	0xbc12e66f	-0.008966072
9	0x396a560f	0.00022348038
10	0x3bf2197a	0.007388291
11	0xbaee49de	-0.0018179973
12	0xbb967c36	-0.004592444
13	0xbc5b4136	-0.013382247
14	0xbb9245cb	-0.0044638864
15	0xbc047fb2	-0.008087086
16	0xbb510747	-0.0031895207
17	0xbb9354b6	-0.0044961823
18	0x3be8d3f3	0.0071053444
19	0xbc0a828f	-0.008453979
20	0xbc38fac9	-0.011290261
21	0xbb963e92	-0.0045850957
22	0xbbc0e9f0	-0.0058872625
23	0xbc018984	-0.007906321
24	0xbc76b315	-0.015057345
25	0xbb95579b	-0.0045575625
26	0xbb9be3ef	-0.0047573964
27	0xbc1479f8	-0.009062283
28	0xbc82bac3	-0.015958196
29	0xbc313c74	-0.010817636
30	0xbc31ad6e	-0.0108445715
31	0xbbddc105	-0.0067673945
32	0xbbcd28f0	-0.0062609836
33	0xbc6e1b7c	-0.01453292
34	0x39decbca	0.00042494974
35	0xbb88cfa9	-0.0041751456
36	0xbb114ee6	-0.0022172271
37	0xbb3151b2	-0.002705675
38	0xba107d80	-0.0005511865
39	0xbbace0f8	-0.005275842
40	0xbadecbc2	-0.001699798
41	0x3a20438e	0.0006113582
42	0xbbd84f6b	-0.0066012642
43	0xbc046618	-0.008080982
44	0x3c213083	0.009838226
45	0x3bab53ea	0.005228509
46	0xbbbd0e3e	-0.00576952
47	0xbb86075f	-0.004090234
48	0xba2143ef	-0.00061517855
49	0xbc1e3e66	-0.009658432
50	0xbbfbeb73	-0.00768798
51	0x3c166b67	0.00918088
52	0xbb22feef	-0.002487119
53	0x3b99e2a6	0.004696208
54	0x3b74539d	0.0037281283
55	0xbb5de596	-0.0033858768
56	0xbc4d9e41	-0.012549938
57	0x3b509e2e	0.0031832564
58	0x3b142aa1	0.0022608417
59	0xba52799d	-0.0008028986
60	0xbbfaa0f6	-0.0076485826
61	0x3b89ec92	0.0042091096
62	0x3b9c8a8c	0.0047772583
63	0xbbcad00d	-0.0061893524
64	0xbc1fccf4	-0.0097534545
65	0xbbdc6cf1	-0.006726854
66	0x3afad779	0.0019137702
67	0x3aa82955	0.0012829701
68	0x39ad824d	0.00033094213
69	0xbb38329b	-0.0028106335
70	0xbc4fec8c	-0.0126906745
71	0xb9b51bd2	-0.00034543738
72	0x3bd1cdb8	0.0064026974
73	0xbb11568a	-0.0022176825
74	0xbb4280aa	-0.002967874
75	0xbc0e61a3	-0.008690271
76	0xbbf138d4	-0.007361511
77	0xbc0615b3	-0.008183884
78	0xbbb776d4	-0.005598882
79	0xbc2253d6	-0.009907683
80	0x3bb98e36	0.005662705
81	0x3aea256d	0.0017863937
82	0x3b3ccde5	0.0028809246
83	0xbc779481	-0.01511109
84	0xbbb91035	-0.005647684
85	0xb9367f22	-0.00017404233
86	0xbc479aac	-0.012182873
87	0x3a856404	0.0010176902
88	0xbc1f8e46	-0.0097385105
89	0x38689386	5.5450502e-05
90	0xbb8b35b9	-0.0042483476
91	0x393cf331	0.00018019673
92	0xb9baca0c	-0.0003562722
93	0xbc8b7479	-0.017023312
94	0xbba55b70	-0.0050463006
95	0xbc6510a3	-0.013981017
96	0x3c1b2cf8	0.009471171
97	0xb83fdca0	-4.574342e-05
98	0xbb16de31	-0.002302062
99	0xbbd6cd49	-0.0065552336
100	0xbb969ed0	-0.0045965686
101	0xba98e023	-0.0011663478
102	0x3aa7ad6e	0.0012792775
103	0xbbc41ebd	-0.0059851096
104	0xba85af92	-0.0010199419
105	0x3ba6f5dd	0.005095227
106	0xbc402b7d	-0.011729118
107	0x3b4f1e23	0.0031603656
108	0xbc41e63d	-0.011834678
109	0x3b762507	0.003755869
110	0xbbdbcbd2	-0.006707647
111	0xbb914b2a	-0.004434009
112	0xbc345a78	-0.011007898
113	0xbbe431a3	-0.006963925
114	0xbb7ca527	-0.0038550587
115	0xbb5085bc	-0.0031817993
116	0xbbc59c5e	-0.0060306033
117	0xbba5f4fb	-0.0050646043
118	0x3c440af9	0.011965507
119	0x3a9fb927	0.0012185917
120	0xbc8bb4e0	-0.017054021
121	0x3c301d33	0.010749149
122	0x3be61f2d	0.0070227594
123	0xbb6afd45	-0.0035856527
124	0xbbf69a93	-0.007525751
125	0xbb2d869f	-0.0026477946
126	0x39c4ea5f	0.00037558653
127	0xbbbb0683	-0.0057075634
128	0xbc029990	-0.007971182
129	0xbc7f9cc0	-0.015601337
130	0xbbf5437f	-0.007484853
131	0xb8059df2	-3.185677e-05
132	0xbbc4ab43	-0.0060018613
133	0xbbe6308e	-0.007024831
134	0xbb249b9f	-0.0025117171
135	0xbb3455a5	-0.0027516868
136	0xbb620459	-0.0034487455
137	0x39d6a845	0.0004094263
138	0x3b29fe3e	0.0025938894
139	0xbbc7ac67	-0.00609355
140	0xbb4f20d9	-0.0031605272
141	0xbb515d26	-0.003194639
142	0x3b473340	0.0030395538
143	0xba6cf88a	-0.0009039721
144	0x3a24b680	0.0006283298
145	0xbb47e1e5	-0.0030499634
146	0xbbe71617	-0.007052194
147	0xbc03b0b0	-0.008037731
148	0xbc22b090	-0.009929791
149	0xbc404380	-0.011734843
150	0xbb09103c	-0.0020914217
151	0xbb822379	-0.003971514
152	0xbc77fb07	-0.015135533
153	0x3c252adb	0.010081018
154	0x3b8e4a4a	0.004342352
155	0x3b23c4d9	0.0024989157
156	0xbbc13fe4	-0.005897509
157	0xb988ffe0	-0.00026130583
158	0xbc126ef4	-0.008937586
159	0x3c017e9a	0.007903719
160	0xbc0940e5	-0.0083772885
161	0xbc827b56	-0.015927952
162	0xb9fbf644	-0.00048057933
163	0xbc21c496	-0.00987353
164	0xbcb2addd	-0.02181142
165	0xbc08b52f	-0.008343979
166	0x3a28839e	0.0006428304
167	0x3952188b	0.00020036304
168	0xbc314310	-0.010819212
169	0x3bdfa356	0.006824891
170	0xb92417b2	-0.00015649086
171	0xbbdc5e46	-0.0067251055
172	0xba3c364d	-0.00071797223
173	0xbbe68442	-0.0070348093
174	0xbb9b3693	-0.0047367304
175	0xbbefd7f2	-0.007319444
176	0xbb38f61c	-0.0028222864
177	0xbc3821d2	-0.011238532
178	0xbc6f2955	-0.014597257
179	0x377dd4a1	1.5129482e-05

bn1.running_mean f4 [180]
0	0xbb396863	-0.002829098
1	0xbe83d3d0	-0.25747538
2	0xbd029aa9	-0.031885777
3	0xbe5e6a2a	-0.21720186
4	0xbcdf9fdf	-0.027297912
5	0xbdb26b61	-0.08711887
6	0x3dabf540	0.08396387
7	0xbdfdbebd	-0.12389896
8	0x3eeb112a	0.45911533
9	0x3d990e3c	0.07473418
10	0xbc13b9e3	-0.009016487
11	0x3e60d75d	0.21957155
12	0xbe2275bb	-0.15865223
13	0x3e45e361	0.1932502
14	0xbea4126c	-0.32045305
15	0x3c3a7750	0.011380985
16	0xbea29cad	-0.3176016
17	0x3decf96a	0.115710095
18	0x3d0b56c0	0.034018278
19	0xbe8740de	-0.26416677
20	0xbdada159	-0.0847804
21	0xbe67826c	-0.22608346
22	0x3b2d4680	0.0026439726
23	0xbc6fa0c4	-0.014625732
24	0xbe212ace	-0.15738985
25	0xbe70fac4	-0.2353316
26	0xbe894d33	-0.2681671
27	0xbe16c2f4	-0.14722806
28	0xbd7c27ed	-0.061561514
29	0xbc6068d2	-0.013696866
30	0xbe11ff98	-0.14257658
31	0xbda6dc89	-0.081475325
32	0x3b00f2e9	0.0019676036
33	0x3e8d417d	0.27589026
34	0xbea2a6ac	-0.31767786
35	0x3e5d63b5	0.21620066
36	0x3c29b9d7	0.010359249
37	0x3e1209dc	0.14261574
38	0xbda9189f	-0.08256649
39	0xbd83f862	-0.0644386
40	0xbe7d9764	-0.24764782
41	0xbd9b3374	-0.07578173
42	0xbe8da366	-0.27663726
43	0xbedb4cd5	-0.42832056
44	0xbc611b3b	-0.013739402
45	0xbdd6ac14	-0.1048204
46	0x3ef2af7f	0.47399518
47	0xbe63a9d0	-0.22232747
48	0x3d5f9b4e	0.05459147
49	0x3e0d3cda	0.13792744
50	0xbec1bd64	-0.37839806
51	0x3e428059	0.18994273
52	0x3e370132	0.1787155
53	0x3ee6d65a	0.45085412
54	0x3e96e03a	0.29467946
55	0x3e25c595	0.16188653
56	0x3e302f0a	0.17205444
57	0xbe2cd125	-0.16876657
58	0x3ebadac1	0.3649502
59	0x3db280fe	0.087160096
60	0x3e43f949	0.19138063
61	0x3ac5aba0	0.0015081055
62	0xbe928f48	-0.2862494
63	0xbcd3ca99	-0.025853442
64	0xbf0b183a	-0.5433384
65	0x3c76c8dc	0.015062537
66	0x3b8923ea	0.0041851895
67	0xbe0a7428	-0.13520873
68	0xbd0d7605	-0.03453638
69	0x3e51d0d1	0.20489813
70	0x3d638401	0.05554581
71	0xbd6a411e	-0.057191007
72	0xbe1c1871	-0.15243699
73	0xbd807f35	-0.06274263
74	0x3e437e7c	0.19091219
75	0xbddca0a9	-0.10772831
76	0xbe812889	-0.25226238
77	0xbdd91b9f	-0.106009714
78	0x3d9115d7	0.07084244
79	0xbed34c16	-0.41268986
80	0x3df62374	0.12018481
81	0x3eeb205e	0.45923132
82	0x3d10d58e	0.03535991
83	0xbe9e1d4f	-0.30881736
84	0x3cd227ff	0.025653837
85	0xbece5760	-0.40301037
86	0x3e59174b	0.21200292
87	0x3e6f77c8	0.23385537
88	0x3dc10f32	0.094267264
89	0xbef4b246	-0.47792262
90	0xbebf9140	-0.37415504
91	0xbe37c79b	-0.17947237
92	0xbd53b50b	-0.051686328
93	0xbe26b331	-0.16279294
94	0x3e5d481a	0.21609536
95	0xbd33d576	-0.043904744
96	0xbdf5dd66	-0.12005119
97	0x3dcc3775	0.09971515
98	0x3e56b165	0.20966108
99	0x3e6ffea2	0.23436978
100	0xbba4a1bd	-0.0050241635
101	0x3e5cc9df	0.21561383
102	0x3e20bcac	0.15696973
103	0x3caadac9	0.020856278
104	0xbdfda879	-0.12385649
105	0xbd9d0a35	-0.076679625
106	0x3e55b61b	0.20870249
107	0xbea5afd2	-0.32360703
108	0xbdbb1553	-0.09134927
109	0x3debd4b5	0.1151518
110	0x3e5743a1	0.21021892
111	0xbeaa743b	-0.33291802
112	0x3d453907	0.04815009
113	0x3dedbc8a	0.116082266
114	0x3dbe8cc9	0.093041964
115	0xbe6ef5d5	-0.23335965
116	0x3e34a179	0.17639722
117	0xbde78e9c	-0.113064975
118	0x3e26a335	0.16273196
119	0xbe9040d8	-0.28174472
120	0xbe2823bc	-0.16419882
121	0xbea6191b	-0.3244103
122	0xbd96ae42	-0.07357456
123	0x3e62f16c	0.22162408
124	0xbec1c263	-0.37843618
125	0xbeb355c4	-0.3502637
126	0x3d684d6c	0.05671446
127	0x3dfc82e7	0.12329655
128	0xbe41acc7	-0.18913566
129	0x3e52c0c1	0.20581342
130	0x3eda8ec4	0.42687047
131	0xbe3f814b	-0.18701665
132	0x3d69879d	0.057014097
133	0xbd7b3465	-0.061329264
134	0xbcca8794	-0.024722852
135	0xbd814d9f	-0.06313633
136	0x3e46db13	0.19419508
137	0xbe0fa709	-0.14028563
138	0x3d5c91aa	0.053849854
139	0xbd958ac8	-0.07301861
140	0xbe2d2ed8	-0.169124
141	0xbe76950f	-0.24080299
142	0xbe043f20	-0.12914705
143	0xbe133079	-0.1437396
144	0xbe883c9e	-0.26608747
145	0xbdca2d7d	-0.098719575
146	0x3e094e33	0.13408737
147	0x3c06c076	0.008224597
148	0x3e8ee81b	0.27911457
149	0x3edde2bd	0.4333705
150	0x3ca8bd6a	0.020598132
151	0xbcc977f9	-0.02459334
152	0x3d89f864	0.0673683
153	0xbe4076ef	-0.1879537
154	0xbdee577b	-0.11637779
155	0x3d680b5e	0.056651466
156	0xbeb7980b	-0.35858187
157	0xbf2cc3eb	-0.6748645
158	0xbd95cefd	-0.073148705
159	0x3e94029c	0.2890824
160	0x3e082ab6	0.13297543
161	0xbe7ab1a8	-0.24481833
162	0x3e8b9d99	0.27268675
163	0xbd852bda	-0.06502505
164	0x3d6b82a9	0.057497654
165	0x3d6d1c8c	0.057888553
166	0x3db5e5ab	0.08881696
167	0x3da11c0f	0.0786668
168	0x3e9f9714	0.3116995
169	0x3e0e1524	0.13875252
170	0xbc188842	-0.00930983
171	0x3e72ed79	0.23723401
172	0xbdb153d0	-0.08658564
173	0x3e6ec8dc	0.2331881
174	0xbc321cee	-0.010871155
175	0x3e2571b7	0.1615666
176	0xbdc5122e	-0.09622608
177	0xbe40c460	-0.18824911
178	0xbe463a92	-0.1935828
179	0xbe470d9e	-0.19438788

bn1.running_var f4 [180]
0	0x3da06a2f	0.07832753
1	0x3d222d68	0.039594084
2	0x3d125aa3	0.03573097
3	0x3d258218	0.04040727
4	0x3d21bb71	0.0394854
5	0x3d5a98d0	0.05336839
6	0x3d1cbf6f	0.038268503
7	0x3ce94d4b	0.028479239
8	0x3d530634	0.051519588
9	0x3d37c73d	0.044867743
10	0x3d110d3f	0.035413023
11	0x3d1e3278	0.03862235
12	0x3cff5edf	0.031173168
13	0x3d595be0	0.053066134
14	0x3d4481b8	0.047975272
15	0x3d5f6950	0.054543793
16	0x3d3b94ac	0.04579608
17	0x3d5e34a6	0.05424943
18	0x3cd29c62	0.025709335
19	0x3d437494	0.0477186
20	0x3db4b037	0.08822673
21	0x3d16fa51	0.036859814
22	0x3cc330cd	0.023826981
23	0x3d2c1119	0.042008493
24	0x3d381a0a	0.044946708
25	0x3d123c60	0.03570211
26	0x3d938db2	0.072047606
27	0x3d45f6d0	0.048331082
28	0x3d5d24e4	0.05399026
29	0x3d8d7821	0.069076784
30	0x3d3f1dba	0.04665921
31	0x3d31c633	0.043401908
32	0x3d15c9ef	0.036569532
33	0x3d552bb9	0.05204365
34	0x3d400469	0.046879206
35	0x3d6060dd	0.054779876
36	0x3cfd9222	0.03095347
37	0x3d1b0784	0.037848964
38	0x3d0e03f5	0.034671742
39	0x3d15b753	0.036551785
40	0x3d32a7ed	0.043617178
41	0x3d538d6f	0.051648553
42	0x3d3afa98	0.04564914
43	0x3d4a61ac	0.049409553
44	0x3d0d68e8	0.034523875
45	0x3cec1ff7	0.028823836
46	0x3d620d93	0.055188727
47	0x3d195769	0.037436876
48	0x3d24be4c	0.040220544
49	0x3d8f2b59	0.0699069
50	0x3d594d90	0.053052485
51	0x3d491ee2	0.049101718
52	0x3d3f0001	0.046630863
53	0x3d700015	0.05859383
54	0x3d3720e7	0.044709112
55	0x3df7c55b	0.120981894
56	0x3d40b7b1	0.04705018
57	0x3d3adf12	0.045622893
58	0x3d4f443a	0.050602175
59	0x3d24a7d0	0.0401991
60	0x3d6b0901	0.057381634
61	0x3d39e318	0.04538259
62	0x3d37b88e	0.04485374
63	0x3d480cd4	0.04884036
64	0x3d751745	0.059836645
65	0x3d1c3c8e	0.038143687
66	0x3d28eda0	0.04124224
67	0x3d31735f	0.043322917
68	0x3d434ee0	0.047682643
69	0x3d750632	0.05982036
70	0x3d2eb92e	0.04265707
71	0x3d01a551	0.0316518
72	0x3d0e9a6a	0.03481523
73	0x3d5d44b3	0.054020595
74	0x3d67ac9d	0.0565611
75	0x3d31ae86	0.04337933
76	0x3d7842c2	0.06061054
77	0x3d06c7e8	0.03290549
78	0x3cf8709e	0.030327138
79	0x3d8a9498	0.06766623
80	0x3d5241e6	0.051332377
81	0x3d988d13	0.07448783
82	0x3d12841b	0.035770517
83	0x3d73602f	0.0594179
84	0x3d48665f	0.048925754
85	0x3d4ccf1c	0.050002202
86	0x3d62057a	0.055181004
87	0x3d79dae9	0.060999785
88	0x3cf9d506	0.030497085
89	0x3dbe1cea	0.09282859
90	0x3d965d17	0.07341974
91	0x3d780d7e	0.060559742
92	0x3d8decf0	0.06929958
93	0x3d153bee	0.036434107
94	0x3d12ea1a	0.035867788
95	0x3d076aad	0.03306072
96	0x3d1b293f	0.037881132
97	0x3cd0ca49	0.025487082
98	0x3d2c389b	0.04204617
99	0x3d8f11f8	0.06985849
100	0x3cf3b717	0.02975039
101	0x3d192cf3	0.037396383
102	0x3d08db1c	0.033412084
103	0x3d110694	0.035406664
104	0x3d641e0e	0.055692725
105	0x3d0d1acb	0.03444938
106	0x3d21db85	0.03951599
107	0x3d984c80	0.07436466
108	0x3d46a45b	0.048496585
109	0x3d0a846d	0.033817697
110	0x3d6837b0	0.056693733
111	0x3d12e9ff	0.035867687
112	0x3d1436ec	0.03618519
113	0x3d228896	0.03968104
114	0x3d348e32	0.04408092
115	0x3d9814f5	0.07425872
116	0x3d701f24	0.058623448
117	0x3d4a28fd	0.049355496
118	0x3d3cfbce	0.046138577
119	0x3d28c603	0.041204464
120	0x3cea9254	0.028634228
121	0x3d69ff7b	0.05712841
122	0x3d46d52d	0.048543144
123	0x3d4a146f	0.049335893
124	0x3d5736d2	0.052542515
125	0x3d694b8c	0.056956813
126	0x3d03b475	0.03215452
127	0x3d226a73	0.0396523
128	0x3d21d3b5	0.03950854
129	0x3d508de7	0.05091658
130	0x3d89b0a8	0.06723148
131	0x3d13e0f3	0.0361032
132	0x3d29e84c	0.0414813
133	0x3d525575	0.05135103
134	0x3d3a00a4	0.045410767
135	0x3cfca1c0	0.030838847
136	0x3d6c1d64	0.057645217
137	0x3d00c6dd	0.03143965
138	0x3cd4df6d	0.025985444
139	0x3d23d2e6	0.03999605
140	0x3cdad9ee	0.026715245
141	0x3d139977	0.036035027
142	0x3d809082	0.06277563
143	0x3d3ebf34	0.046569064
144	0x3d9ba3a6	0.07599573
145	0x3d0d3732	0.034476466
146	0x3d3f5cd6	0.046719395
147	0x3d418fc0	0.04725623
148	0x3d5fe0b8	0.054657668
149	0x3d79ebdb	0.061015945
150	0x3d8cb6dd	0.06870816
151	0x3cea0ac7	0.028569592
152	0x3d455af2	0.048182435
153	0x3d83fe34	0.0644497
154	0x3d471d36	0.048611842
155	0x3d8ea5dc	0.06965229
156	0x3d0649e4	0.03278531
157	0x3d76e31c	0.060275182
158	0x3d2f003d	0.042724837
159	0x3d321461	0.043476466
160	0x3d3b02dc	0.045657024
161	0x3d141dd6	0.036161266
162	0x3d8a491d	0.067522265
163	0x3d51d663	0.051229846
164	0x3d446ec0	0.047957182
165	0x3d33720c	0.043809935
166	0x3d6a85d0	0.05725652
167	0x3d5c64a8	0.05380693
168	0x3d3a264d	0.045446683
169	0x3d63df10	0.05563265
170	0x3d18a6e0	0.03726852
171	0x3d5b96d6	0.053610645
172	0x3d7f8000	0.06237793
173	0x3d4e49a9	0.050363217
174	0x3d7cc773	0.061713647
175	0x3d4daf64	0.050216094
176	0x3d8046f0	0.0626353
177	0x3d5417cb	0.051780503
178	0x3d2ac5fa	0.04169271
179	0x3d6a554e	0.05721026
