Proposed model/saved_best_DNN_model/0.39289model_fingerp0.pth (torch, 216672 bytes, 19 tensors)

lin1.weight f4 [180, 166]
-1.1643637e-10 1.2133314e-09 -0.061564114 0.001975244 -0.00041426727 0.047749765 -6.260663e-07 -0.048505377
0.048642945 0.030672682 0.06155777 -0.036477443 -0.041318048 -0.052959163 0.007964833 0.023256028
-0.054046214 -0.0070464117 0.042152014 -0.0044321967 0.008690121 -0.07081424 -0.0063965404 -0.03958755
-0.048990894 0.015207244 -0.0038991515 -0.04939195 -0.010211431 0.065602235 -0.01721635 -0.04147849
-0.030179251 -0.025711494 0.018738138 -0.04867989 0.02210946 0.06658267 0.031776797 0.03738454
-0.035914075 0.007819703 0.067378 0.057635043 0.0039841216 0.03173923 0.05534721 0.06954735
-0.016036697 0.048603192 -0.012896827 0.037972696 0.00048536228 0.034606203 -0.0101550175 -0.032158304
-0.025802998 -0.026678687 -0.0399419 0.028185226 -0.06581967 -0.0016594392 0.025673477 0.04930467
0.014255303 0.022358326 -0.07404599 0.03217255 0.014626155 0.0130852 -0.06398166 0.043900713
-0.0053529637 -0.02023111 0.024805335 -0.019585539 0.0031149192 0.0023900627 0.05016467 0.03309609
0.0080632735 -0.07605897 0.025100699 -0.04204423 -0.016554683 0.024522513 0.013342107 0.006772377
-0.070111334 -0.030968664 -0.067089126 -0.06388602 -0.062244523 0.048755694 -0.039412174 0.08097201
0.034819234 -0.035019275 0.048000924 0.07267643 0.034472335 -0.026450299 0.059129648 -0.04542533
0.07240544 -0.043313783 -0.02306314 -0.04481698 0.01621409 0.03194967 0.012501891 -0.04648333
-0.06778573 0.03899036 -0.048640694 -0.0030669947 0.036673572 0.032015 -0.05601171 -0.010287799
-0.024211882 -0.034169335 0.06531224 -0.017591681 0.049102616 0.048287608 0.049942575 -0.034566615
-0.06375583 -0.05455574 0.05554983 -0.034022465 0.009003325 -0.027439434 0.0053796703 -0.018940255
-0.02244616 0.0134618 -0.06778409 0.013594822 -0.04576371 0.026845554 0.0038987293 -0.030859519
-0.037331026 0.07836626 0.07523477 -0.029268628 0.0170787 -0.07421918 0.027512897 -0.0664995
-0.05934568 -0.032794565 -0.059299342 -0.07957932 -0.05330167 0.06493449 -0.0070864246 -0.078607604
0.0059573487 -0.020216152 -3.7824913e-05 -0.02493803 0.0035714998 0.03776903 0.019110417 -0.013894796
0.010783186 0.0057807337 -0.009360447 -0.084203266 0.015518271 -0.012577836 0.015756046 0.019063897
0.07098308 0.05390456 -0.06869615 -0.041794363 0.041301858 0.07192017 0.055296768 0.04139657
-0.056000788 -0.029500378 -0.054186124 -0.00907556 0.027216284 0.05332509 -0.043872904 0.005071213
-0.003279496 0.022295212 -0.05138171 0.01671302 -0.023403278 -0.03096971 -0.05409761 -0.07585537
-0.05685761 0.018891132 0.018657904 0.02514374 0.052348383 0.043273903 -0.031713292 0.009966343
-0.079284355 0.06013995 -0.049140476 0.069966696 0.05355992 0.012061756 -0.010773103 0.048706092
-0.021431156 0.05303696 -0.07242688 0.04494471 0.019564131 0.017084481 0.05825176 0.03954147
0.052738227 -0.065565094 -0.060049236 -0.018829484 -0.01320319 0.03875097 -0.056235414 -0.012817807
-0.06993674 -0.015012352 -0.018904826 0.049308788 -0.03301113 0.03530638 0.03285126 0.050555795
0.06725591 -0.029733201 -0.040058963 0.041649077 -0.015947046 0.021141747 -0.0095632365 -0.0412475
0.016665248 0.018610617 0.023085743 0.0026036853 -0.0640292 0.05798848 0.044518247 -0.05726461
00000000: ed05 00af 4ec2 a630 a72a 7cbd 1873 013b
00000010: 0332 d9b9 4295 433d f30e 28b5 93ad 46bd
00000020: d33d 473d 4745 fb3c 0024 7c3d 5f69 15bd
00000030: 1d3d 29bd b5eb 58bd ee7e 023c 6d83 be3c
00000040: 905f 5dbd 96e5 e6bb 97a7 2c3d f63b 91bb
00000050: 0261 0e3c 0e07 91bd 129a d1bb 8e26 22bd
00000060: adaa 48bd ce27 793c e888 7fbb 374f 4abd
00000070: d94d 27bc 775a 863d 4e09 8dbc 59e5 29bd
00000080: 7a3a f7bc e9a0 d2bc b980 993c 9064 47bd
00000090: e61e b53c 7f5c 883d 6328 023d 8820 193d
000000a0: a31a 13bd 361e 003c 7afd 893d b912 6c3d
000000b0: 3c8d 823b ff00 023d c2b3 623d d76e 8e3d
000000c0: 645f 83bc 2414 473d 374d 53bc 4289 1b3d
000000d0: 3978 fe39 3cbf 0d3d 3b61 26bc 6db8 03bd
000000e0: cf60 d3bc 438d dabc 1e9a 23bd b4e4 e63c
000000f0: 77cc 86bd 8a81 d9ba 2f51 d23c b2f3 493d
00000100: 138f 693c cf28 b73c 6da5 97bd 5dc7 033d
00000110: 8aa2 6f3c 4f63 563c d108 83bd 3cd1 333d
00000120: ea67 afbb b6bb a5bc 8f34 cb3c da71 a0bc
00000130: ac23 4c3b 99a2 1c3b 7879 4d3d c48f 073d
00000140: d21b 043c cec4 9bbd fb9f cd3c 9236 2cbd
00000150: b09d 87bc 70e3 c83c da98 5a3c d1ea dd3b
00000160: 8896 8fbd ffb1 fdbc 0666 89bd acd6 82bd
00000170: 1df4 7ebd 0db4 473d a96e 21bd a7d4 a53d
00000180: 9d9e 0e3d 5f70 0fbd 9e9c 443d 61d7 943d
00000190: dd32 0d3d 4cae d8bc ee31 723d e90f 3abd
000001a0: 4e49 943d cb69 31bd e9ee bcbc 0292 37bd
000001b0: 69d3 843c a8dd 023d bbd4 4c3c 4e65 3ebd
000001c0: 3fd3 8abd 5bb4 1f3d 773b 47bd a2ff 48bb
000001d0: 0737 163d 2922 033d 896c 65bd 288e 28bc
000001e0: ff57 c6bc 25f5 0bbd 6cc2 853d 6e1c 90bc
000001f0: d31f 493d 3ac9 453d 9690 4c3d b995 0dbd
00000200: 6b92 82bd d775 5fbd 3888 633d 245b 0bbd
00000210: af82 133c aac8 e0bc f247 b03b 9828 9bbc
00000220: 02e1 b7bc e28e 5c3c 63d2 8abd d1bc 5e3c
00000230: ba72 3bbd 35eb db3c d381 7f3b 1acd fcbc
00000240: 6be8 18bd 7d7e a03d b014 9a3d c3c4 efbc
00000250: a1e8 8b3c 3a00 98bd ba62 e13c e430 88bd
00000260: 7514 73bd 9853 06bd dee3 72bd 7cfa a2bd
00000270: da52 5abd 60fc 843d 3d35 e8bb 06fd a0bd
00000280: dd35 c33b 589c a5bc 31a6 1eb8 d74a ccbc
00000290: d30f 6a3b b3b3 1a3d 738d 9c3c 00a7 63bc
000002a0: f6ab 303c 4f6c bd3b 8f5c 19bc c372 acbd
000002b0: 5940 7e3c 4513 4ebc d312 813c e42b 9c3c
000002c0: 945f 913d 07cb 5c3d 91b0 8cbd 9130 2bbd
000002d0: 232c 293d e24a 933d dd7e 623d 738f 293d
000002e0: 1561 65bd c7aa f1bc 45f2 5dbd a8b1 14bc
000002f0: aff4 de3c 696b 5a3d 13b4 33bd 6b2c a63b
00000300: d0ec 56bb 73a4 b63c a175 52bd bee9 883c
00000310: 3bb8 bfbc 30b4 fdbc 7595 5dbd 0f5a 9bbd
00000320: 86e3 68bd 93c1 9a3c 76d8 983c 3ffa cd3c
00000330: 426b 563d fa3f 313d cce5 01bd df49 233c
00000340: d65f a2bd 4f55 763d 8647 49bd b34a 8f3d
00000350: a661 5b3d ac9e 453c ab81 30bc 0a80 473d
00000360: 6490 afbc 493d 593d 8b54 94bd f217 383d
00000370: f544 a03c c1f4 8b3c 6699 6e3d 3df6 213d
00000380: 0a04 583d fe46 86bd 30f6 75bd 4a40 9abc
00000390: 3152 58bc 56b9 1e3d 1b57 66bd c701 52bc
000003a0: fe3a 8fbd 5ef6 75bc 4bde 9abc 03f8 493d
000003b0: ae36 07bd 6c9d 103d 0b8f 063d 9813 4f3d
000003c0: 77bd 893d 0b93 f3bc de14 24bd 3998 2a3d
000003d0: 61a3 82bc 7531 ad3c 1faf 1cbc 23f3 28bd
000003e0: 8f85 883c 4b75 983c 501e bd3c 97a2 2a3b
000003f0: be21 83bd 5485 6d3d c458 363d 4c8e 6abd

lin1.bias f4 [180]
0.0019429886 -0.031169413 3.5341404e-06 -0.03275838 0.024544705 -0.01510915 0.0020084 -0.013643505
-0.00494503 0.007953635 0.016400829 4.120459e-06 -0.024439977 6.4222346e-05 0.00024961654 0.0001507535
6.8912846e-07 0.001114254 -9.687147e-06 -2.5148654e-06 -0.03210076 -0.012053038 0.0017470341 -2.262517e-07
0.026195074 -0.00735188 -5.8888723e-05 0.0022518933 -0.004174281 1.3406699e-05 0.0037272342 0.0061569656
0.034388006 -2.1292312e-06 -0.024563128 -0.03193939 -0.029898515 0.02359516 -0.023179675 -4.1102758e-06
0.0117518725 -0.000121631994 0.00018462818 0.008282331 0.0057896446 0.021576189 -0.011114901 -0.0013697965
0.0010991393 -4.66477e-05 -0.00027351928 -1.5044975e-06 -0.007063183 -0.0011204146 0.028882317 -0.0022341784
1.562441e-06 -3.2623393e-06 -0.01216478 0.0049864524 -0.016256575 -0.000537023 -0.03382924 -0.017515866
-1.979078e-05 0.019000577 6.5840385e-07 -0.001217682 0.020101639 0.0059736576 0.0007994857 -0.019286867
1.8550934e-06 -0.0054134466 -0.02270333 -0.003598538 2.4267322e-07 -1.6034148e-06 0.0019631307 -1.6054762e-06
0.015416979 0.00037165277 -0.019090168 -0.009485264 0.025554735 -9.485318e-07 6.5240283e-06 -2.3350028e-06
0.024073375 3.7482427e-05 -0.022840219 -0.011873944 0.002384737 0.019434018 0.006366311 -0.024560248
-0.0018084385 -0.001211268 -0.015447733 0.0042598206 0.0046919957 0.018918283 -0.00093309954 2.9223938e-06
0.0075365594 -5.735714e-06 -0.021372518 0.005896315 0.024695082 -6.228762e-05 -1.1716442e-06 -1.217071e-06
-0.0006096112 -0.012396876 0.0062829694 4.299049e-05 0.016767604 -2.6574119e-06 0.034469273 -0.0011930459
-0.0014238252 0.0029232341 0.032866813 -0.020073496 -1.918297e-06 2.5874817e-05 -1.7006769e-06 1.800476e-07
-0.030182345 2.7356534e-06 -0.0050063627 -0.013493367 -0.014567731 3.6462336e-06 -0.008277837 -1.7091472e-05
-0.004599487 0.001827156 4.419003e-06 0.0024086682 -0.00085311267 6.454319e-05 -0.03014298 -2.68179e-06
-0.01384742 0.00088635413 6.631543e-05 0.0153396735 -0.026053054 0.0006115562 -6.5973956e-07 5.9219346e-05
-0.008824614 1.3999224e-06 -0.029086813 -1.451535e-06 0.014426318 -2.9048085e-06 -0.021733267 0.032918345
0.0256451 0.014558664 0.020587867 0.012151016 3.1907555e-05 0.0024643757 0.00030666444 0.025517983
0.03014817 0.00012944434 -0.0028355767 -4.1731355e-06 0.002541948 -0.030726127 -0.001502279 -0.033007454
6.002296e-07 0.016996287 0.01827375 4.3884322e-07
00000000: e1ab fe3a ff56 ffbc 122c 6d36 a72d 06bd
00000010: fa11 c93c 5e8c 77bc 5c9f 033b 0289 5fbc
00000020: eb09 a2bb f74f 023c 085b 863c 7942 8a36
00000030: 5936 c8bc 1caf 8638 f7de 8239 9613 1e39
00000040: 8cfc 3835 290c 923a fb85 22b7 0fc5 28b6
00000050: 167c 03bd 1b7a 45bc bdfc e43a 98ef 72b4
00000060: 0d97 d63c 0ae8 f0bb 49ff 76b8 8094 133b
00000070: 68c8 88bb 55ed 6037 9d44 743b 5fc0 c93b
00000080: 70da 0c3d eae3 0eb6 9d38 c9bc e1d2 02bd
00000090: bbed f4bc a34a c13c 4de3 bdbc 00eb 89b6
000000a0: ed8a 403c ae14 ffb8 c098 4139 9db2 073c
000000b0: 0fb7 bd3b 8cc0 b03c 461b 36bc be8a b3ba
000000c0: ff10 903a 96a7 43b8 2367 8fb9 24ee c9b5
000000d0: 4672 e7bb e0da 92ba 9c9a ec3c 4b6b 12bb
000000e0: 10b5 d135 90ee 5ab6 c94e 47bc 6565 a33b
000000f0: 822c 85bc 01c7 0cba 8790 0abd 6f7d 8fbc
00000100: 6004 a6b7 19a7 9b3c 2bbd 3035 a19a 9fba
00000110: 31ac a43c acbe c33b 9494 513a 7eff 9dbc
00000120: 86fc f835 4863 b1bb 55fc b9bc 73d5 6bbb
00000130: c148 8234 ea34 d7b5 dea7 003b be7b d7b5
00000140: 7f97 7c3c 64da c239 fc62 9cbc 1568 1bbc
00000150: 2a58 d13c 9c9e 7eb5 fae8 da36 0bb3 1cb6
00000160: 8735 c53c 7336 1d38 691b bbbc ee8a 42bc
00000170: 3f49 1c3b 1734 9f3c 7d9c d03b 9332 c9bc
00000180: 2009 edba 69c3 9eba 7d18 7dbc f795 8b3b
00000190: 50bf 993b 84fa 9a3c 409b 74ba 581e 4436
000001a0: 3ef5 f63b 6875 c0b6 6b15 afbc e035 c13b
000001b0: 574d ca3c 69a0 82b8 6341 9db5 3e5a a3b5
000001c0: 51ce 1fba 441c 4bbc 5ee1 cd3b b050 3438
000001d0: 375c 893c fd55 32b6 a72f 0d3d fa5f 9cba
000001e0: a59f baba bb93 3f3b 5a9f 063d 2c71 a4bc
000001f0: 17bc 00b6 bf0d d937 d042 e4b5 1c53 4134
00000200: f740 f7bc 2b96 3736 6a0c a4bb 4813 5dbc
00000210: 7ead 6ebc d1b1 7436 c49f 07bc a85f 8fb7
00000220: 4bb7 96bb 2f7d ef3a f246 9436 bfda 1d3b
00000230: 6ca3 5fba 5c5b 8738 69ee f6bc cdf8 33b6
00000240: 4ae0 62bc 385a 683a d312 8b38 4153 7b3c
00000250: 376d d5bc d850 203a f518 31b5 4a62 7838
00000260: 1d95 10bc f8e4 bb35 7847 eebc 5dd2 c2b5
00000270: 5d5c 6c3c 3bf0 42b6 f709 b2bc 63d5 063d
00000280: ac15 d23c 7687 6e3c e3a7 a83c 0e15 473c
00000290: 7ad4 0538 5d81 213b cec7 a039 170b d13c
000002a0: 4cf9 f63c 73bb 0739 15d5 39bb f606 8cb6
000002b0: d096 263b 5cb5 fbbc 1ee8 c4ba d332 07bd
000002c0: 771f 2135 cc3b 8b3c d5b2 953c 279a eb34

lin2.weight f4 [96, 180]
0.00310995 -0.05191119 -0.031365573 0.03177298 0.015434588 0.016577601 0.0421431 -0.053741235
0.0151867615 -0.034479037 -0.068267904 0.056530997 0.07167555 -0.045286674 0.04820446 -0.06950651
-0.000268695 0.047739867 0.043004982 0.0032881151 0.062032495 0.04224416 -0.04175863 -0.04937969
-0.020261409 0.041260365 -0.012402725 0.02648416 0.020394647 -0.077658 0.048545733 0.016683444
-0.045677315 -0.010372187 -0.061617628 -0.04654947 0.046096127 0.049590126 -0.00064349984 -0.013897505
0.041589856 0.04751234 -0.058334667 0.027567076 -0.029563487 0.021687437 0.05832851 -0.027321022
-0.060975634 0.0033647153 0.009649939 0.025732037 -0.068132825 -0.04863693 -0.069677666 -0.057870433
0.027900098 -0.06388646 -0.033331726 0.002580423 0.050391357 0.0731779 -0.03485179 -0.046822052
-0.019355068 0.06433778 0.019335829 0.0008096378 -0.06758625 -0.07002821 0.043412 -0.042695593
-0.06956568 -0.0026439219 -0.021566523 0.035245217 -0.03255988 0.06347244 -0.0008348188 0.032810636
-0.035409648 0.036869623 0.046952877 0.058422994 0.025960976 0.053328995 0.058725737 -0.018739574
0.06314088 -0.053898696 0.07167189 -0.055805337 0.018647054 0.06351009 0.04046962 0.048961658
0.03912766 -0.005112438 -0.025033122 -0.019979248 0.050398238 -0.08197783 -0.053046238 -0.045297354
-0.044981405 -0.014087347 0.043909617 0.018407457 0.07289309 -0.017181953 0.05225215 0.0015571963
0.04709768 0.062361166 0.038659696 0.057164885 -0.02581137 0.049599387 -0.00088098686 -0.02649998
0.0405217 0.05334393 0.073917106 0.042436913 -0.06670316 -0.020298464 0.06802951 0.039722513
0.056356225 0.024991203 -0.07628406 -0.011183916 0.04474685 0.048508514 0.044654652 -0.040756118
-0.06283309 -0.05183066 -0.029273134 0.047724072 0.032319173 0.061267674 0.046261813 -0.06258507
0.034696758 0.044203766 -0.027700612 0.06930346 -0.018887684 0.07946035 0.023481255 -0.017551333
-0.029925738 -0.04338441 0.051969867 -0.060372297 0.03425453 -0.04203338 0.029410925 -0.042916834
0.058901098 -0.050412916 -0.041311566 0.046803754 0.044818226 -0.014513484 0.03740791 -0.0611207
0.010657901 0.019826738 -0.048771765 -0.02833377 -0.054747175 0.019164715 -0.021809312 -0.01936886
0.07589816 0.02317074 0.054947082 -0.044177707 0.005454214 0.06997346 -0.047814544 -0.010577375
0.08103714 -0.013374399 -0.0009334932 0.01721437 -0.028036281 -0.057732392 0.0519626 -0.06120601
-0.020632232 0.014208422 0.04613425 0.04220782 0.0062132236 0.039203085 -0.041139886 0.017326666
0.039043423 -0.024296435 0.05060524 0.05350449 -0.028267508 0.06870193 -0.021342868 0.026852453
-0.023429308 -0.052450195 -0.014226093 0.023831371 0.016083606 0.071537085 0.05324063 0.036689732
0.037668005 -0.051754218 0.07684386 -0.04502031 -0.027923817 0.020734914 0.06971371 -0.03091243
0.07093851 -0.04387419 -0.059286214 0.06637496 -0.009857617 0.0052417424 -0.048756976 0.01344269
0.056440163 -0.036590908 -0.011633651 0.056197125 -0.034060493 0.003987789 -0.05967825 0.004318629
-0.018865861 0.030556412 -0.03157456 0.0529477 -0.023544533 -0.040323023 -0.021705735 -0.031241072
0.06729927 0.050197132 -0.015943749 0.07130505 0.029380424 0.06167336 -0.052695464 -0.019403672
00000000: 4ed0 4b3b d4a0 54bd 3079 00bd 6224 023d
00000010: 5be1 7c3c c0cd 873c 3e9e 2c3d c51f 5cbd
00000020: e5d1 783c e439 0dbd 0bd0 8bbd 0c8d 673d
00000030: a1ca 923d 857e 39bd 0a72 453d 6e59 8ebd
00000040: a2df 8cb9 e18a 433d fe25 303d 6b7d 573b
00000050: c915 7e3d 3608 2d3d 190b 2bbd 5c42 4abd
00000060: 41fb a5bc a100 293d cd34 4bbc 4ff5 d83c
00000070: ad12 a73c 280b 9fbd e4d7 463d b8ab 883c
00000080: 2318 3bbd 1bf0 29bc c462 7cbd a8aa 3ebd
00000090: 4bcf 3c3d 041f 4b3d 8bb0 28ba 5cb2 63bc
000000a0: 205a 2a3d 4d9c 423d 55f0 6ebd 59d4 e13c
000000b0: 202f f2bc daa9 b13c e0e9 6e3d 56d0 dfbc
000000c0: 96c1 79bd 8e82 5c3b c71a 1e3c fecb d23c
000000d0: 3989 8bbd 8437 47bd 2ab3 8ebd 8c09 6dbd
000000e0: bf8e e43c e8d6 82bd d986 08bd 501c 293b
000000f0: 2b67 4e3d 4bde 953d c0c0 0ebd 7bc8 3fbd
00000100: 858e 9ebc 87c3 833d 2c66 9e3c df3d 543a
00000110: a96a 8abd f36a 8fbd c8d0 313d 93e1 2ebd
00000120: 7478 8ebd a645 2dbb 47ac b0bc 4a5d 103d
00000130: 825d 05bd d7fd 813d bed7 5aba 7264 063d
00000140: b509 11bd 9a04 173d a951 403d f34c 6f3d
00000150: 1dac d43c 816f 5a3d 668a 703d bc83 99bc
00000160: 0150 813d e1c4 5cbd b6c8 923d 2394 64bd
00000170: b5c1 983c 9411 823d 79c3 253d 058c 483d
00000180: 5344 203d 3d86 a7bb 4312 cdbc 85ab a3bc
00000190: 626e 4e3d fee3 a7bd 0347 59bd b889 39bd
000001a0: 6c3e 38bd 9ece 66bc 92da 333d 3ccb 963c
000001b0: f948 953d 2bc1 8cbc 5a06 563d d61a cc3a
000001c0: 7fe9 403d 6c6e 7f3d a159 1e3d ba25 6a3d
000001d0: 5e72 d3bc ba28 4b3d 07f2 66ba 7c16 d9bc
000001e0: 15fa 253d 2a7f 5a3d da61 973d 54d2 2d3d
000001f0: ab9b 88bd f748 a6bc 0e53 8b3d 13b4 223d
00000200: c9d5 663d 5aba cc3c d13a 9cbd be3c 37bc
00000210: 7948 373d ddb0 463d cce7 363d e3ef 26bd
00000220: a3ae 80bd 634c 54bd 36ce efbc 517a 433d
00000230: 1c61 043d d0f3 7a3d 077d 3d3d 9a2c 80bd
00000240: 301e 0e3d 020f 353d 65ec e2bc f9ee 8d3d
00000250: 58ba 9abc 1cbc a23d c35b c03c d0c7 8fbc
00000260: d226 f5bc dab3 31bd 5bde 543d f148 77bd
00000270: 7a4e 0c3d 322b 2cbd 2eef f03c 90c9 2fbd
00000280: 4742 713d c67d 4ebd 5136 29bd 4bb5 3f3d
00000290: 5193 373d f7c9 6dbc 0939 193d b359 7abd
000002a0: 7a9e 2e3c af6b a23c e7c4 47bd 391c e8bc
000002b0: 933e 60bd 52ff 9c3c 71a9 b2bc 72ab 9ebc
000002c0: 7f70 9b3d 90d0 bd3c 3110 613d aff3 34bd
000002d0: 43b9 b23b 3f4e 8f3d 2fd9 43bd ba4c 2dbc
000002e0: cdf6 a53d 4c20 5bbc abb5 74ba 2705 8d3c
000002f0: 58ac e5bc cd78 6cbd bcd6 543d 27b3 7abd
00000300: ed04 a9bc 71ca 683c 44f7 3c3d 1be2 2c3d
00000310: 4c98 cb3b 6a93 203d 4c82 28bd a7f0 8d3c
00000320: ffeb 1f3d 5109 c7bc 7147 4f3d 8627 5b3d
00000330: 4391 e7bc 99b3 8c3d 3dd7 aebc adf9 db3c
00000340: d2ee bfbc 04d6 56bd 8f14 69bc 023a c33c
00000350: c4c1 833c 0982 923d d912 5a3d f947 163d
00000360: c449 1a3d 3bfc 53bd 5060 9d3d 3767 38bd
00000370: 7dc0 e4bc 44dc a93c 10c6 8e3d 103c fdbc
00000380: 3648 913d 6cb5 33bd 1ad6 72bd 98ef 873d
00000390: d881 21bc ecc2 ab3b 65b5 47bd ba3e 5c3c
000003a0: cd2d 673d 59e0 15bd 129b 3ebc f52e 663d
000003b0: 0483 0bbd 00ac 823b 2e71 74bd 4983 8d3b
000003c0: 948c 9abc 7151 fa3c 5354 01bd b0df 583d
000003d0: 77e0 c0bc c129 25bd 3ad0 b1bc 47ed ffbc
000003e0: 33d4 893d 829b 4d3d 779c 82bc 6208 923d
000003f0: 37af f03c 359d 7c3d 33d7 57bd 73f4 9ebc

lin2.bias f4 [96]
-0.018336777 0.0009872502 0.015621564 -9.401111e-07 0.024430627 -7.8449557e-07 0.0036298442 0.02615927
-0.020035429 0.015987756 -3.6789602e-06 0.008465826 0.01605549 -1.5945749e-05 0.0012313097 -1.603075e-06
9.947621e-08 -0.0036416855 -2.5967228e-07 0.029350966 -4.7278675e-07 -0.005584469 0.015879534 -0.029762773
-0.02939712 0.0011158666 -0.030520357 1.0788228e-06 -0.022653505 -0.0005105179 -0.0013158977 0.00505573
-0.00891014 5.84858e-06 0.023562735 -4.7241207e-07 0.0076518985 3.2780082e-07 2.4604435e-06 -5.8560213e-06
-0.0014044397 -4.456543e-06 0.023939967 -1.4516755e-06 -0.0018713373 -4.3018503e-07 -0.018467562 0.007705275
0.015806822 -0.03210148 -0.024832644 0.028620835 4.15392e-07 0.0005379691 3.2741243e-06 -2.1559927e-06
0.021248182 0.0118396375 0.012401568 0.02982115 -2.9030336e-06 0.01812866 0.017569365 -2.4707782e-05
0.025771005 0.0019328219 0.005949155 -0.015732061 -0.0269073 0.007131621 4.46019e-06 0.01123578
-0.009123276 -1.0701593e-06 0.024994312 -1.6282543e-06 0.00019539826 0.026277645 -0.00067962665 0.01506838
0.0022132513 0.03146545 -0.028321616 0.0017630233 0.007883705 0.020588463 0.030293556 -0.009670146
-0.0009151682 0.0014216867 -0.0031715096 -0.028066877 0.0010308232 -0.019150876 1.0247888e-06 0.0040319716
00000000: 0237 96bc 9f66 813a 97f1 7f3c f15b 7cb5
00000010: bd22 c83c 2096 52b5 aee2 6d3b f74b d63c
00000020: 5721 a4bc c1f8 823c 0ee4 76b6 3fb4 0a3c
00000030: ce86 833c 3cc3 85b7 e663 a13a 3d29 d7b5
00000040: a09f d533 58a9 6ebb 1669 8bb4 7071 f03c
00000050: 51d3 fdb4 ecfd b6bb cc15 823c 0fd1 f3bc
00000060: 3bd2 f0bc 4542 923a d405 fabc 12cc 9035
00000070: d893 b9bc 47d4 05ba 337a acba 8aaa a53b
00000080: d6fb 11bc eb3e c436 a306 c13c d29f fdb4
00000090: c7bc fa3b 9afc af34 191e 2536 d77e c4b6
000000a0: 2d15 b8ba 6a89 95b6 c01d c43c 31d7 c2b5
000000b0: a947 f5ba 2ef4 e6b4 4949 97bc 887c fc3b
000000c0: 4f7d 813c d77c 03bd d46d cbbc 3e76 ea3c
000000d0: 0b03 df34 7f06 0d3a 07b9 5b36 acaf 10b6
000000e0: ab10 ae3c 0afb 413c f22f 4b3c 7c4b f43c
000000f0: bdd1 42b6 8e82 943c a1ed 8f3c 8f43 cfb7
00000100: b71d d33c be56 fd3a 21f1 c23b 86e0 80bc
00000110: b36c dcbc 5fb0 e93b bea8 9536 4716 383c
00000120: cb79 15bc 65a2 8fb5 dfc0 cc3c 648a dab5
00000130: d2e3 4c39 3744 d73c f928 32ba 5ee1 763c
00000140: 320c 113b eae1 003d bc02 e8bc 3f15 e73a
00000150: a82a 013c 23a9 a83c 312a f83c 886f 1ebc
00000160: e6e7 6fba e457 ba3a 1ad9 4fbb 82ec e5bc
00000170: b01c 873a 4ce2 9cbc 7a8b 8935 a11e 843b

lin3.weight f4 [40, 96]
-0.009427068 -0.061785296 -0.013649963 0.06882658 0.059940763 -0.03912121 -0.051492266 -0.07772476
0.034714032 -0.0022762644 0.021500302 0.11310584 -0.09171958 0.016712358 -0.052008204 0.001861022
-0.099622086 0.047086302 0.012919942 0.0788959 0.011559374 -0.06900987 -0.024318598 -0.055149995
0.08786608 0.039135247 0.099445626 -0.064610034 0.08427529 0.026504863 0.08426413 0.04708731
0.0004191979 -0.010972245 0.024481595 0.023778439 -0.06959493 -0.048884876 0.060093414 -0.03609915
0.0462542 0.035774473 -0.048855044 0.06711849 0.049461402 -0.07645509 0.09413719 -0.039373294
-0.07710178 -0.09331831 0.042208113 0.075626716 -0.010568841 0.07442882 -0.08301145 -0.018079747
-0.055279028 0.0015690139 -0.0026510826 -0.054710142 -0.039888825 -0.05368127 -0.015682222 0.05433892
-0.028018016 0.04652549 -0.05715173 -0.0439142 0.0052774088 0.10540819 -0.0931523 0.06277514
0.057307154 -0.015669478 0.053736642 0.017190602 -0.07758735 0.07803217 -0.05268649 0.09222044
0.04063775 -0.0440758 -0.012909156 -0.034566853 -0.06397595 -0.073687784 -0.07901205 0.043261085
-0.012596542 -0.020610144 -0.019496592 -0.08017231 0.023501579 0.039931193 -0.06953542 -0.033362508
0.023543503 -0.055151265 0.004246502 -0.07273699 -0.04631703 0.06349206 0.0525635 0.013849146
-0.09167879 -0.0076788496 -0.044497795 0.068891354 0.003723904 0.10861113 0.029133605 0.034275427
0.07040539 -0.027910687 0.022469478 0.06713237 0.0060790414 0.03541291 0.0019275004 -0.08077756
0.085538045 0.004278233 0.056167584 -0.07234777 0.015692335 0.06772575 -0.09820591 -0.046623334
0.0058528236 -0.06947994 0.0738984 0.06358838 0.022844953 0.08945671 -0.018838046 -0.053666867
-0.046333335 0.036613666 0.002783614 -0.0061289966 0.045594465 -0.018352222 0.058759958 -0.018981144
-0.1004604 0.07376718 0.048100136 -0.05535494 0.034348447 0.0026247934 0.055114772 -0.019193325
-0.032989774 -0.05448427 -0.048707962 -0.07867296 0.044486273 0.026502464 -0.010862159 -0.073999695
0.04072267 -0.03849201 -0.10095794 -0.071657434 -0.036058553 -0.058652215 0.07980942 0.021771796
0.020756649 0.0048228814 -0.053832255 0.074749194 0.088939235 0.03330568 0.08960221 0.09439356
-0.026248435 -0.045200378 -0.042869687 0.040666457 0.017502593 0.056499984 -0.033350088 0.06997725
0.084239125 0.012759269 -0.00075624924 0.051525977 0.09484796 -0.021325983 0.08153866 -0.07541216
0.12099591 0.011048814 -0.06754486 0.011637148 0.043505985 0.09386234 0.11961207 0.04506405
-0.05208192 0.08228308 0.03698174 0.03373514 -0.06410552 -0.07063701 -0.051321268 0.01483194
0.023365056 -0.08195009 -0.08813417 -0.004067754 0.029394867 -0.06233287 0.08997828 -0.048667923
0.06659514 0.011113253 -0.02705593 0.06571539 0.0553872 0.012988019 0.028536933 -0.054730166
-0.019703584 -0.051443543 -0.07482783 -0.0019272481 0.025329487 -0.09341292 -0.066049814 0.051203158
-0.0076637785 -0.072647 0.09081489 -0.010588587 0.017479949 -0.022256747 -0.03633316 0.015244288
-0.04506386 0.10662234 -0.06838068 -0.046860844 -0.0780652 0.02290361 0.05173476 -0.047132216
-0.074608825 0.095218964 -0.07249797 0.07413864 0.046343185 -0.06465229 -0.006185303 0.02986224
00000000: fd73 1abc 9412 7dbd 18a4 5fbc f3f4 8c3d
00000010: 7284 753d 903d 20bd 8ee9 52bd 292e 9fbd
00000020: 4d30 0e3d 612d 15bb 6721 b03c 09a4 e73d
00000030: 7ad7 bbbd 5be8 883c 8e06 55bd 89ed f33a
00000040: aa06 ccbd 91dd 403d 2aae 533c 2c94 a13d
00000050: 8763 3d3c 0c55 8dbd cc37 c7bc f6e4 61bd
00000060: 22f3 b33d 484c 203d 26aa cb3d 4452 84bd
00000070: 8698 ac3d ba20 d93c ac92 ac3d a0de 403d
00000080: cac7 db39 eec4 33bc a08d c83c 00cb c23c
00000090: c987 8ebd 823b 48bd 8324 763d b4dc 13bd
000000a0: 0b75 3d3d 4188 123d 3a1c 48bd 6b75 893d
000000b0: 0a98 4a3d 7c94 9cbd 00cb c03d e445 21bd
000000c0: 8ae7 9dbd ac1d bfbd 6ae2 2c3d 2ee2 9a3d
000000d0: ef28 2dbc 236e 983d e801 aabd fa1b 94bc
000000e0: 436c 62bd 5fa7 cd3a c9bd 2dbb be17 60bd
000000f0: 7762 23bd e4e0 5bbd 0178 80bc 7d92 5e3d
00000100: 0a86 e5bc 8391 3e3d ef17 6abd 60df 33bd
00000110: 1dee ac3b 40e0 d73d a2c6 bebd 4190 803d
00000120: e8ba 6a3d 475d 80bc f41a 5c3d 4ed3 8c3c
00000130: 1ee6 9ebd 55cf 9f3d cacd 57bd 12de bc3d
00000140: c573 263d d388 34bd ed80 53bc f995 0dbd
00000150: d305 83bd 9fe9 96bd 12d1 a1bd 8932 313d
00000160: ba61 4ebc 9bd6 a8bc 51b7 9fbc 6131 a4bd
00000170: 6286 c03c e48e 233d 9668 8ebd 20a7 08bd
00000180: 4ede c03c 4be6 61bd 3e26 8b3b 22f7 94bd
00000190: edb6 3dbd 2008 823d d34c 573d 87e7 623c
000001a0: 17c2 bbbd dc9e fbbb 5243 36bd e916 8d3d
000001b0: be0c 743b 836f de3d 99a9 ee3c 6464 0c3d
000001c0: b330 903d f4a4 e4bc e911 b83c b27c 893d
000001d0: b232 c73b 210d 113d 2ea4 fc3a b56e a5bd
000001e0: 922e af3d 6b30 8c3b fb0f 663d 112b 94bd
000001f0: 368d 803c ccb3 8a3d 2e20 c9bd 1cf8 3ebd
00000200: 0bc9 bf3b 804b 8ebd 0b58 973d a03a 823d
00000210: 5725 bb3c 1435 b73d 3f52 9abc cad1 5bbd
00000220: 06c8 3dbd 36f8 153d 4b6d 363b c0d5 c8bb
00000230: 43c1 3a3d 6657 96bc 48ae 703d 587e 9bbc
00000240: 2fbe cdbd 3f13 973d a604 453d ddbb 62bd
00000250: f5b0 0c3d ba04 2c3b 07c0 613d 523b 9dbc
00000260: 4920 07bd e62a 5fbd 0082 47bd 4a1f a1bd
00000270: 3d37 363d b21b d93c 32f7 31bc 278d 97bd
00000280: d0cc 263d cca9 1dbd 09c3 cebd 22c1 92bd
00000290: 22b2 13bd 4e3d 70bd 1f73 a33d c45a b23c
000002a0: d909 aa3c 4309 9e3b 367f 5cbd 1b16 993d
000002b0: c625 b63d 896b 083d 5d81 b73d 6951 c13d
000002c0: f506 d7bc 0824 39bd 2098 2fbd df91 263d
000002d0: 9961 8f3c 876c 673d 1a9a 08bd 3c50 8f3d
000002e0: 9085 ac3d 410c 513c 073f 46ba e70c 533d
000002f0: a63f c23d d4b3 aebc befd a63d b171 9abd
00000300: b4cc f73d 1606 353c f654 8abd bda9 3e3c
00000310: 5533 323d e63a c03d 2cf7 f43d 1595 383d
00000320: da53 55bd 0884 a83d 2a7a 173d dc2d 0a3d
00000330: c149 83bd 23aa 90bd 4036 52bd aa01 733c
00000340: 1368 bf3c 73d5 a7bd b07f b4bd cb4a 85bb
00000350: 81cd f03c c050 7fbd 8846 b83d 0458 47bd
00000360: 0863 883d 5d14 363c 66a4 ddbc ca95 863d
00000370: b0dd 623d b3cb 543c 49c6 e93c bd2c 60bd
00000380: 6969 a1bc 77b6 52bd 553f 99bd b79b fcba
00000390: c97f cf3c 464f bfbd 2045 87bd 67ba 513d
000003a0: 6f20 fbbb f3c7 94bd 28fd b93d c17b 2dbc
000003b0: 1c32 8f3c c853 b6bc 14d2 14bd 2ec3 793c
000003c0: e294 38bd d05c da3d 2c0b 8cbd 28f1 3fbd
000003d0: a6e0 9fbd 5aa0 bb3c d4e7 533d b60d 41bd
000003e0: 83cc 98bd 2902 c33d d179 94bd 00d6 973d
000003f0: 5ad2 3d3d 6b68 84bd 15ae cabb a8a1 f43c

lin3.bias f4 [40]
0.00117539 0.010679012 -0.044646278 0.036767613 0.02517608 -0.042921685 -0.01689308 0.013761147
0.054945014 -0.0087843295 0.0014618393 0.0077311494 0.0474188 -0.008454147 -0.0298662 -0.052668013
0.0037779137 -5.0303612e-08 -0.04674911 -0.035338342 3.1631643e-07 0.013827855 -0.0019091597 0.055262614
1.5528346e-06 -0.048998706 -3.5536345e-07 0.010073833 -2.0042507e-06 -6.89727e-07 -0.02627586 -0.03964621
0.051975276 -0.035949916 -0.0018318569 0.0050444347 -0.033510327 0.021266313 -0.035972036 -1.490788e-07
00000000: 8b0f 9a3a 06f7 2e3c 04df 36bd a399 163d
00000010: 113e ce3c a6ce 2fbd 5b63 8abc 6f76 613c
00000020: 060e 613d 26ec 0fbc 309b bf3a 9555 fd3b
00000030: 373a 423d 4383 0abc f6a9 f4bc 6aba 57bd
00000040: e096 773b 680d 58b3 ff7b 3fbd f0be 10bd
00000050: 33d2 a934 3a8e 623c c53c faba 0d5b 623d
00000060: fe6a d035 deb2 48bd c8c8 beb4 b80c 253c
00000070: c480 06b6 ae25 39b5 7940 d7bc 1064 22bd
00000080: 07e4 543d 3840 13bd eb1a f0ba c94b a53b
00000090: 2042 09bd b136 ae3c 6a57 13bd 7812 20b4

lin4.weight f4 [1, 40]
-0.13173068 -0.012533457 0.03416512 -0.12714632 0.18713343 0.12557496 -0.03405545 -0.041030772
-0.033224232 0.1083067 -0.06218542 -0.01824099 0.04777727 0.121386915 0.002169829 -0.019821057
0.17933309 0.15352215 0.16816507 0.20081498 -0.006317098 -0.13954046 0.10010751 -0.05205783
0.029305898 -0.013504489 -0.030720105 0.047913104 -0.054001532 0.17040199 0.025798198 0.19028698
-0.06472601 0.1651755 -0.040330928 -0.13577287 0.040271994 -0.0989322 0.117893554 0.0130992215
00000000: 68e4 06be 2159 4dbc baf0 0b3d a532 02be
00000010: e89f 3f3e b996 003e ba7d 0bbd e20f 28bd
00000020: 2216 08bd e7cf dd3d 24b6 7ebd 216e 95bc
00000030: 19b2 433d b499 f83d b133 0e3b c55f a2bc
00000040: 18a3 373e e934 1d3e 7733 2c3e 71a2 4d3e
00000050: a9ff cebb b2e3 0ebe 2b05 cd3d 973a 55bd
00000060: ec12 f03c ef41 5dbc bba8 fbbc 8840 443d
00000070: b630 5dbd dc7d 2e3e be56 d33c 97da 423e
00000080: 128f 84bd c423 293e 0b32 25bd 0b08 0bbe
00000090: 3ff4 243d f79c cabd 2d72 f13d 1e9e 563c

bn1.weight f4 [180]
0.9910019 0.989534 0.9959837 0.9973435 1.0067971 1.0145139 1.004377 0.9941986
0.98928034 1.0045413 1.0076165 0.99192655 0.99925053 0.9977488 0.9948221 0.99314976
0.99643224 1.0012263 0.9903475 0.99832004 1.0055751 0.9968942 1.0019822 0.99961185
1.0037175 0.9989355 0.994647 0.98779017 0.9905311 0.9992285 0.994955 1.0113295
0.9908981 0.9979169 1.0076119 0.9998128 0.99657965 0.9998071 1.0015045 0.9959119
0.992463 0.9964862 0.99909884 0.99585146 0.99395204 0.9842034 1.0097729 1.0030444
0.9946808 0.9924864 0.99359846 0.99105865 0.99090815 1.0004969 1.0015246 0.98946124
0.99600995 1.0024377 0.9995042 1.0008998 0.99710745 0.98811924 1.0089338 0.9978499
0.9999689 0.99848026 1.0035274 0.9936902 0.9940022 0.9830034 0.98881865 0.99109125
1.002959 0.9859784 0.9881116 0.99693644 0.9941344 1.0003896 1.0062336 0.9965183
1.0057251 0.9945206 0.9935649 1.0126308 0.9942366 0.99002904 0.9925415 0.9954871
0.99030906 0.98962796 1.001032 0.99213254 1.0046426 0.9888608 0.99761987 0.99172044
0.99963915 1.0042533 0.9965437 0.9967129 0.99851567 0.9938577 1.003759 0.9930878
0.98369974 0.99926525 1.0010734 0.997149 1.001507 0.9945106 1.0062943 0.99356914
0.99434 0.99288726 1.0030555 0.9947828 1.003079 0.9925542 0.99635905 0.9926235
0.9917888 0.9899021 0.99356043 0.9932133 0.9923373 0.9955927 0.99527484 0.9967174
1.0057302 0.980106 1.0131737 1.0035964 1.015272 1.000586 1.0055184 0.9908605
0.9913115 1.0024134 0.9994277 1.0080727 0.99544436 0.99388874 0.99648696 0.99758905
1.0020006 0.99062157 0.9972669 0.99620044 0.99357593 0.9934328 1.0025684 1.0062376
0.9902642 0.9881079 0.99276805 0.9985818 0.997956 0.99348336 0.99221474 1.005913
0.9998676 0.9911762 1.0044049 0.9988501 0.9953885 0.99784213 0.9885068 0.991889
0.99334186 0.9865362 1.0062279 0.99332184 0.9996115 0.99661905 0.9964723 0.9886944
1.0007371 0.99614596 1.0042262 1.002309
00000000: 4db2 7d3f 1a52 7d3f caf8 7e3f e751 7f3f
00000010: bade 803f 97db 813f 6d8f 803f cd83 7e3f
00000020: 7a41 7d3f cf94 803f 94f9 803f e6ee 7d3f
00000030: e2ce 7f3f 776c 7f3f a9ac 7e3f 103f 7e3f
00000040: 2f16 7f3f 2f28 803f 6a87 7d3f e791 7f3f
00000050: afb6 803f 7534 7f3f f440 803f 90e6 7f3f
00000060: d179 803f 3dba 7f3f 30a1 7e3f d1df 7c3f
00000070: 7293 7d3f 70cd 7f3f 5fb5 7e3f 3f73 813f
00000080: 7fab 7d3f 7b77 7f3f 6df9 803f bbf3 7f3f
00000090: d81f 7f3f 5cf3 7f3f 4d31 803f 15f4 7e3f
000000a0: 0e12 7e3f b819 7f3f f1c4 7f3f 1ff0 7e3f
000000b0: a473 7e3f c1f4 7b3f 3d40 813f c263 803f
000000c0: 67a3 7e3f 9713 7e3f 785c 7e3f 05b6 7d3f
000000d0: 28ac 7d3f 4810 803f f531 803f 554d 7d3f
000000e0: 82fa 7e3f e14f 803f 82df 7f3f 7c1d 803f
000000f0: 6f42 7f3f 62f5 7c3f be24 813f 1773 7f3f
00000100: f6fd 7f3f 679c 7f3f 9673 803f 7b62 7e3f
00000110: ee76 7e3f 1ca6 7b3f 3823 7d3f 28b8 7d3f
00000120: f660 803f 1569 7c3f e2f4 7c3f 3a37 7f3f
00000130: 987f 7e3f c40c 803f 43cc 803f d31b 7f3f
00000140: 9abb 803f e798 7e3f 455a 7e3f e39d 813f
00000150: 4a86 7e3f 8b72 7d3f 3317 7e3f 3ed8 7e3f
00000160: e584 7d3f 4258 7d3f d121 803f 66fc 7d3f
00000170: 2198 803f fb25 7d3f 0464 7f3f 64e1 7d3f
00000180: 5ae8 7f3f 5f8b 803f 7d1d 7f3f 9428 7f3f
00000190: b99e 7f3f 756d 7e3f 2d7b 803f 013b 7e3f
000001a0: bfd3 7b3f d9cf 7f3f 2c23 803f 2845 7f3f
000001b0: 6231 803f 3f98 7e3f 40ce 803f 8c5a 7e3f
000001c0: 118d 7e3f dc2d 7e3f 1f64 803f 16aa 7e3f
000001d0: e564 803f 0818 7e3f 6311 7f3f 931c 7e3f
000001e0: dfe5 7d3f 396a 7d3f fa59 7e3f 3a43 7e3f
000001f0: d109 7e3f 2adf 7e3f 55ca 7e3f df28 7f3f
00000200: c4bb 803f 3ae8 7a3f adaf 813f d975 803f
00000210: 6ff4 813f 3413 803f d4b4 803f 09a9 7d3f
00000220: 97c6 7d3f 154f 803f 7eda 7f3f 8708 813f
00000230: 71d5 7e3f 7e6f 7e3f c519 7f3f ff61 7f3f
00000240: 8e41 803f 6099 7d3f e24c 7f3f fe06 7f3f
00000250: fe5a 7e3f 9d51 7e3f 2954 803f 65cc 803f
00000260: f481 7d3f a4f4 7c3f 0c26 7e3f 0fa3 7f3f
00000270: 0b7a 7f3f ed54 7e3f c901 7e3f c2c1 803f
00000280: 53f7 7f3f b9bd 7d3f 5790 803f a4b4 7f3f
00000290: c8d1 7e3f 9572 7f3f c80e 7d3f 70ec 7d3f
000002a0: a74b 7e3f a38d 7c3f 13cc 803f 574a 7e3f
000002b0: 8ae6 7f3f 6d22 7f3f cf18 7f3f 141b 7d3f
000002c0: 2718 803f 6c03 7f3f 7c8a 803f a94b 803f

bn1.bias f4 [180]
-0.0072022877 -0.0028626095 -0.011219445 -0.00048008485 -0.004871614 -0.0028496175 -0.000866309 -0.0037565797
-0.0061127697 0.0037384427 0.0021836907 -0.010591207 -0.0030124704 -0.01036309 0.0010599489 0.0017241801
-0.0076810173 0.004760056 -0.005466666 0.0009743563 -0.005565704 -0.00029810928 -0.001444095 -0.0064474493
0.0031456465 0.0031017002 0.0006171337 -0.0012811583 -0.0058356863 -0.001615505 -0.0027236862 -2.4418718e-05
-0.0062819286 -0.00062082894 0.011823586 -0.0039098444 0.0019559036 -0.00024177755 -0.0038281404 0.0018329583
0.004093462 -0.0042635463 0.0018891494 -0.013122071 -0.0051634596 -0.009657089 0.005392104 -0.008829301
-0.0032098235 -0.006097994 -0.008504311 -0.0034342606 -0.006684197 0.00452419 -0.003001719 -0.016583912
0.0011857975 0.0057925046 -0.009032114 0.0010808506 -0.0058683455 -0.011691096 0.00530399 0.0041310876
-0.00072804565 0.00068085315 0.00026315823 -0.010062839 -0.002578845 -0.015726816 -0.0060660928 -0.00830022
0.0017442552 -0.012402556 -0.00913552 0.0012168955 -0.00997234 0.0040803114 -0.0039506834 -0.0077297958
-0.0047208252 -0.007933006 -0.0065745516 0.0018174781 -0.0013526359 -0.005158603 -0.018241439 -0.0015911834
0.004251319 -0.008397981 -0.005180206 -0.0034806211 0.00039159492 -0.0032424342 0.00067727873 -0.014802833
0.0020676297 -0.0027119487 -8.0368925e-05 -0.010082074 0.001320846 0.0014174093 0.0010741008 0.0023141934
-0.001901758 -0.0068802913 2.3379473e-06 -0.0012202752 0.0037433808 -0.0037090247 -0.010734172 -0.0042799427
-0.009931351 -0.008594575 -0.0065721544 -0.0030283034 -0.0048226924 -0.004219033 -0.0002804264 -0.00015068616
-0.0085251685 -0.00940025 0.004142451 -0.0072322595 -0.0044010985 -0.009044752 -0.0005719407 -0.009119487
0.0050880313 -0.012123779 0.0024677971 -0.0022984021 -0.002541766 0.0043436843 -0.00090631517 -0.010901662
-0.008845823 0.002118417 0.005965527 -0.0021454873 0.00031873514 -0.0054516317 -0.001978798 -0.0026434988
0.0018029389 -0.00011437142 -0.00079355447 0.0058933236 0.006324651 -0.0036400065 0.005359963 0.00714028
-0.0047217417 -0.007903038 -0.00946762 -0.007824373 -0.009653975 -0.0016344851 -0.00069773465 0.011764558
-0.0048156804 -0.0054602334 0.011991628 0.0020485853 -0.0021398494 0.001725712 -0.0137202935 -0.0032912695
-0.0019523586 -0.011976556 0.010242662 -0.00444336 0.0024004683 -0.005367405 -0.0026584936 -0.008511665
0.0028972998 -0.009749372 0.0004916246 -0.00057716353
00000000: 2b01 ecbb 9e9a 3bbb c3d1 37bc e6b3 fbb9
00000010: 0fa2 9fbb a6c0 3abb 0319 63ba f330 76bb
00000020: a14d c8bb a900 753b 401c 0f3b be86 2dbc
00000030: de6c 45bb f3c9 29bc fced 8a3a e2fd e13a
00000040: 0bb1 fbbb 3efa 9b3b b821 b3bb f26b 7f3a
00000050: 8260 b6bb 8d4b 9cb9 ca47 bdba 2045 d3bb
00000060: 3127 4e3b e545 4b3b 24c7 213a 8aec a7ba
00000070: 4939 bfbb 5abf d3ba df7f 32bb ccd6 ccb7
00000080: a3d8 cdbb 20bf 22ba b7b7 413c 271e 80bb
00000090: 9e2e 003b ab85 7db9 8ae1 7abb e03f f03a
000000a0: 7322 863b 38b5 8bbb 569d f73a f4fd 56bc
000000b0: 3d32 a9bb c438 1ebc 3fb0 b03b c6a8 10bc
000000c0: e75b 52bb aed1 c7bb aa55 0bbc 5511 61bb
000000d0: 1c07 dbbb a83f 943b 7db8 44bb fcda 87bc
000000e0: c36c 9b3a 0dcf bd3b 6ffb 13bc 54ab 8d3a
000000f0: 404b c0bb 038c 3fbc 18cd ad3b 135e 873b
00000100: 51da 3eba 487b 323a 80f8 8939 9bde 24bc
00000110: d701 29bb 86d5 80bc 13c6 c6bb a5fd 07bc
00000120: 7e9f e43a 1734 4bbc 26ad 15bc 3d80 9f3a
00000130: 0763 23bc 22b4 853b bc74 81bb 3a4a fdbb
00000140: 27b1 9abb 70f9 01bc 566f d7bb 7238 ee3a
00000150: ee4a b1ba 8009 a9bb 126f 95bc 418f d0ba
00000160: a64e 8b3b af97 09bc b8be a9bb 221b 64bb
00000170: fb4e cd39 057f 54bb 688b 313a 9587 72bc
00000180: 1281 073b f3ba 31bb bd8b a8b8 492f 25bc
00000190: 3d20 ad3a 5dc8 b93a d8c8 8c3a b9a9 173b
000001a0: 6944 f9ba 1174 e1bb a1e5 1c36 a4f1 9fba
000001b0: 8253 753b 1c13 73bb 61de 2fbc c33e 8cbb
000001c0: 1bb7 22bc 43d0 0cbc 3a5b d7bb 8076 46bb
000001d0: ad07 9ebb d03f 8abb 3206 93b9 8201 1eb9
000001e0: 26ad 0bbc 8203 1abc 66bd 873b 97fc ecbb
000001f0: 1737 90bb 7130 14bc 4aee 15ba e769 15bc
00000200: 80b9 a63b d1a2 46bc c4ba 213b caa0 16bb
00000210: c293 26bb 7755 8e3b c895 6dba e29c 32bc
00000220: 12ee 10bc 24d5 0a3b 787a c33b 4e9b 0cbb
00000230: e81b a739 9aa3 b2bb b9ae 01bb 8d3e 2dbb
00000240: 9750 ec3a b0da efb8 8a06 50ba c81c c13b
00000250: 053f cf3b 2d8d 6ebb a1a2 af3b 03f9 e93b
00000260: d7b8 9abb be7b 01bc 141e 1bbc cd31 00bc
00000270: b52b 1ebc 383c d6ba 2ee8 36ba 22c0 403c
00000280: dbcc 9dbb c2eb b2bb 8978 443c 8f41 063b
00000290: b73c 0cbb 4931 e23a 15cb 60bc 57b2 57bb
000002a0: 49e6 ffba 5139 44bc d7d0 273c 9b99 91bb
000002b0: 2d51 1d3b 0ee1 afbb 1f3a 2ebb 8374 0bbc
000002c0: a0e0 3d3b d4bb 1fbc 5ee0 003a ca4c 17ba

bn1.running_mean f4 [180]
-0.29002094 0.06328539 -0.05922226 0.08534608 0.10391439 0.026603555 0.0853199 0.062414017
0.09205668 -0.27228662 0.10963557 -0.20376906 -0.0941203 -0.014060345 -0.27073872 -0.12185504
0.41047487 -0.11897018 0.16766039 -0.055750623 -0.086292334 0.016311033 0.025002027 -0.08585172
-0.05921423 0.18498747 0.12133522 0.04763555 -0.2886815 -0.30124888 -0.051509283 0.094648615
-0.1908117 -0.28450894 0.06990835 -0.051625468 -0.08701935 -0.1940254 -0.07861185 -0.09129812
0.055377968 -0.09395191 0.2924012 -0.0490392 0.06938126 0.14609964 0.2641802 -0.15578423
0.05112599 -0.32540095 -0.26000497 -0.029666781 -0.0067244857 -0.19962393 -0.387841 0.10574292
-0.1977927 -0.16361247 -0.011891552 -0.21362558 -0.12811135 -0.3331952 -0.30516744 -0.064350694
0.17755705 0.01699432 0.05765025 0.00017549575 -0.21964286 0.2774912 0.29806644 0.04652178
-0.1557692 0.11912669 0.037639536 -0.19093773 0.13420065 0.015675986 0.0062036365 -0.15105681
0.21047953 -0.20295201 0.024875501 0.1612994 -0.1324199 -0.27189904 0.122749455 0.05301465
0.39531073 -0.11183952 -0.034307525 -0.1286713 0.1857807 -0.5208162 0.03343402 -0.38800988
0.2616454 0.0736369 -0.087828174 -0.14909483 0.1838025 -0.0033792292 -0.08983888 0.15213986
-0.137694 -0.16362053 -0.24783641 0.021557914 0.17801318 0.30224696 -0.2960884 -0.2715139
0.18414421 -0.01965357 0.117964804 0.15839079 0.09963224 -0.4043077 0.32771784 0.14116183
-0.16028488 -0.20343867 0.20748073 -0.1966919 -0.28697067 -0.2783476 -0.18619016 -0.07348261
-0.09565667 -0.37819853 -0.1404693 0.1857679 -0.1318007 0.14017138 0.008562746 0.045932397
0.2126842 -0.23717955 0.0077922135 -0.04064068 -0.32963094 0.33791333 0.53333133 0.10150127
0.05780017 -0.011930542 0.0991095 0.26920676 -0.101024345 -0.1812377 0.07836337 0.33354852
-0.045186818 0.434243 -0.043024905 -0.24577896 -0.0046767252 -0.14791678 0.41671154 0.019772539
-0.11719744 -0.2574344 0.061243918 -0.2436812 -0.16601287 0.029924685 0.02681849 0.04647437
-0.2009298 0.09324637 0.16313243 -0.050871555 -0.017294534 -0.35814467 -0.14600387 -0.0030401733
-0.0894835 0.37149644 0.07317681 -0.21048985
00000000: a07d 94be c59b 813d 0a93 72bd edc9 ae3d
00000010: 11d1 d43d b3ef d93c 33bc ae3d d7a5 7f3d
00000020: 3688 bc3d 2769 8bbe 9d88 e03d d6a8 50be
00000030: 25c2 c0bd 5c5d 66bc 449e 8abe 238f f9bd
00000040: c329 d23e a3a6 f3bd 2aaf 2b3e c45a 64bd
00000050: 09ba b0bd b79e 853c 0dd1 cc3c 07d3 afbd
00000060: 9f8a 72bd 5b6d 3d3e 9a7e f83d 7f1d 433d
00000070: 10ce 93be 4b3d 9abe 66fb 52bd 22d7 c13d
00000080: 2464 43be 28ab 91be 1c2c 8f3d 3a75 53bd
00000090: 3337 b2bd 98ae 46be 40ff a0bd 82fa babd
000000a0: 02d4 623d dc69 c0bd 9cb5 953e 54dd 48bd
000000b0: c317 8e3d 259b 153e a142 873e e785 1fbe
000000c0: 7c69 513d f49a a6be 5f1f 85be c007 f3bc
000000d0: 1359 dcbb 376a 4cbe 1893 c6be be8f d83d
000000e0: 2b8a 4abe 078a 27be c9d4 42bc aac0 5abe
000000f0: 9f2f 03be 9098 aabe e83e 9cbe 4cca 83bd
00000100: 84d1 353e ac37 8b3c ab22 6c3d 4805 3839
00000110: 0fea 60be 5413 8e3e 2a9c 983e 9f8d 3e3d
00000120: f681 1fbe b2f8 f33d ea2b 1a3d 2e85 43be
00000130: e56b 093e ed6a 803c e047 cb3b a3ae 1abe
00000140: f287 573e a7d2 4fbe b5c7 cb3c ab2b 253e
00000150: 1599 07be 5a36 8bbe 1164 fb3d e425 593d
00000160: 2b66 ca3e 1e0c e5bd 0c86 0cbd 69c2 03be
00000170: 4c3d 3e3e 3654 05bf 1cf2 083d 3ba9 c6be
00000180: 63f6 853e f1ce 963d 42df b3bd 51ac 18be
00000190: b936 3c3e 0f76 5dbb 72fd b7bd 8dca 1b3e
000001a0: a8ff 0cbe 248c 27be d4c8 7dbe 399a b03c
000001b0: 1649 363e 1dc0 9a3e e698 97be df03 8bbe
000001c0: 4d90 3c3e 8600 a1bc 8897 f13d 3231 223e
000001d0: fd0b cc3d 6b01 cfbe a2ca a73e ba8c 103e
000001e0: b821 24be 3a52 50be d475 543e 9a69 49be
000001f0: d2ed 92be 9483 8ebe a2a8 3ebe 0d7e 96bd
00000200: a5e7 c3bd 3da3 c1be 2fd7 0fbe f139 3e3e
00000210: c3f6 06be 1689 0f3e c34a 0c3c 9c23 3c3d
00000220: e3c9 593e 32df 72be d355 ff3b d776 26bd
00000230: 63c5 a8be fa02 ad3e 6788 083f e6df cf3d
00000240: dfbf 6c3d 5278 43bc ecf9 ca3d 78d5 893e
00000250: dae5 cebd 6096 39be f97c a03d dfc6 aa3e
00000260: d015 39bd 1955 de3e e23a 30bd 7bad 7bbe
00000270: 373f 99bb 7f77 17be 375b d53e 05fa a13c
00000280: 3605 f0bd 71ce 83be e7da 7a3d 9187 79be
00000290: 47ff 29be 9d24 f53c 73b2 db3c e95b 3e3d
000002a0: 8bc0 4dbe f4f7 be3d 300c 273e b15e 50bd
000002b0: 44ad 8dbc bd5e b7be 0a82 15be a53d 47bb
000002c0: 2043 b7bd c834 be3e b9dd 953d a78a 57be

bn1.running_var f4 [180]
0.046938974 0.039524656 0.043955855 0.039138056 0.047168538 0.047063686 0.04044637 0.047663603
0.03941051 0.05905686 0.038212035 0.04673624 0.050883245 0.06155443 0.063973665 0.044710025
0.090747796 0.04076775 0.03800727 0.033507586 0.031957604 0.04309778 0.03469905 0.036080655
0.039494935 0.052411404 0.032859083 0.030109165 0.04373217 0.032938156 0.025770314 0.06072473
0.04089236 0.053192127 0.042343345 0.044558197 0.02693707 0.055388443 0.059217475 0.03010519
0.057924334 0.09908841 0.03693932 0.03567476 0.04459462 0.05110932 0.043351855 0.053497925
0.048490845 0.06250647 0.04209557 0.038609535 0.030305007 0.044544835 0.043642092 0.0670981
0.06089929 0.036632717 0.036221817 0.04235647 0.0540673 0.05114849 0.04485281 0.04349437
0.032437254 0.047027845 0.07645033 0.03270708 0.042172436 0.0506256 0.039429132 0.031133061
0.03909199 0.0394684 0.07318402 0.04408387 0.05222008 0.03878277 0.031086994 0.039247375
0.042448744 0.044314757 0.032440975 0.036610484 0.03778818 0.06605515 0.026993958 0.0406584
0.065465234 0.042582065 0.0300867 0.03237002 0.06026565 0.068062685 0.04593269 0.047326405
0.03800518 0.03274656 0.033091348 0.045111384 0.03800774 0.034037277 0.037829626 0.048379626
0.059963904 0.04776448 0.04386303 0.026325556 0.033941947 0.036811467 0.05350543 0.042196475
0.053443715 0.031971823 0.040429384 0.053260952 0.03498938 0.06668909 0.03652671 0.04272056
0.029696934 0.042287324 0.03350624 0.04203865 0.057170846 0.07747778 0.050265722 0.037675444
0.04063424 0.04317426 0.03672994 0.04779351 0.044270843 0.06433218 0.037256148 0.04695384
0.05536079 0.046601526 0.06254278 0.03710077 0.03079924 0.057004195 0.09923988 0.031290002
0.04248645 0.040912244 0.03912108 0.03581184 0.058668748 0.04210213 0.057431992 0.04247569
0.031127285 0.046083488 0.03754979 0.040606886 0.03660524 0.043984305 0.078474686 0.025398226
0.035912827 0.045233987 0.02940643 0.03845573 0.037372738 0.036650356 0.05257021 0.053123813
0.03926154 0.04484085 0.049969506 0.038911007 0.027739272 0.037526675 0.036776293 0.036742523
0.050072383 0.07121635 0.03156025 0.03162295
00000000: 1543 403d 9be4 213d 0e0b 343d 3a4f 203d
00000010: cc33 413d dac5 403d 18ab 253d e93a 433d
00000020: ea6c 213d 9be5 713d 3984 1c3d 806e 3f3d
00000030: f36a 503d 7f20 7c3d a004 833d dc21 373d
00000040: fbd9 b93d 16fc 263d 83ad 1b3d 403f 093d
00000050: fae5 023d 4c87 303d 9720 0e3d 4fc9 133d
00000060: 71c5 213d 57ad 563d 3f97 063d 7fa7 f63c
00000070: 8120 333d 29ea 063d 441c d33c 7fba 783d
00000080: bf7e 273d fddf 593d 3770 2d3d a882 363d
00000090: 21ab dc3c fede 623d 068e 723d 299f f63c
000000a0: 1142 6d3d ddee ca3d af4d 173d b21f 123d
000000b0: d9a8 363d 0258 513d b791 313d a420 5b3d
000000c0: 569e 463d 6403 803d 686c 2c3d 0825 1e3d
000000d0: 3542 f83c a574 363d 0dc2 323d bb6a 893d
000000e0: 8971 793d 300c 163d 545d 143d fa7d 2d3d
000000f0: ac75 5d3d 1481 513d 95b7 373d 2727 323d
00000100: eddc 043d 45a0 403d fe91 9c3d dcf7 053d
00000110: 01bd 2c3d ca5c 4f3d 7180 213d c30a ff3c
00000120: ec1e 203d 9ea9 213d 81e1 953d 4a91 343d
00000130: b9e4 553d afda 1e3d 27aa fe3c dbc1 203d
00000140: bcde 2d3d 6483 353d d4e0 043d e0f4 153d
00000150: c7c7 1a3d ec47 873d 6f22 dd3c 6c89 263d
00000160: a312 863d 886a 2e3d 6278 f63c 6d96 043d
00000170: 1dd9 763d 7364 8b3d eb23 3c3d 55d9 413d
00000180: 52ab 1b3d 4221 063d cb8a 073d b7c6 383d
00000190: 01ae 1b3d ac6a 0b3d 3df3 1a3d b729 463d
000001a0: b69c 753d b0a4 433d b8a9 333d b1a8 d73c
000001b0: b606 0b3d 9fc7 163d 8328 5b3d 36d6 2c3d
000001c0: cce7 5a3d e3f4 023d 4899 253d 2828 5a3d
000001d0: 0651 0f3d 4a94 883d 089d 153d c1fb 2e3d
000001e0: fc46 f33c 7935 2d3d d73d 093d b830 2c3d
000001f0: fa2b 6a3d acac 9e3d 6ee3 4d3d 9151 1a3d
00000200: 1770 263d 7ed7 303d 2272 163d 21c3 433d
00000210: 5855 353d 97c0 833d e799 183d ab52 403d
00000220: ffc1 623d 3ee1 3e3d 6e16 803d faf6 173d
00000230: b04e fc3c 3b7d 693d 473e cb3d f229 003d
00000240: 4606 2e3d 9993 273d 6d3d 203d 70af 123d
00000250: a44e 703d 4873 2c3d cf3d 6b3d fdfa 2d3d
00000260: a6fe fe3c 0ac2 3c3d cfcd 193d 6853 263d
00000270: 60ef 153d e328 343d 56b7 a03d f10f d03c
00000280: 5419 133d 4647 393d c1e5 f03c c183 1d3d
00000290: 2814 193d af1e 163d dc53 573d 5b98 593d
000002a0: b5d0 203d 0aab 373d d3ac 4c3d 2661 1f3d
000002b0: 783d e33c 92b5 193d bda2 163d 547f 163d
000002c0: b318 4d3d e1d9 913d 5245 013d 1187 013d

bn2.weight f4 [96]
0.99152577 0.9902776 0.99121124 0.99209553 0.99288934 1.0014188 1.0044622 0.9791079
1.0062324 0.9895395 0.9989158 1.0201699 0.9911715 0.99826163 1.004819 0.9834511
0.99786794 0.99446404 0.9880486 0.9940079 0.9962418 0.9976433 1.0180407 1.0015858
0.98869175 0.98743033 0.9972031 0.9875273 0.9951837 1.0191333 0.9969731 1.0006249
1.006546 0.9833367 0.9870669 0.9893264 0.9969989 0.98626804 1.0257525 0.9996123
0.9965783 1.008312 0.98893255 1.0044206 1.0142938 1.0074031 0.99717927 1.0021483
0.9955283 0.9987157 1.0102673 0.98423564 0.99950695 0.9917702 0.9873663 0.9968585
0.9940731 0.9884591 0.98977643 1.0083038 1.0020086 0.98317766 0.99325585 0.9877684
1.003191 1.0194321 1.0027922 1.0041215 0.9858597 0.99041545 0.9852786 0.9924492
0.98881286 1.0079403 0.995138 0.9907526 0.9908048 1.0120591 0.98290324 1.0095003
0.982676 0.99694806 0.99049 0.98923916 0.9895159 0.9933364 0.99363565 1.0125923
0.998386 0.97759277 0.982875 0.9893258 0.9898565 0.9961589 0.9878763 1.0087408
00000000: a2d4 7d3f d582 7d3f 05c0 7d3f f9f9 7d3f
00000010: ff2d 7e3f 7e2e 803f 3892 803f d1a6 7a3f
00000020: 39cc 803f 7652 7d3f f2b8 7f3f ed94 823f
00000030: 6abd 7d3f 138e 7f3f e99d 803f 74c3 7b3f
00000040: 4674 7f3f 3295 7e3f c1f0 7c3f 4d77 7e3f
00000050: b409 7f3f 8d65 7f3f 284f 823f f733 803f
00000060: e71a 7d3f 3cc8 7c3f b448 7f3f 97ce 7c3f
00000070: 5cc4 7e3f f672 823f a139 7f3f 7a14 803f
00000080: 80d6 803f f4bb 7b3f 6bb0 7c3f 7f44 7d3f
00000090: 523b 7f3f 107c 7c3f dc4b 833f 97e6 7f3f
000000a0: c11f 7f3f 5e10 813f af2a 7d3f db90 803f
000000b0: 61d4 813f 96f2 803f 2447 7f3f 6546 803f
000000c0: f1da 7e3f d5ab 7f3f 7050 813f def6 7b3f
000000d0: b0df 7f3f a7e4 7d3f 0ac4 7c3f 1e32 7f3f
000000e0: 937b 7e3f a80b 7d3f fd61 7d3f 1910 813f
000000f0: d141 803f 88b1 7b3f 0446 7e3f 64de 7c3f
00000100: 9068 803f c07c 823f 7f5b 803f 0e87 803f
00000110: 4d61 7c3f de8b 7d3f 383b 7c3f 2711 7e3f
00000120: d722 7d3f 3004 813f 5dc1 7e3f f6a1 7d3f
00000130: 62a5 7d3f 278b 813f 8c9f 7b3f 4e37 813f
00000140: a890 7b3f fd37 7f3f c190 7d3f c73e 7d3f
00000150: ea50 7d3f 4b4b 7e3f e85e 7e3f a09c 813f
00000160: 3a96 7f3f 8543 7a3f b29d 7b3f 7544 7d3f
00000170: 3c67 7d3f 4504 7f3f 76e5 7c3f 6b1e 813f
