Proposed model/saved_best_DNN_model/0.39289model_fingerp7.pth (torch, 216672 bytes, 19 tensors)

lin1.weight f4 [180, 166]
00000000: 323e c3bc f871 10b3 6981 33bd dad3 edbb
00000010: fe56 ebbc 616f 94ba f32e 15bc aa03 a8bc
00000020: 455e 9fbd 5606 7c3d b2aa 07bd ce0c 9c3b
00000030: 8ca9 6abc 9946 44bc 0185 84ba 416d 943c
00000040: 95d6 a8bd 67e0 edbc cc80 a7bc b4b0 383c
00000050: 3eb6 b03c c4f6 dcbc dbcb 713b c7aa 08bd
00000060: eac5 703b ae44 d43c c59d 86bd 2a97 9cbc
00000070: c9ee fbbc fc41 94bd bb7a b9bc 744d 9ebd
00000080: a36f 5bbd 8de6 9d3d a33e 833d 6ce9 1bbd
00000090: e870 7e3d b7d4 21bd cc39 323d 140b 0f3d
000000a0: b6e9 863d f9e9 ebbc 611a f83c b4c9 d33c
000000b0: 2273 65bd 5acd 723b c7f0 71bb aad1 933c
000000c0: e103 e3bb 1bdb 933b ed53 75bd 164e 21bd
000000d0: b0d1 a3bc 0d0f 293d 5454 473c ca22 b7bb
000000e0: 907f 94bd 4e21 b53a 6e08 353d c4b9 1fbd
000000f0: ae74 a8bd f5a5 983c 86f1 1cbd d80a 3fbd
00000100: 4e70 5bbd 0e26 90bd c7ed 09bd 4c18 77bd
00000110: d1b5 ed3c 53f4 6d3d 9bab 2bbd b380 d03c
00000120: 6f2c 043d 5661 a53c 19a1 673d f8e7 8bbd
00000130: 9321 bfbc 316b 2cbd 56cf 93bc 6091 87bd
00000140: 54e4 86bd da38 933d 2832 80bd e49e 17bd
00000150: 98f2 ff3c 1c1e 98bd 233a 77bc a3ea a13d
00000160: d372 47bd 0b75 773d 2b85 813c 3ae2 823d
00000170: 3547 123d 7fa7 0bbd fe85 89bd 855d 713d
00000180: 2de7 8cbd 4dd5 a83d babd 04bd 9765 93bb
00000190: f4f0 4dbc 6551 e83c d129 3fbc 2e65 033d
000001a0: a49d cbbc 7521 05bd c2f4 7e3d c00a 9c3d
000001b0: ebb3 a3bc 5f11 833d 7329 55bd b9ed 93bd
000001c0: d3a2 763c 9814 05bd 2b7a 983c 592e 58bd
000001d0: 6f22 983d 6553 973d dbdd 9dbd e842 06bd
000001e0: 8edb 893d 60b6 51bd 0fa2 c63b d364 a2bd
000001f0: 5c42 4b3b 5c56 1cbd ec79 473c 6113 623d
00000200: 7669 5b3d 17a0 8d3c 0689 3b3a 4f0c dfbc
00000210: 5f72 36bd 3520 34bd 2aab 34bc 0294 85bd
00000220: 2243 e93c 2cee 06bb a25d a8bd de82 23bd
00000230: 0334 65bd 3dbd 053c 5772 703d 9895 513d
00000240: c4da 23bd 1b35 bfbc c9da db3c 29e5 76bd
00000250: a25f 08bd 28a5 183d 25ad 6d3d 4bb6 b0bc
00000260: d895 3e3d 41b8 653d cbcc 3bbc 50e4 133d
00000270: ca3f 5dbd a2e1 eb3a affa 52bd c9db 433a
00000280: aa0b 8cbd 6e38 a3bb a183 02bd 684d 8bbd
00000290: 2bcc ffba 4204 1ebb 21f5 f23c 708f 51b3
000002a0: f4f7 5abd 85bb 42bc 259b 02b8 bc10 33bd
000002b0: b4f2 a43c 25e2 a7bc 37e4 41bd 264b 833d
000002c0: 9023 5dbd 5438 203d 9025 62bd edc5 95bd
000002d0: 338f a53b 2be6 82bd 184f 59bd 419c 4abd
000002e0: 39a1 0abd 94d8 bc3c 185b bbbc 7ee1 3dbd
000002f0: a879 c3bc 54f1 23bd 40bf 933d c05f 0cbd
00000300: ffc3 083d f900 6bbc 921c 5fbd fa8a a03d
00000310: a089 9cbd 8367 94bd 1cf8 803d 7081 e4ba
00000320: ea46 e3bc 10cb 8b3d fada c2bc 6e2c 783d
00000330: 3aa2 cabc c0d2 84bd 92f6 aabd 038d d33b
00000340: 9011 dfbc 6cf1 853d 7fec 4d3d 6f09 44bd
00000350: d0b7 723d 91a0 6fbd 7851 2e3c fbdf 603d
00000360: 6781 17bd 8d80 26bb 03f3 853d 9bba 963d
00000370: f7b4 9a3b cae6 7cbd cdbf c9bb ccf1 483c
00000380: 3f77 953d 8927 473d 56cd 12bc 07f4 1ebd
00000390: 4403 7bbd aa38 6ebd 07fc 333d a629 89bd
000003a0: 7944 073d 992e bc3c 4a40 643d 8887 8bbd
000003b0: 22f5 98bd 63f1 bd3d 8567 37bd bbda 953d
000003c0: c916 af3c c895 833d ae43 fdbb 97a9 2f3d
000003d0: 6d67 b6bc 8aab 8cbd dbd0 c3bc 6092 5c3d
000003e0: e4dc 3d3d ee2c 6d3d ef83 193c d2cf 853d
000003f0: 3811 2fbd 4bdd 1d3d 422a 6e3d c3f2 2c3d
-0.023833368 -3.3631267e-08 -0.043824587 -0.0072579207 -0.028728005 -0.0011324697 -0.009105432 -0.02050956
-0.07781652 0.06152948 -0.033121772 0.0047622686 -0.01432265 -0.011979722 -0.0010110439 0.018118503
-0.08244053 -0.029037667 -0.020447157 0.011272598 0.021571275 -0.026973136 0.003689519 -0.03336599
0.003673906 0.025911655 -0.06573061 -0.01911505 -0.03075351 -0.07239148 -0.02264153 -0.07729617
-0.053573262 0.0770999 0.064084314 -0.038064405 0.062119395 -0.0395095 0.04351215 0.034922674
0.065875456 -0.02879809 0.030286016 0.025853015 -0.056018002 0.0037048669 -0.0036917196 0.018044312
-0.0069279526 0.0045122034 -0.05989449 -0.03938111 -0.019997448 0.04127412 0.0121661015 -0.005588864
-0.07250893 0.001381913 0.044197492 -0.03899552 -0.0822538 0.018633822 -0.038316272 -0.0466412
-0.0535739 -0.07038508 -0.033674028 -0.060325906 0.02901736 0.058094334 -0.041911703 0.025451994
0.032268938 0.020188015 0.05655012 -0.06831354 -0.02333144 -0.042094413 -0.018043201 -0.06619525
-0.06586519 0.07188578 -0.062595665 -0.037016764 0.031243607 -0.07427618 -0.0150895445 0.079060815
-0.04869349 0.060414355 0.01581057 0.063908055 0.03571244 -0.034095284 -0.0671501 0.058927078
-0.06880031 0.08243809 -0.0324075 -0.0044981944 -0.012569655 0.028359124 -0.011667685 0.032078914
-0.024855442 -0.03250261 0.062245138 0.07619238 -0.019983253 0.06399798 -0.052041482 -0.072230764
0.015053469 -0.032490343 0.018612942 -0.052778576 0.07428443 0.07388953 -0.07708331 -0.03277865
0.0673133 -0.051199317 0.0060617994 -0.07929387 0.0031014895 -0.038168296 0.0121750645 0.055194262
0.053567372 0.01728825 0.0007153902 -0.027227549 -0.044542667 -0.043976028 -0.011027137 -0.06522371
0.028474394 -0.002058874 -0.08220984 -0.039919727 -0.055957805 0.008162794 0.058702793 0.051168054
-0.040003553 -0.023340752 0.026837723 -0.060277138 -0.033294328 0.03726688 0.05802645 -0.021571299
0.04652962 0.05608392 -0.011462401 0.036106408 -0.054015912 0.0017996321 -0.0515086 0.000747141
-0.06838162 -0.004981092 -0.031863812 -0.068018734 -0.0019515803 -0.0024111425 0.029657902 -4.879206e-08
-0.053459123 -0.011885528 -3.1138905e-05 -0.04371713 0.020135261 -0.020493576 -0.047336783 0.06410818
-0.053988993 0.03911622 -0.055211604 -0.07313142 0.005052471 -0.06391557 -0.053053945 -0.04946542
-0.03384516 0.023052491 -0.022870585 -0.046357624 -0.023861721 -0.04002507 0.072142124 -0.034271
0.03339004 -0.014343494 -0.054470606 0.07839008 -0.076434374 -0.07246306 0.06297323 -0.0017433595
-0.027743775 0.068258405 -0.023786057 0.060589246 -0.024735559 -0.0648551 -0.08347811 0.006456019
-0.027230054 0.06540188 0.05027437 -0.04786056 0.05925733 -0.058502737 0.010639541 0.054901104
-0.036988642 -0.0025406212 0.065404914 0.07359811 0.0047212797 -0.061743535 -0.0061568976 0.01226468
0.07298135 0.048621688 -0.008960089 -0.03880694 -0.06128241 -0.058159508 0.043941524 -0.06697397
0.033024285 0.022971438 0.055725373 -0.0681296 -0.074686304 0.092745565 -0.04477646 0.0731711
0.02137317 0.06425053 -0.0077290153 0.042886343 -0.022266114 -0.06868656 -0.023903301 0.05385053
0.046353236 0.057904176 0.009369834 0.06533779 -0.04274103 0.03854112 0.05814577 0.042223703

lin1.bias f4 [180]
00000000: 70cf 1436 56d9 8c35 c802 96bb 2c5a cfb5
00000010: 7537 fb3c d7be a83a 6a4c 313c 5b96 c5bc
00000020: 2ab3 55b9 d2d0 a9b6 3cb5 d33a cb05 87bc
00000030: cbb8 e03b a53c eab8 9310 48b6 e85a d5bb
00000040: c009 a2ba 1d69 19bc 0ba5 0dbd 59f5 1aba
00000050: f32d eeb4 6842 e8b5 bd41 623c f3d6 93bc
00000060: 8a60 0bb7 5ed3 803b fd5c ca36 54b5 963c
00000070: b52b 253c ef98 ab39 488b 0cbd 0247 54bc
00000080: f26b 3a3b f741 5cbb 46f8 b03b deec 92bc
00000090: 9adf 6ebc 1910 423c 31d3 f9b9 4abf f23c
000000a0: a8f5 083d 897a 123b d1a8 b235 fd06 9b3b
000000b0: 901d ab3c 750f 89bc 5655 f03a 6db7 14b6
000000c0: 61b0 d63c 84cb 2036 9a7a a1b6 bd68 00b6
000000d0: 6af7 8e3a 7c77 a5bc 8b8e c337 8c2e 0a3d
000000e0: 31c3 2c36 9c1f 7335 37d9 d0bc 992a 853a
000000f0: f555 abba cfaa 533c 78fa 323c c2c3 0eb7
00000100: cd20 55b9 5bf3 92bc a14f f93a 447d 0ab6
00000110: e202 4634 df9c aabc c115 91bc 2a33 353a
00000120: 5a5b a7bc 18e7 e5b5 9a48 f435 f8e3 e535
00000130: b1a8 013b 36e1 143c 7425 3a3c fe67 433c
00000140: 667a a23c 9fef 033d 56c8 d93c 5e8d b1ba
00000150: 8eed a73b 030b eaba f36b e73b e844 0636
00000160: 5c28 0e35 7b16 1abc 3998 f83b 1cd9 b5bc
00000170: 7b05 9fbc 8287 063c 5ac0 063d 9054 97ba
00000180: aa70 f4bc ef15 18b9 6e83 2d37 188c fd3c
00000190: 8703 acb9 0ec1 db35 566a 23bc 57bf 0d3d
000001a0: a2c2 10bc d0d0 5639 34be 17b6 4be9 ac3c
000001b0: d60c 9935 f5a1 dbbc 98a7 6ab9 adef 94b6
000001c0: a669 843c 0677 a2bb 1db1 d4bc 2638 3137
000001d0: 1d54 db3c 869e 893c a0a6 46b4 e092 183c
000001e0: 59f0 14bb 7ff6 df3c 9cef ddbc 1aca 6e3b
000001f0: 241b 99b6 40f2 02b6 2dac 833c 4fe5 bdb6
00000200: be2f 8ebc 5e30 31b6 b8bf 013c ad3e 373a
00000210: 52e1 c839 05a8 ef39 712c e03c d7e6 743c
00000220: 13cb 56bc a039 2abc 75a0 523c d6f0 023d
00000230: b966 6e35 97d1 9bbb 477c a63c 79f0 81bc
00000240: ccdb 9ab6 6f41 1f36 85c8 ca36 d346 ab3c
00000250: 84b5 85bc ff08 cb3c f6ad 1f35 463d d7bc
00000260: 40b2 94b6 a8ff c13c 7898 6c3a bd59 c635
00000270: f3a3 753c b7ea 1c39 55c9 9935 8f9d 9dbc
00000280: deba afbc b8ed f8bc 0ad2 c4bc 8bec 6abc
00000290: 7ef1 d7bb 3c60 8cbc 100c 0636 1a9c 503b
000002a0: 962b 1136 38b4 0436 cb97 0abb 350a b63b
000002b0: 0c96 cdbc 2246 da3b bec7 0f3b 3ca7 a93b
000002c0: 2b45 a8bb 6be5 8c36 8b28 e5bb 1f1e 253c
2.2174463e-06 1.0494066e-06 -0.0045779683 -1.5448945e-06 0.030666092 0.0012874258 0.010821441 -0.024119547
-0.00020380007 -5.0609024e-06 0.0016152035 -0.016482254 0.0068579665 -0.000111692854 -2.981197e-06 -0.006511081
-0.0012362525 -0.00936344 -0.034581225 -0.00059111934 -4.4364387e-07 -1.7304674e-06 0.013809619 -0.018046832
-8.307523e-06 0.003931447 6.0308944e-06 0.01839701 0.010081221 0.00032729606 -0.034312516 -0.012956383
0.0028445688 -0.0033608654 0.0054006903 -0.017935213 -0.014579678 0.011844658 -0.0004765033 0.02963223
0.0334374 0.0022350869 1.3311166e-06 0.0047310577 0.02088812 -0.016731003 0.0018335979 -2.2160486e-06
0.02620715 2.396032e-06 -4.8124466e-06 -1.9134452e-06 0.0010907475 -0.020198576 2.3312188e-05 0.033735797
2.5743614e-06 9.057055e-07 -0.025494201 0.001015979 -0.0013071882 0.012919142 0.010923974 -8.509438e-06
-0.00020325482 -0.017938307 0.0019020924 -2.0636517e-06 1.8441236e-07 -0.020826755 -0.017710568 0.0006912226
-0.020429302 -1.7129087e-06 1.8200546e-06 1.7128177e-06 0.0019784386 0.009086898 0.011361469 0.011926649
0.019833755 0.032210942 0.026584785 -0.0013546159 0.0051247543 -0.0017856065 0.007062429 2.0007665e-06
5.2957853e-07 -0.009404774 0.0075865057 -0.022198252 -0.019411793 0.0082110185 0.032898284 -0.0011545587
-0.029838879 -0.0001450402 1.0342204e-05 0.030950591 -0.00032809025 1.6372958e-06 -0.009974083 0.034606304
-0.008835467 0.00020486419 -2.2611466e-06 0.021107337 1.1403124e-06 -0.026810626 -0.00022378413 -4.4386456e-06
0.016163658 -0.0049580364 -0.02596336 1.0563095e-05 0.026773507 0.016799223 -1.8500805e-07 0.0093123615
-0.0022726266 0.027339218 -0.027091794 0.003643638 -4.562915e-06 -1.9512518e-06 0.01607331 -5.659334e-06
-0.01735675 -2.6403209e-06 0.0079192445 0.00069902354 0.0003831485 0.00045710817 0.027364941 0.014947615
-0.01310994 -0.010389715 0.012855639 0.03196796 8.881139e-07 -0.0047552097 0.020322932 -0.015861737
-4.6151454e-06 2.3730934e-06 6.0434127e-06 0.020907795 -0.016321905 0.024784563 5.948526e-07 -0.026274335
-4.4314947e-06 0.023681477 0.0009025405 1.4778267e-06 0.014992702 0.00014964757 1.1457984e-06 -0.019240169
-0.02145141 -0.03038679 -0.024025936 -0.014338623 -0.0065900674 -0.017135732 1.9974577e-06 0.0031831325
2.1632054e-06 1.9774434e-06 -0.0021147605 0.005555416 -0.025095962 0.0066611925 0.0021939124 0.0051774066
-0.0051351986 4.199033e-06 -0.0069933585 0.010077982

lin2.weight f4 [96, 180]
00000000: 7b2e 18bd 6946 473d 69c8 25bd c96f 163d
00000010: cbd5 b6bc e8fd dd3c ec1e c33b 2cf8 53bd
00000020: 0797 80bc 407a 373c 52f6 38ba acf0 263c
00000030: 6671 42bd 6cc0 133d c56a 13ba 372e 57bc
00000040: b9be 67bd 9989 933c a6b0 4fbd be35 8b3d
00000050: b8ac a43c 337a 693d 3c3d 3b3d 0fb5 08bd
00000060: 6278 693b 9a00 ddbc 2152 913d 0a92 7d3d
00000070: 9486 403d 351d 883d adbf baba e5ca 39bd
00000080: 1c70 30bd f8a2 46bd 8f71 9b3d c7e5 01bc
00000090: 44a0 81bd d797 b0bb 96b2 8d3d 93f6 b63c
000000a0: a345 db3b ea40 2fbd 19ea ec3c c3b0 20bd
000000b0: 2576 0b3d 9bec 6fbd 5651 6c3d 9ba5 a2bd
000000c0: 32d7 b33c 9d74 663c 6e3f 25bd d31c 72bc
000000d0: 9bec 86bd aca0 9c3c 2f63 103d 8d78 cebb
000000e0: 9b17 b83c 1812 98bd b19c 4a3d 6901 4b3d
000000f0: 390b 3d3d bec5 e33c 6ff6 91bd 870f 743c
00000100: 22f3 993d d8c7 813d fff4 8dbd 5dee 163d
00000110: 9ca9 a23d 18ca 793d d4bb 7bbd fb79 3abc
00000120: c3ca 3539 9943 433b 39c9 7e3d 4a23 903d
00000130: 2866 86bd a431 eb3c fed3 e0bc 080c 94bd
00000140: 7a16 443d 5836 58bd 13f1 45bd 7b6a b4bc
00000150: 8729 b1bc 5b2e eb3b 4102 81bd 64a1 8c3d
00000160: 96c0 a43c fb47 c0bc 66cd 9f3d 2ed0 b0bc
00000170: e189 17bd 4a6a 2cba ff20 54bd c6af 813d
00000180: 6b94 803b ae98 913b 1911 e9bc c953 8f3d
00000190: ae07 063d e041 2c3d edf0 4439 d183 0fbc
000001a0: 5fe4 b73c dbcd 763d 7194 9b3c 127e 5dbd
000001b0: 7ae9 5abd 6be6 90bd ee1b 54bc 52f9 6bbc
000001c0: 4c5d 6abc b732 613d 9793 93bb bd55 3b3d
000001d0: e092 463c 98a5 84bd 146b 61bd 760b 783d
000001e0: 0d61 273d 086c 7fbd 6725 74bd 493d 89bc
000001f0: 8415 1abd 4650 34b8 ffd7 d6bc baca adbc
00000200: 5bb8 e2bc 3841 683d 4fb9 6b3d 6272 203d
00000210: 0bf9 543d 43bd 803c 29a5 99bd 8229 d73b
00000220: fb6a 5b3d 3997 823c 07d3 3ebd 6fcd 8b3d
00000230: 0f25 613d 43f8 4ebd b522 60bd e0ef f13c
00000240: c623 013d 9703 093d dd2a 83bd c06c 9bbd
00000250: 0f00 883c a56d 853d ad42 933d 8e97 2b3d
00000260: b7cd 6bbd 75be 45bc e4b7 cebc 8c2c e4bc
00000270: 1143 22bd 021e 063d c0de 08bd 133a 7a3b
00000280: 75f4 873d 45a3 d2bc fb71 e33c 1365 053c
00000290: 61ee 9d3d 81ab 703b 7629 1c3c d7b5 773a
000002a0: 131f 31bd 9479 7dbc c9de 323d b47c 3039
000002b0: 7ccf febc d25d 2f3d dcbe 223d 8cbc b43c
000002c0: 74a2 573d 65d6 403d 925e 953d d530 31bc
000002d0: 4eb1 023d adb4 3bbd 577d 0c3d e54f 89bd
000002e0: 7d24 e2bc 93bb 59bd 98a9 2abd c1f9 e1bc
000002f0: e74d 8d3d 13a3 153d 1c93 80bd f94f 903c
00000300: c6eb 903d 3971 113d ab7d 07bd da0a c2bc
00000310: c000 19bd da11 9e3a 2f16 ce3b f6f5 213d
00000320: 0714 9dbb 883c 1ebd a90c 86bd 2e2f 483d
00000330: 337b e9bc 79fd 633d 01a2 42bd cd28 96bc
00000340: 820d 023d 7545 04bc b7f2 093d 5057 8e3d
00000350: 8d06 46bd ef67 9f3b 4a3b 3bbd 119a 163d
00000360: d21f 82bc 7c21 653d d2c9 903d e9e7 053d
00000370: b61f b2bc 3ffc 4a3d e386 85bb 8a94 85bd
00000380: 25e6 81bd 8076 39bb 18fb 68bd 31ae 4cbd
00000390: 5603 cbbc 0089 bfba 16c2 813c a370 7d3d
000003a0: 5fff 8c3d 1524 18bd 8e64 033d a1ef 093d
000003b0: f383 a8bc 2bc1 073d a6d9 a9bc df6b 453d
000003c0: 0532 6c3d 1aed 283d 5b92 0b3c a57d 6e3d
000003d0: 7aa8 3f3d f447 39bd 3445 19bd 12a3 8b3d
000003e0: 79fd f13c 727b 44bd aace 873d f432 d5bc
000003f0: b716 7cbd dbb7 3bbd 8fbd 6b3d 2438 d2bc
-0.037153702 0.048651133 -0.04047433 0.0367277 -0.022318741 0.027098611 0.005954614 -0.051750347
-0.015697015 0.01119858 -0.00070557476 0.010189217 -0.047471426 0.03607218 -0.0005623515 -0.013133577
-0.05657837 0.018009948 -0.050705574 0.0679736 0.02010189 0.057001304 0.045712695 -0.033375796
0.0035624732 -0.026977826 0.07095743 0.06190685 0.047003344 0.06646196 -0.0014247798 -0.04535951
-0.043075666 -0.048495263 0.07590019 -0.007928318 -0.06329396 -0.0053891945 0.06918828 0.022334373
0.006691651 -0.042786516 0.02892022 -0.039231073 0.03404822 -0.058575254 0.057694755 -0.07941743
0.021953199 0.014065889 -0.040343694 -0.01477738 -0.06588098 0.019119583 0.03525084 -0.006300992
0.022472193 -0.07425326 0.04946584 0.04956189 0.04615328 0.027804252 -0.071270816 0.01489628
0.07517077 0.06336945 -0.06931495 0.036848415 0.07942507 0.060983747 -0.061458424 -0.0113816215
0.0001733704 0.002979493 0.06220362 0.07037981 -0.065624535 0.028710194 -0.027444836 -0.07228857
0.047872998 -0.0527862 -0.04832561 -0.02202343 -0.021626247 0.007177157 -0.06299258 0.0686672
0.020111363 -0.023471823 0.078028485 -0.021583643 -0.036996726 -0.00065771176 -0.05178928 0.06332354
0.003923943 0.0044432497 -0.028450536 0.069984026 0.032722168 0.04205501 0.00018781768 -0.008759455
0.022447763 0.060254913 0.01899168 -0.05407531 -0.053445317 -0.07075199 -0.012946112 -0.014402704
-0.01430447 0.054980006 -0.004503678 0.045736063 0.012119979 -0.06476897 -0.05503376 0.060557805
0.04086404 -0.062358886 -0.059605982 -0.016752856 -0.037618175 -4.2990105e-05 -0.026226042 -0.021214832
-0.027675798 0.056702822 0.05754977 0.039171584 0.05199532 0.015715247 -0.07502205 0.0065662274
0.05356882 0.01594125 -0.04658797 0.06826293 0.054966982 -0.05052973 -0.0547206 0.029533327
0.031528257 0.03345069 -0.0640466 -0.07589102 0.01660159 0.06515054 0.07190452 0.04189258
-0.05756923 -0.012069334 -0.02523417 -0.027853273 -0.03961474 0.03274346 -0.033415556 0.0038181588
0.06638423 -0.025712619 0.027764311 0.008141774 0.07711483 0.0036723318 0.009531369 0.00094493985
-0.043242525 -0.015470881 0.043669496 0.00016831124 -0.031104796 0.042814083 0.0397328 0.022062562
0.05264516 0.047079463 0.072934285 -0.010814865 0.031907372 -0.045826603 0.03429922 -0.06704692
-0.02760529 -0.0531574 -0.041665643 -0.027584912 0.06899624 0.036532473 -0.06278059 0.017616259
0.0707622 0.03550837 -0.03307883 -0.023686815 -0.03735423 0.0012059764 0.0062892656 0.039541207
-0.004793647 -0.038631946 -0.065453835 0.04887312 -0.028501129 0.055661652 -0.04751778 -0.018330002
0.031751163 -0.0080732005 0.033678737 0.06950247 -0.04834609 0.004864685 -0.04571084 0.036768023
-0.015884314 0.055940136 0.07069744 0.03269187 -0.021743637 0.049556967 -0.0040749176 -0.06522472
-0.06342725 -0.0028299391 -0.056880087 -0.04997081 -0.024781864 -0.0014612973 0.015839618 0.061874997
0.06884646 -0.037143786 0.03207832 0.033675794 -0.02057073 0.033143204 -0.020733666 0.048198577
0.05766489 0.041241743 0.008518781 0.058225293 0.04679153 -0.045234635 -0.037419513 0.068182126
0.02953981 -0.04796929 0.06631215 -0.026025273 -0.0615451 -0.045829635 0.057553824 -0.025661536

lin2.bias f4 [96]
00000000: 6482 a933 f15d 97bc f84b 0b36 6ada bdbc
00000010: 87e2 103c 7a7a 8b3c 1158 8cbc 16d7 a2bb
00000020: b23e ddba 80d6 d3b5 5e94 e1bb 0308 acbb
00000030: cc37 4fbc 79ad e2bc ab9b b6bc 3156 a43b
00000040: 8d7b 9335 eb84 caba 5a73 b9b5 86a0 a8ba
00000050: 5799 373a 73d0 bf3c 8551 f3bc 412d 013d
00000060: 6e60 8e36 f072 6dbc 0ade d8ba f3a1 a2bc
00000070: 13ef e13c 2aef 4638 265a c53c d656 7d35
00000080: 5a6a ddb8 a2bc 46bc 8912 c5bc f3b0 4936
00000090: 82f0 8235 218f b03a 10a6 25b6 d93d b53b
000000a0: c85d f93a aef0 89bc 7d3e dcbc bacd 41bc
000000b0: 4d71 a73b be96 8d36 9033 8c3c baa7 9434
000000c0: cadb f9b7 36ca abbc 859b 153c 553d eab9
000000d0: d9fa b73b 5f36 a63c d984 e237 c91e 483b
000000e0: 9b54 093c 9605 d13b c4de d53b 6bc7 11bc
000000f0: 2292 4c36 5666 eb3c ba27 8b35 a8a2 c83c
00000100: dace 46bb a15c bc3b bcdc 753b 2c4d 3a34
00000110: 6f4a 97bb 839d b0bc 9273 e7b4 4b3d 21b6
00000120: fe54 acbc 3684 4fbc 37fd a7bc 0432 9f3c
00000130: 35d5 513c f496 0c3c 5732 1db4 7462 19bc
00000140: b43d f3b9 4e5a ca3c 00b4 af35 26a4 97bc
00000150: d100 c6bc 8edf 39b5 51be a83b 41bb 043c
00000160: 04df 92bc ad3d a53c de59 e9bc 8451 96bb
00000170: 276f 993c 5edc 7dba 0990 3a38 76b0 b1bc
7.893394e-08 -0.018477412 2.0756834e-06 -0.023175437 0.008843071 0.017026175 -0.017131837 -0.004969488
-0.0016879647 -1.5783153e-06 -0.006884142 -0.0052499785 -0.01264758 -0.027670609 -0.022291025 0.0050151576
1.0988311e-06 -0.001545099 -1.3817146e-06 -0.0012865223 0.00070037454 0.023414826 -0.029701957 0.031537298
4.2431557e-06 -0.014492735 -0.0016545665 -0.019852614 0.02757982 4.7429618e-05 0.024090838 9.437621e-07
-0.00010557911 -0.0121299345 -0.02405669 3.0054332e-06 9.755752e-07 0.001347039 -2.4683577e-06 0.0055310545
0.0019025141 -0.016838398 -0.026885265 -0.011828834 0.005109942 4.219676e-06 0.01711443 2.7689185e-07
-2.978546e-05 -0.020970445 0.009131317 -0.00044677654 0.00561462 0.020289598 2.7003161e-05 0.0030535928
0.008381988 0.0063788397 0.0065268 -0.008897643 3.048343e-06 0.028735321 1.0367869e-06 0.024491623
-0.0030335695 0.005748347 0.00375156 1.7350675e-07 -0.0046170275 -0.021559482 -4.311119e-07 -2.4026547e-06
-0.021036621 -0.012665799 -0.020506484 0.019433029 0.01280718 0.008580912 -1.4640078e-07 -0.009361852
-0.00046394544 0.024701264 1.3090903e-06 -0.01851089 -0.024170311 -6.9243185e-07 0.0051496406 0.008101285
-0.017928608 0.02017101 -0.028485235 -0.004587354 0.01872976 -0.00096840214 4.448e-05 -0.021690588

lin3.weight f4 [40, 96]
00000000: a30b a6bd 79ae 8c3d 9985 2f3c c002 abbc
00000010: 38d2 863d 7e68 abbd 27d6 49bd cea8 3cbd
00000020: d9c4 08bd 9d48 c83d 3b19 ee3b d9c2 103d
00000030: d572 71bd 1231 d2bd 899b ab3d 65a1 bdbd
00000040: b1e5 9e3c 9b09 be3d 731d 61bc 7eb3 adbd
00000050: f21f 843b bdf0 0e3d a517 613d e587 49bd
00000060: db96 c3bc 633e eabc bd14 923d a27a 143d
00000070: 45d0 e7bc 638e a23d 1729 b13d 7209 9a3d
00000080: 4038 8cbd 9212 bfbc d719 8f3d deb7 3a3d
00000090: ce9f a03d 329d 413c e97f 853d 085c a43d
000000a0: 0fe6 3dbd 16d8 86bd a344 20bd c2e0 cdbd
000000b0: 2e3a 563c 1c3a 9dbb 9e02 54bd 75fb eebc
000000c0: cd19 713d cb43 1dbd 9381 62bd 99fd a2bd
000000d0: 7a83 62bd 2267 e2bc c51a 973d 2c2d 873d
000000e0: 0f39 ca3d 194e 0dbd b68e 99bc 3c2e a93d
000000f0: a02a ba3d 9f58 1ebd 3c87 043d e7d4 793d
00000100: b8b0 453d 0b85 72bd 1518 a13d 6932 d13d
00000110: c4bb 61bc a321 09bd 098c f2bb 0c3d 85bd
00000120: 3c3d 56bd 4b3b d6bd 8338 f23a 1d70 493d
00000130: c577 943d 1b96 263d 1121 2b3d f776 a3bd
00000140: 2f0e 253d a389 553c 34c8 2d3d f844 543d
00000150: 9164 9a3d e503 42bd 4d7d 173d d0c6 91bd
00000160: 0b8a a23b 0cb7 273d 3904 5b3d a643 0bbd
00000170: e715 6b3c 3e2d b23d 48aa 60bd a6a0 733b
00000180: d121 0b3c fa02 34bd eef2 9f3d 9041 f1bc
00000190: 334e 59bd cb72 bc3d ce82 a7bd c553 a33d
000001a0: c5bc d1bc ed9b bebc 088b 9bbd 91d5 b7bd
000001b0: 1cbb aebc 5712 d93c c38e 3ebd e3a2 1abd
000001c0: 5094 653d 1846 fd3b e9d0 9d3c ebbf f53d
000001d0: 37fc 9abd 86c0 6ebc c3a5 17bd af16 cc3c
000001e0: fcef 72bd 2e03 853d 4e29 6fbd c817 7a3d
000001f0: 274c 19bc 4402 a0bc 0055 4d3d 4e3e 543d
00000200: 8973 5ebd cd4c b0bd 4a63 533d 9128 ba3d
00000210: c74f f3bc af8c cdbd 3d5c 133c a92c 86bd
00000220: e0d6 9bbb 47c2 6d3d e9c5 46bb 6260 11bc
00000230: 2dcf 3abc d10e 62bd 9faf 0b3c 14e0 16bd
00000240: 8099 c83c 9531 52bd 8411 aa3d 4f3c 1e3d
00000250: e812 5f3d b3b9 163d 7171 71bd 68f9 963d
00000260: dbd2 c3bd 4e88 92bc 3c6b a8bd 585a 64bd
00000270: 2874 933d 362a b1bd 1c61 ad3d 7ed9 8c3d
00000280: 37e5 58bc 49ab 833d b716 70bd e699 863d
00000290: 25d8 ccba a34e 0dbd 5672 87bd 421f 9b3d
000002a0: ba21 5c3d 80f6 2a3c e72f ad3d 65bd 113d
000002b0: f595 d9bd d8c1 aa39 5cb4 92bd a941 9b3d
000002c0: 53f9 cbbd cd22 44bd 11d8 80bd b777 a7bd
000002d0: f6a1 403c 9508 59bd e269 0f3c e265 c23d
000002e0: 112b 84bd f88a 88bd 323a b03d 2ed4 fb3c
000002f0: c32f a53d 524c ccbd 8734 333d 1f2a 883d
00000300: ce44 a7bc 2c67 c6bd 886c 913d 2865 833d
00000310: 9dd3 c03d 0470 d83d eb4b 9ebc 4cd9 abbd
00000320: 0715 343d 6f72 a9bc eb0b d43c adc8 d23d
00000330: e56d 36bd 931a d8bd d468 b7bc 6f84 abbc
00000340: 89f3 bfbd c434 133d 33bb 533d 162d c6bd
00000350: 6b03 ba3d 4660 08bc 40d5 773d bdca ea39
00000360: d2b0 a53d b321 733d b9ba 3f3d 5ee7 acbd
00000370: 8b52 c7bc f9f8 74bc 71b7 ef3b 8a51 f2bc
00000380: bf93 4cbd 7150 383d 30c0 b8bd d348 c0bc
00000390: ec59 bc3d 99e6 4bbb 830f bebb 7c59 633d
000003a0: 23ef acbb 99c0 eebc 2190 92bd 0ba9 adbd
000003b0: 5893 bb3d fe1f 38bd 0537 77bd b168 bcbc
000003c0: aa84 bf3d 84de 91bd 6b1d a4bd bb1e d0bc
000003d0: 8d11 a13d edbb a3bd d304 b93d cdac 9f3d
000003e0: f7d7 363d dc2a e0ba 833d c63d 6024 18bd
000003f0: b7e5 62bd 2b71 e5bc f2fa 4ebd f4a3 b13d
-0.08107688 0.068692155 0.0107130045 -0.020875335 0.06583065 -0.0836954 -0.049276497 -0.046059422
-0.033390854 0.09779475 0.0072661913 0.03534207 -0.058947403 -0.10263266 0.08379275 -0.09259299
0.019396635 0.09279176 -0.013739931 -0.08481501 0.0040321285 0.034897555 0.05495419 -0.049201865
-0.023875644 -0.028594201 0.07132862 0.036249764 -0.028297553 0.07937314 0.086504154 0.07521333
-0.06846666 -0.023324285 0.069873504 0.045585506 0.0784298 0.011817263 0.065185376 0.08025366
-0.04636198 -0.06584184 -0.039127957 -0.10052635 0.013075395 -0.004798187 -0.05176031 -0.029172638
0.058862496 -0.03839473 -0.055299353 -0.07958526 -0.055301167 -0.027637068 0.07378153 0.06600413
0.09874164 -0.034498308 -0.018744808 0.08260772 0.09090161 -0.038658734 0.032355532 0.060994055
0.048264235 -0.05920891 0.078659214 0.10214693 -0.013777677 -0.033479344 -0.0074019474 -0.065057844
-0.05230449 -0.10460528 0.0018479977 0.049179185 0.07249407 0.040670495 0.04177958 -0.07981675
0.04029673 0.013033303 0.042427257 0.051823586 0.07538713 -0.047366995 0.03698473 -0.071179986
0.0049603037 0.04094605 0.053470824 -0.03400006 0.014348484 0.087000355 -0.054849893 0.0037174611
0.008491949 -0.04394815 0.07810007 -0.029450208 -0.053053092 0.092015825 -0.08179246 0.07974962
-0.025602708 -0.02326771 -0.075948775 -0.089762814 -0.021329455 0.026498003 -0.046522867 -0.037752997
0.056049645 0.007729303 0.019264655 0.11999496 -0.075676374 -0.014572268 -0.037023317 0.02491316
-0.0593109 0.06494747 -0.058389 0.061057836 -0.009356535 -0.01953233 0.05012989 0.05181723
-0.0543094 -0.086083986 0.05160836 0.09089769 -0.029701127 -0.10036599 0.008994159 -0.06551487
-0.0047558397 0.058046605 -0.0030330366 -0.008873077 -0.011401934 -0.05518991 0.008525758 -0.03683479
0.024487257 -0.051316816 0.08304122 0.038631734 0.05446139 0.03679819 -0.058946077 0.07371789
-0.09561702 -0.01788726 -0.08223578 -0.05575022 0.071998894 -0.08650629 0.08465788 0.06877421
-0.013238243 0.064291544 -0.058615413 0.065723225 -0.0015628381 -0.034498822 -0.06613605 0.07574321
0.0537431 0.010434747 0.08456402 0.03558101 -0.10624305 0.00032569352 -0.07163307 0.07580883
-0.09959664 -0.04788475 -0.062912114 -0.08177131 0.0117573645 -0.0529867 0.008753272 0.09492089
-0.06453527 -0.06667131 0.0860485 0.030740824 0.080657504 -0.099754944 0.043751266 0.06648659
-0.02041855 -0.09687647 0.07100779 0.064157784 0.09415362 0.1056824 -0.01932331 -0.083910555
0.043965366 -0.020684449 0.02588459 0.10292182 -0.044538397 -0.10551944 -0.022388853 -0.020937173
-0.093726225 0.035938993 0.0516922 -0.09676568 0.09082683 -0.008323735 0.060506105 0.0004478301
0.080903664 0.05935831 0.046808932 -0.08442567 -0.024331352 -0.014951938 0.007315569 -0.029579896
-0.04994559 0.04499859 -0.09021032 -0.023472225 0.09196839 -0.0031112789 -0.005800189 0.05550526
-0.0052775308 -0.029144572 -0.07156397 -0.08479508 0.09158963 -0.044952385 -0.060355205 -0.02299914
0.093514755 -0.071225196 -0.080134235 -0.025405278 0.07864676 -0.079948284 0.09034123 0.07796631
0.044639554 -0.0017102617 0.09679701 -0.037144065 -0.055394854 -0.028008064 -0.05053229 0.0867385

lin3.bias f4 [40]
00000000: 4859 2cbd 6f72 54bd cacd 943c 6d06 0a3c
00000010: 3d37 2d3c 2714 3eba a917 d4b9 cd5f d236
00000020: b8c0 04bd 1104 933c 6f6a 2c36 bdfd 1fbb
00000030: 9f06 cd3a ac89 2fbd e8bb 243d feff e63a
00000040: 62fb ff3c 6130 0fb4 10cb 05bd 0588 57bd
00000050: f00b 51bd a979 eabc 08af 1833 b17b a4b5
00000060: 08b7 7d3a 1010 2dbd 2be0 183d 6059 18b6
00000070: 9e7b 1bbc ef80 3834 b726 403d d9e3 ebbc
00000080: b4d6 c836 a19a 95b4 9f10 6c35 d5d3 93b6
00000090: e867 273d ea69 ebba a81e 07ba 483f a932
-0.042077333 -0.051866945 0.018164534 0.008424384 0.010572252 -0.0007250928 -0.0004045342 6.2696404e-06
-0.032410353 0.017946275 2.569195e-06 -0.0024412714 0.0015642232 -0.042855904 0.040218264 0.0017623899
0.031247798 -1.3335513e-07 -0.03266436 -0.052619953 -0.051036775 -0.028622465 3.5549448e-08 -1.2254951e-06
0.0009678458 -0.042251647 0.03732316 -2.2701788e-06 -0.009489922 1.7183241e-07 0.04691192 -0.02879517
5.985459e-06 -2.786592e-07 8.794104e-07 -4.405602e-06 0.040870577 -0.0017960642 -0.00051544094 1.9702966e-08

lin4.weight f4 [1, 40]
00000000: cb19 493e 0aac 18be 4553 0c3e 2338 173e
00000010: 4a92 0a3c f728 303e ab55 593d 6f2c 263e
00000020: d5b2 c5bc 616f 283e ae97 15be a435 1d3b
00000030: 0fea 04be 1e6a 22bd ed2b e6bd 4724 103e
00000040: 5488 4b3d 28af ec3b aefa b8bd 1d2d 263e
00000050: 650f 453e 94d3 febc d806 083d c8b7 6abd
00000060: e14c 063d a340 2e3d 0037 dd3d a21b 26bd
00000070: ebda 583d 5d73 f03c 0ed2 56bd 4622 163e
00000080: 7235 e73d eee9 363e 4f81 973d 9cbc 163e
00000090: 9b10 25bd d3a7 2abd 8868 2e3e 64b7 163d
0.19638745 -0.14909378 0.1370364 0.14767508 0.00845773 0.17203127 0.053060215 0.16227888
-0.024133125 0.16448738 -0.14608642 0.002398827 -0.12979911 -0.039651982 -0.11238847 0.14076339
0.04969056 0.0072230287 -0.09032188 0.16228147 0.19244154 -0.031106748 0.03320965 -0.057304174
0.03278816 0.04254211 0.10801506 -0.040553696 0.05294315 0.029351884 -0.052446418 0.14661512
0.11289491 0.17862675 0.073977105 0.14720386 -0.04029904 -0.041663956 0.17032063 0.03679599

bn1.weight f4 [180]
00000000: f80d 7f3f 8ee5 7e3f 73c2 7c3f 9347 7e3f
00000010: 5285 7b3f 4818 7e3f 906d 7f3f 2a44 803f
00000020: 0ca4 7c3f e357 7f3f 8d32 7c3f e0a9 7f3f
00000030: 8312 803f 7b11 7f3f bba7 7e3f 4c12 803f
00000040: e1e3 7f3f d967 7f3f 94f3 7d3f 5301 7e3f
00000050: 93a4 7f3f 319c 7f3f f3ab 803f 6abe 7e3f
00000060: 1ab4 7d3f 367a 7f3f 8737 7d3f b99c 7f3f
00000070: 6aa9 7c3f 7b79 7c3f 515c 7f3f 9321 803f
00000080: d0f4 7f3f 2770 7d3f ab7b 7e3f 8152 803f
00000090: 8ea6 7c3f 194f 7e3f 56bf 7f3f 057d 803f
000000a0: 44f7 7f3f 4332 7e3f 52b5 7d3f 5a40 7f3f
000000b0: 9010 7f3f 9eb8 7e3f 23b0 7c3f 0bd7 7e3f
000000c0: d35a 7e3f 389e 7c3f 045e 7e3f c903 803f
000000d0: 44e1 803f 771c 7d3f 0ddd 7c3f d2b5 7c3f
000000e0: c69f 7e3f da05 813f a3f0 803f b6fc 7d3f
000000f0: 0dc7 7c3f 09d2 7f3f 5e5a 7f3f df80 7e3f
00000100: 0577 803f 865c 7f3f 9456 803f 9453 7d3f
00000110: 9f1f 7e3f bff7 803f 7faf 803f 8685 7f3f
00000120: 2b4c 803f bab4 803f 0c97 7e3f 2818 7f3f
00000130: b087 7e3f 9188 803f 8f41 7f3f 4aa9 7e3f
00000140: 7c44 7e3f 3857 7f3f d334 803f 98ed 7f3f
00000150: 8f4e 7e3f 20a9 7e3f 36bc 7f3f 0f16 7f3f
00000160: eec4 803f b853 813f 3e7d 7f3f b368 7f3f
00000170: 4708 803f 2235 803f 2cbf 7f3f ba9b 7e3f
00000180: 777f 813f fa42 7d3f b336 813f 123f 813f
00000190: 7c62 803f a76f 803f 699d 803f 5639 7d3f
000001a0: f605 803f 2aad 7d3f fb27 7c3f 3aa6 7c3f
000001b0: 02c2 7c3f 3025 803f 88e2 7e3f 2e6e 813f
000001c0: 358f 7d3f b81f 803f c8bd 803f 2c8e 803f
000001d0: 8422 7e3f 9086 803f a18d 7e3f dd11 803f
000001e0: 25f2 7c3f b49e 813f 7fd4 7c3f 8901 7e3f
000001f0: a821 7e3f 55a5 7e3f 45a6 7d3f 7529 7e3f
00000200: daf1 7e3f 119d 7d3f fa4f 7d3f a706 813f
00000210: 7caa 7f3f 9d57 7f3f 5662 813f a956 7f3f
00000220: 6008 7f3f b152 7b3f d225 813f bde9 803f
00000230: 932e 7f3f fe45 823f e41f 7e3f b6b1 803f
00000240: 8fea 7d3f d3cf 7d3f 41be 7f3f edb3 803f
00000250: 0c95 7c3f 652c 7d3f 1039 7e3f fa86 7d3f
00000260: fea5 803f 4187 7e3f 5ba5 813f 4a25 7f3f
00000270: 70c5 7d3f 210c 813f e8f1 7e3f 1f7f 803f
00000280: 63f9 7f3f e86a 7e3f 7e0a 7e3f 19e5 7e3f
00000290: 2851 803f 5200 7d3f 1448 803f a8f5 7f3f
000002a0: 9386 7e3f 1e34 7f3f 5737 7e3f 9cec 7d3f
000002b0: 8ef9 7d3f 23aa 7c3f 8f3a 7e3f 9581 7c3f
000002c0: a8eb 7e3f 9692 7f3f 300d 7e3f 3935 803f
0.9963069 0.9956902 0.98734206 0.99327964 0.98250306 0.992558 0.99776554 1.0020802
0.98687816 0.9974348 0.98514634 0.99868584 1.0005649 0.9963605 0.99474686 1.0005584
0.9995709 0.99767834 0.99199796 0.9922077 0.99860495 0.99847704 1.0052475 0.995093
0.9910294 0.99795854 0.98912853 0.99848515 0.98696005 0.98622864 0.9975024 1.0010246
0.9998293 0.98999256 0.9940745 1.0025178 0.9869164 0.99339443 0.9990133 1.0038153
0.9998667 0.99295443 0.991048 0.9970757 0.9963465 0.99500453 0.98706263 0.9954688
0.99357337 0.9867892 0.99362206 1.0001155 1.0068746 0.9887156 0.98774797 0.98714936
0.99462545 1.0079911 1.0073436 0.9921373 0.9874123 0.99929863 0.99747264 0.9941539
1.0036322 0.99750555 1.0026422 0.98955655 0.99267 1.0075606 1.0053557 0.99813116
1.0023245 1.0055153 0.9944923 0.99646235 0.9942579 1.0041677 0.9970941 0.99477065
0.9932325 0.9974246 1.0016121 0.99971914 0.9933862 0.99476814 0.9989656 0.99643034
1.0060098 1.0103674 0.9980048 0.99769133 1.0002526 1.0016215 0.9990108 0.9945637
1.0117024 0.98930323 1.0094818 1.0097373 1.0030055 1.0034074 1.0048038 0.9891561
1.0001819 0.9909235 0.98498505 0.9869114 0.9873353 1.0011349 0.9956441 1.0111749
0.9904664 1.000968 1.0057917 1.0043387 0.99271417 1.0041065 0.9943486 1.0005451
0.98806983 1.0126557 0.98761743 0.9922109 0.99270105 0.99471027 0.9908183 0.9928201
0.99587786 0.9906779 0.9895016 1.0080155 0.99869514 0.9974306 1.0108135 0.9974161
0.99622154 0.9817305 1.0089667 1.0071331 0.9968044 1.017761 0.9926741 1.0054233
0.99186033 0.9914524 0.9989968 1.0054909 0.9866493 0.98895866 0.9930582 0.9903408
1.0050657 0.9942513 1.0128587 0.99666274 0.9912939 1.0081826 0.9958787 1.0038794
0.9998991 0.99381876 0.9923476 0.99568325 1.0024767 0.98828614 1.0021996 0.99984217
0.99424094 0.996889 0.9930319 0.9918916 0.99208915 0.9869711 0.99308103 0.98635226
0.9957833 0.9983305 0.9923887 1.0016242

bn1.bias f4 [180]
00000000: 363e 153b 4770 3c3b edeb 22bc 950e f5bb
00000010: 9bfb 7abc 045d 21bc 6479 2a3b bf7c d83b
00000020: 77c0 54bc 7ad7 4abb ecbb fcbb ce49 b9bb
00000030: b6f6 8c3b 3544 223a 24c7 b9bb 438a 9cbb
00000040: e764 34bb 1ebe b4ba 26c9 b7bc 0987 18bc
00000050: e95b f1bb 6247 753b c51b de39 f969 89bc
00000060: e869 07bc b2d3 7b3b 77f9 edbb 1a10 51bb
00000070: a8a8 3cbc 05b3 adbb 86b4 0cbb dd74 83bb
00000080: 9c1c 263c f112 ccbb 41d0 a7bb 9f2e 78bb
00000090: 339b 46bc a4e0 c4bb f3ce 06bb dff2 11ba
000000a0: 0465 05bc fcc8 8dba 4546 f739 861d d7bb
000000b0: c877 4e3a 09c2 38bb 3904 18bc 4f85 03bc
000000c0: 35c8 c2bb e061 e1ba dfef 93bc 86d6 8cba
000000d0: 24f6 18bc 0859 15bc 278b 81bc 1fb8 22bc
000000e0: e37b 10bc 2927 323c d631 8e3b 2a03 ed3a
000000f0: e545 11bc 2881 7aba 8252 3aba e305 e33a
00000100: c262 5c3a 295b b4bb 174e e73b ce32 45bc
00000110: 787e d8bb c949 91ba cca6 063c 5e1c 00bb
00000120: 2600 f8ba 991f 1a3b 8cb1 80ba 3462 4f39
00000130: 1919 a8bb 2c07 8b3b bee3 dfbb 40c8 fdbb
00000140: fd17 1dbc 5107 08bb 64b3 043a c66b 183b
00000150: 0c36 063b b34c e1bb 815f f43b d3f0 11bb
00000160: 0153 b2bb e2ba 52ba 3731 3a3a 8dac af3b
00000170: 30d7 e1bb 4b1a 83bb f077 84bb b0ea c3bb
00000180: 9e61 9c3a aff8 41bc daec 49ba 3003 193c
00000190: 398e d83a 36e7 f13b 0711 e73b ecc0 9abb
000001a0: 2224 353b e546 93bb f362 1fbc 7f67 bdbb
000001b0: e6ec 43bb 6313 86bb 8fce cdbb 7fb6 21bc
000001c0: 3428 a7bb f041 c5bb 18d2 f83a 4d8e 47bb
000001d0: f1ce c9ba 8dff cb3a 6567 40bb 2d38 babb
000001e0: 8a76 fbb9 610c e0ba 033e 48bc 83df a0bb
000001f0: c254 f5bb 0cd7 5abb 9344 7abb addd e4bb
00000200: aa08 0b3b 16dc 50bc 8972 c5bb eb8d 153a
00000210: 19fb 13bc 9106 ed3b 2496 b2bb e4b7 ad3a
00000220: 4e63 003b f1d5 36bc cf32 893b 8d00 5dbb
00000230: 853a 3fbb 4bbe 793b 08c1 70bc dbae 04bc
00000240: ff09 13bc ad37 20bc 45b8 e6ba dd2a 4eba
00000250: 3e2c 4ebc b7c0 bdbb f1c9 6bbb be5e 16bc
00000260: 4c25 843b ed90 97bb 6740 97bb c147 97ba
00000270: 91c9 2bbc 523f 033c 6d0d 04bb 8db2 9bba
00000280: 9636 86bb c2c1 333a 85de bdba a65f 18bc
00000290: 6857 e03a 368e 44bc 41d6 b2bb f1e2 43bc
000002a0: 59d7 b539 9272 2bbc af98 38bb a0f0 cabb
000002b0: 832c 69ba 3b24 84bb 69ae bebb 4407 1cbc
000002c0: 88ac 373b de6c 1abc a3c3 52bc 2fa3 e7ba
0.0022772676 0.0028753446 -0.009943944 -0.007478545 -0.0153187765 -0.009848837 0.0026012296 0.006606668
-0.01298534 -0.0030951188 -0.0077128317 -0.00565455 0.004301871 0.0006189973 -0.0056694914 -0.0047772243
-0.0027525963 -0.001378957 -0.022434782 -0.009309539 -0.007365693 0.003742658 0.0004236383 -0.016774165
-0.008264996 0.003842574 -0.0072624045 -0.0031900466 -0.01151482 -0.005300882 -0.0021469905 -0.004011734
0.010138657 -0.006227844 -0.0051212613 -0.0037869585 -0.012121963 -0.0060082246 -0.0020570129 -0.00055675016
-0.00814176 -0.0010817344 0.00047163866 -0.0065647988 0.0007876125 -0.0028191826 -0.0092783505 -0.008027389
-0.0059442767 -0.0017195307 -0.018058715 -0.0010745085 -0.009336028 -0.009115465 -0.015813423 -0.009931593
-0.008818599 0.010873594 0.004339437 0.0018082608 -0.008866762 -0.0009555989 -0.00071076315 0.001732048
0.000840705 -0.005504031 0.0070588696 -0.012036039 -0.006606873 -0.0011084612 0.008218478 -0.0019548158
-0.0018920943 0.0023517369 -0.0009818538 0.00019777642 -0.005129945 0.0042427983 -0.006832569 -0.007744819
-0.009588239 -0.0020756314 0.00050621317 0.0023257597 0.0020478992 -0.0068755983 0.007457674 -0.0022268787
-0.0054420237 -0.0008038712 0.00071026705 0.005361146 -0.0068921074 -0.004000937 -0.004042618 -0.0059789047
0.0011930948 -0.011839076 -0.0007702835 0.009339139 0.0016521878 0.007382299 0.0070515904 -0.004722705
0.0027639945 -0.0044945353 -0.009728181 -0.00578016 -0.002989584 -0.0040916665 -0.006280727 -0.009870171
-0.005101228 -0.0060198233 0.0018983511 -0.0030449808 -0.0015396756 0.0015563831 -0.0029358503 -0.005682966
-0.0004796277 -0.0017093533 -0.012221816 -0.004909457 -0.0074869106 -0.0033392338 -0.0038187846 -0.0069844336
0.002121488 -0.012747785 -0.0060256165 0.00057050464 -0.009032034 0.007233449 -0.005450027 0.0013253656
0.001959044 -0.011159406 0.004186965 -0.0033722252 -0.0029179167 0.0038107808 -0.01469446 -0.008098329
-0.008974551 -0.009778899 -0.0017602524 -0.00078646635 -0.01258379 -0.0057907957 -0.003597852 -0.009177862
0.0040327664 -0.004625431 -0.0046158317 -0.001154177 -0.010485069 0.008010702 -0.0020149604 -0.0011878774
-0.0040958626 0.000685718 -0.0014485872 -0.009300148 0.0017115893 -0.011996796 -0.00545767 -0.0119559625
0.00034683457 -0.010464327 -0.0028167178 -0.0061932355 -0.00088948774 -0.0040326393 -0.005819131 -0.009523217
0.002802642 -0.00942537 -0.012864026 -0.0017672534

bn1.running_mean f4 [180]
00000000: 417b 80be e9e7 0cbd 302f 003e 447c 03be
00000010: 4c39 f43d 9c6f ef3e 2e71 003d 528d 21be
00000020: 0ee9 2a3d e7a8 15be ced7 613d 976a a4bd
00000030: f03e 873e 76c6 553d 7166 3bbf a7de 8ebe
00000040: 2692 6d3d c7e2 1a3e ac42 d4bd 7215 b03e
00000050: 1925 d63e 3fed 533d d6a4 f0bc 0aa6 8fbd
00000060: fb64 f8be a25f 2b3e 14f5 be3d f09b 16be
00000070: d564 ed3d 8566 4abb d096 72be 576a 78bd
00000080: f051 6abe 80cb 223e 6400 26be c37f 0d3e
00000090: 7516 c63c 1f9d 893e 1e94 9cbd ccf0 c13d
000000a0: b82a bcbd b4cd acba 39b1 34be cafa 10bf
000000b0: 886c 9bbc b055 57be 1195 84be 5aa3 b2bd
000000c0: 8186 2b3c 8f6d f9be e8c9 b9bd 9579 dcbd
000000d0: 88c9 08be de08 cb3e f39b 893c 31db 80be
000000e0: d723 cb3e 0fed e13c 7bad 403d 1b11 283c
000000f0: 7f4f 69bd 782e 2cbd 28cb a03d 3ca2 1fbe
00000100: 45a4 823e 7b94 513e 0c25 8cbd 07d5 77be
00000110: 19b4 ce3e bd07 0dbe 7d76 553e 32c6 813d
00000120: 4ac9 8ebe 7e0d c5bd 8f77 2dbd f540 99be
00000130: 6c40 c53e 5965 35be b6e3 803e c4e5 cabd
00000140: e654 2abe 5240 2e3e 4339 833e ef8c 743e
00000150: 3e02 0ebe 0644 70be aa93 88bd 5cd1 afbe
00000160: 4929 b6bc 6a84 793d 317c 55bd 2eac 053c
00000170: 5287 49be c441 80bb 40c9 4dbe 7cd2 e03c
00000180: c21a 20be 378d 8cbe ecca 52be 4aa8 953e
00000190: 926a 9ebe 2051 acbe e8b7 54bc d4ce 8e3e
000001a0: f694 c43d 86d5 a23e 3835 843e a5b3 8d3e
000001b0: 0aec d7bc 6917 9dbd 8145 f3bb 53c0 393d
000001c0: b08f 3abe 4ec9 f93d b41c b73d a6de de3d
000001d0: 2e06 aabe 99d9 4d3e 109c b03c cee8 ebbe
000001e0: 0b27 8d3e 2b5b 43be bb71 37be 91ce 803e
000001f0: 15a8 413e f328 a8be f54c 4a3d da22 0f3e
00000200: ad5e 67bd 90ef 7d3d b53e 07bf b103 463e
00000210: de7f b13d a201 023e 3dd7 ebbe e074 3e3e
00000220: 1088 e2bd e68e 98be 6e81 7abd 6673 963d
00000230: 4ae2 e13e 04de 2a3e 1df5 bd3d fd49 8bbe
00000240: 8392 6e3e 26af 8fbe cbc8 ddbd 8e38 ec3d
00000250: 8645 4c3e aa78 513c 573c 2fbd ce03 fcbd
00000260: 3be7 ae3c 3ab1 84be 2f41 b4bd ae51 5e3d
00000270: 4096 fa3d d36c b73b 6c18 77bd 10bd 8e3d
00000280: 864f 2b3d 65e0 953c c617 af3e 613d bcbd
00000290: 4036 de3e 0af0 d83d 832b 353d 31ba 5e3e
000002a0: f1e0 443e 1daf ecba 052c 5a3e f23e 433d
000002b0: 5514 71be dbc2 82be 6a8c 74bd eeb5 25bd
000002c0: c7ca 9dbe 59b2 903d 5059 473e b078 65bd
-0.25094035 -0.034400854 0.12518 -0.12840372 0.11924991 0.4676484 0.031357937 -0.15776566
0.041726165 -0.14615212 0.055137448 -0.08028143 0.26415205 0.05219122 -0.7320319 -0.27904245
0.058000706 0.15125571 -0.10364279 0.3439136 0.41825178 0.051739927 -0.029375475 -0.07014091
-0.48514542 0.167357 0.09324089 -0.14707923 0.11591498 -0.003088386 -0.23690343 -0.06064829
-0.22882819 0.15897942 -0.16211087 0.13818268 0.02418063 0.26877686 -0.076454386 0.094697565
-0.091878355 -0.0013183863 -0.1764573 -0.56632674 -0.01897265 -0.21028781 -0.2589498 -0.08722563
0.01046908 -0.487164 -0.09071714 -0.107653774 -0.13358128 0.39655203 0.016797995 -0.2516723
0.3967578 0.027578859 0.047040444 0.0102579845 -0.05696058 -0.042036504 0.07851249 -0.15589231
0.25515953 0.20466797 -0.06843004 -0.24202357 0.4037178 -0.13772483 0.20845981 0.06336631
-0.27887946 -0.09621714 -0.042350348 -0.2993237 0.38525712 -0.17714442 0.2517373 -0.099071056
-0.16633949 0.17016724 0.25629625 0.23881887 -0.13868043 -0.23463449 -0.0666879 -0.34339416
-0.022236483 0.060917296 -0.05212039 0.008158727 -0.19680527 -0.00391409 -0.20096302 0.027444117
-0.15635207 -0.27451488 -0.20585221 0.29229957 -0.30940682 -0.33655643 -0.0129833 0.27892172
0.095987245 0.3180353 0.25821853 0.2767612 -0.02635767 -0.07670481 -0.007424057 0.04534943
-0.18218875 0.12196599 0.089410216 0.108823106 -0.3320784 0.20102538 0.021558791 -0.46076053
0.2756885 -0.19077747 -0.17914478 0.25157598 0.18911774 -0.32843742 0.0493898 0.13978139
-0.056486774 0.061996043 -0.5283006 0.19337346 0.08666967 0.12695935 -0.4606265 0.18599272
-0.11061108 -0.29796523 -0.06115859 0.07346229 0.44117957 0.16686255 0.09275267 -0.27204886
0.23298077 -0.28063315 -0.10829314 0.115342245 0.19948396 0.012785116 -0.042782154 -0.12305413
0.021350494 -0.25916463 -0.08801495 0.054277115 0.12235689 0.0055976897 -0.060326025 0.069696546
0.041823886 0.018295476 0.34197825 -0.091913946 0.43400764 0.10592659 0.04423095 0.21750714
0.19226433 -0.0018057559 0.21305855 0.04766745 -0.23542912 -0.25539288 -0.05970422 -0.040456705
-0.3081877 0.07065267 0.19467664 -0.0560233

bn1.running_var f4 [180]
00000000: 621e 9f3d ea68 1e3d 96ed 203d 588d 183d
00000010: 86cb 4d3d 5c55 9e3d 60b2 823d 499b 203d
00000020: a91d 053d fe2b 173d 9aef 553d 65b0 123d
00000030: aac2 8b3d 53f3 313d 825a d33d 7ac3 363d
00000040: 8ed2 223d 736e 3f3d 6c17 473d bc54 2e3d
00000050: 7a00 903d e003 2f3d 994f 043d bd8e 5d3d
00000060: 23d7 753d fbf7 173d 5693 463d 195c 373d
00000070: 0f4d 2f3d 46f2 2d3d 629f 883d 772a 1f3d
00000080: abe6 093d 561e 003d 694e 253d d38d 293d
00000090: 1bdf 3b3d 73d4 413d 3c80 603d e870 193d
000000a0: be96 253d e2a1 483d 1bc6 fa3c b0f7 943d
000000b0: 1c5e 063d 7a4c 3c3d 4fde 8c3d 35a4 123d
000000c0: acc2 f03c 8fc9 873d 32f2 0b3d a054 673d
000000d0: f632 3d3d 2ec6 4c3d 840a 073d 69f3 243d
000000e0: 62f4 2a3d 2d9b 2d3d f4da 923d 3daa 793d
000000f0: f96b 493d 5d52 1b3d b97e 433d ebe2 783d
00000100: d820 563d 7843 0f3d 2f1b e83c 646f 2b3d
00000110: 00cd 813d 06e1 153d fe99 173d 0a1d 0b3d
00000120: 04cc 393d b961 1c3d e0e6 663d 9866 323d
00000130: 5bd0 513d 9c77 2a3d 006d 2e3d 5aee 3c3d
00000140: 0143 443d 501c 2e3d de9b 203d b454 713d
00000150: ee04 243d 493e 383d 2eb8 1b3d ed1a 903d
00000160: 5c68 e13c e460 0e3d 0ae1 fe3c 6b51 1b3d
00000170: 6f24 633d ed74 ff3c 9e72 763d cf52 2d3d
00000180: e9de 1e3d d1f5 553d da3e 133d 2653 313d
00000190: 4b12 6d3d 69db 573d 9355 363d dbd8 333d
000001a0: 4368 203d 367b 543d 294e 4a3d 99fa 303d
000001b0: b28f 153d 0bb5 1c3d b1f2 2e3d 249c 0c3d
000001c0: cc1d 4c3d a4dc 1a3d 75f6 373d 7ac4 153d
000001d0: b5e9 883d cc0b 093d f183 c83c 6c30 583d
000001e0: b6b3 ae3d 6f73 273d d07e 6f3d d808 243d
000001f0: d8e8 533d 3586 323d 6479 223d c2e4 5a3d
00000200: 6693 2f3d 2b03 3f3d d491 923d 5033 213d
00000210: 73a3 383d 24ff 5b3d fa12 873d f904 453d
00000220: 6120 9a3d fb8c 3d3d 55a8 2d3d 5dd6 383d
00000230: 545f 963d 60ae 0b3d 1113 663d d3a5 363d
00000240: d6eb 1f3d d6d0 963d eccd f63c 4e36 413d
00000250: 4cb6 fe3c ed87 4b3d 148a 3e3d eaa5 363d
00000260: 4950 103d cbc9 523d 0f15 373d beed 2f3d
00000270: 1bff 753d 867b 033d b263 2a3d 7c3f fd3c
00000280: c4ad 1f3d 106c 2c3d 7864 b63d d811 123d
00000290: 6358 953d b5e0 193d 96fe 523d 54a1 253d
000002a0: b15f 1e3d 6e81 363d 84b7 293d 5ab4 243d
000002b0: f77c 333d 132f 663d 8aac 333d f713 2c3d
000002c0: 92d4 223d a78c f93c d899 103d f02d 363d
0.07769467 0.038674273 0.03928908 0.03724417 0.050242923 0.07731125 0.063816786 0.03921059
0.03249899 0.03690719 0.052230455 0.035812754 0.068242386 0.043444943 0.10319997 0.044620015
0.03975158 0.046736192 0.04860632 0.042561278 0.07031341 0.042728305 0.032302473 0.054091204
0.060019623 0.037101727 0.048480354 0.044765566 0.0427981 0.042467378 0.06671025 0.038858857
0.033667248 0.03127893 0.04035798 0.04139502 0.045867067 0.047321748 0.054809794 0.03746119
0.040426962 0.04898251 0.030612042 0.07273805 0.032804593 0.04597137 0.068783395 0.03580113
0.029389702 0.06630241 0.034166522 0.05647719 0.04619118 0.049993686 0.032969013 0.040271197
0.041736968 0.042384315 0.07170668 0.060953368 0.049175236 0.037920345 0.047728274 0.06076328
0.052277416 0.034976453 0.028333275 0.041854277 0.06337929 0.036591552 0.037012093 0.03396324
0.04536058 0.038179133 0.056372523 0.043554872 0.051224094 0.041617975 0.04258442 0.046125747
0.047915462 0.04250747 0.039211147 0.05891867 0.040043764 0.044981275 0.038017444 0.07036386
0.027515583 0.03476037 0.031113166 0.037919443 0.055454668 0.031183684 0.0601679 0.0423153
0.038786802 0.052236382 0.03594861 0.043292187 0.057878774 0.05269948 0.044515204 0.04390798
0.03916193 0.051875316 0.049390946 0.04320774 0.03651399 0.038258594 0.042711917 0.034328595
0.049833104 0.037808076 0.044912774 0.036564328 0.06685201 0.033458516 0.024476977 0.052780554
0.08530371 0.04088157 0.058470547 0.040047497 0.05173573 0.04358502 0.03966655 0.053440817
0.04286518 0.04663388 0.07156721 0.039355576 0.045077752 0.053710118 0.06595416 0.048100445
0.07525707 0.046277028 0.042396862 0.045126308 0.07342401 0.034101844 0.056170527 0.044591736
0.03904327 0.07364051 0.030127488 0.04717093 0.031092785 0.049690176 0.0465184 0.04459182
0.035232816 0.051461976 0.044697817 0.042951338 0.06005774 0.032100223 0.041598983 0.03091406
0.038984075 0.042095244 0.08905882 0.03566155 0.07292249 0.037567813 0.051512323 0.040437058
0.038665477 0.044557028 0.04143478 0.04021106 0.043820348 0.056197237 0.043865718 0.042011227
0.039753504 0.030462576 0.035302967 0.044477403

bn2.weight f4 [96]
00000000: 9388 7c3f 8daa 7c3f 9a52 823f 8349 7d3f
00000010: 81bb 803f 0c19 7d3f 573d 813f 4dce 7e3f
00000020: 7407 7e3f f873 813f 9a63 803f 2dd2 803f
00000030: 8fcd 7f3f 8202 843f 1c39 7d3f 0370 7e3f
00000040: 5610 7c3f aa38 7f3f 270a 7d3f eb71 823f
00000050: 273a 803f b207 7d3f 9651 7e3f 17e8 7e3f
00000060: 3138 7f3f 585d 7d3f 0b39 7d3f 8a5f 823f
00000070: 3354 7c3f 5689 7f3f fb6d 7a3f bd0f 803f
00000080: c58e 7d3f 82c9 7d3f 4cba 803f b953 7c3f
00000090: 0663 7d3f de21 823f 4457 7f3f ae65 7d3f
000000a0: 56f4 7e3f d496 7f3f 990d 7d3f ff89 7e3f
000000b0: 7b42 7e3f f5fb 803f 5301 7e3f 28cb 7b3f
000000c0: 38f1 7d3f d647 7d3f 6233 7c3f bc23 7d3f
000000d0: 3bb6 7d3f 4edb 7c3f 20cd 7c3f 42f8 7b3f
000000e0: d53e 803f 11f6 7f3f ca02 803f 77cb 7b3f
000000f0: 9c14 7d3f 34f8 7c3f 2e85 7d3f ffaa 7e3f
00000100: dca9 803f e2c5 7c3f 2287 7d3f f130 803f
00000110: 5a62 803f a5f7 803f bdb9 803f 76f0 7d3f
00000120: 6f91 7e3f 5b58 7f3f b40f 7e3f b724 7d3f
00000130: ac20 803f 7750 823f 2d62 7e3f d2e0 7f3f
00000140: 747d 7d3f 1290 803f ce21 7b3f a89d 803f
00000150: 5b08 7d3f b264 7e3f 59a8 7c3f 0781 7d3f
00000160: ba05 803f 6746 7d3f ecee 7e3f 9504 803f
00000170: a897 7a3f 8e62 803f 1cca 803f b750 7d3f
0.98645896 0.9869774 1.0181458 0.98940295 1.0057222 0.98866343 1.0096844 0.9953354
0.9923012 1.0113516 1.0030396 1.006414 0.9992303 1.0313265 0.98915267 0.99389666
0.98462427 0.9969584 0.98843616 1.0191015 1.0017747 0.9883987 0.9934324 0.9957289
0.99695116 0.98970556 0.98915166 1.0185406 0.9856598 0.99818933 0.97824067 1.0004803
0.99045974 0.991356 1.0056853 0.9856525 0.9897922 1.0166585 0.9974253 0.98983276
0.9959158 0.9983952 0.98848873 0.99429315 0.9932019 1.0076891 0.9922077 0.98356867
0.99196196 0.9893774 0.98515904 0.9888265 0.99106187 0.9877213 0.98750496 0.98425686
1.0019175 0.9998484 1.0000851 0.9835734 0.9885957 0.9881623 0.9903134 0.9947967
1.0051837 0.98739445 0.9903432 1.0014936 1.0030015 1.0075575 1.0056683 0.9919504
0.99440664 0.99744195 0.9924271 0.9888415 1.0009971 1.0180806 0.99368554 0.99952424
0.9901955 1.0043967 0.98098457 1.0048113 0.98840874 0.993724 0.9869438 0.99025005
1.0001748 0.9893555 0.99583316 1.0001398 0.9788766 1.0030077 1.0061679 0.98951286
