Proposed model/saved_best_DNN_model/0.39289model_fingerp9.pth (torch, 216672 bytes, 19 tensors)

lin1.weight f4 [180, 166]
000000 e6 2f 9a 2d f3 2a 4a b8 f1 bf 91 3d 80 e0 af 31
       1.7529044e-11 -4.8200553e-05 0.07116688 5.118693e-09
000010 77 0b e0 3c ba 97 19 bd 1b 8e c7 30 dd 60 0b 3d
       0.027349217 -0.037498213 1.4519544e-09 0.034027923
000020 a4 26 8c 3d 78 a7 02 3d bd eb 04 3d 69 c1 d9 bc
       0.068433076 0.031897992 0.03245138 -0.026581483
000030 3b df 81 3d 22 57 82 bc 48 8d 1e 3c 8d cb 74 bd
       0.06341406 -0.015910689 0.009677239 -0.059764434
000040 f2 f7 d0 bc 12 b6 bb bb 54 0f 4e bd 48 df bd 3c
       -0.025508855 -0.0057284916 -0.050307587 0.023177758
000050 fa e4 85 bd 63 3b a4 bd 01 e1 72 3d 82 25 fc ba
       -0.065378144 -0.080191396 0.05929661 -0.0019237252
000060 43 04 19 bd 1c fe 43 bd 8b f2 42 3d f5 37 0e 3d
       -0.03735758 -0.04784976 0.04759459 0.034721334
000070 7f ca 2f 3d 2e 1b 95 3b 65 8a 59 3d 47 ea 4c 3d
       0.042917725 0.004550359 0.0531105 0.05002811
000080 0e 3f 05 3d d3 83 35 3b 96 42 63 bd 95 09 dc 3c
       0.032530837 0.0027696982 -0.055483423 0.026860038
000090 96 cb 2c 3d e9 1b 41 bd ae 91 a0 3b da fa 52 3d
       0.042186342 -0.047145758 0.004900179 0.051508762
0000a0 f4 1f 77 bd a6 80 24 3c 9a cd 12 3d fb 66 d7 bc
       -0.060333207 0.010040438 0.03584061 -0.026294222
0000b0 63 6c 9a 3c d9 df a8 bc 64 db 3b bb 1f 1f f6 bb
       0.018850511 -0.020614551 -0.0028664703 -0.007511034
0000c0 8d 49 9a bd a3 ce f2 3c c0 a3 b5 3b bb 7f 91 bc
       -0.0753356 0.029639548 0.005543202 -0.017761102
0000d0 e1 74 27 39 20 23 48 bd 33 58 2e bc e0 a4 78 bd
       0.00015969902 -0.048861623 -0.0106411455 -0.060704112
0000e0 ca 0c 76 bd 99 c5 13 bd a1 57 89 3d c9 48 63 3d
       -0.06007079 -0.036077116 0.06706167 0.055489335
0000f0 58 ab 29 bd ec 8f 7b bc b4 6a a4 bd 1d f5 9e bd
       -0.04142317 -0.015354138 -0.080281645 -0.077615954
000100 33 cb d2 bc e6 ba 85 bc 05 67 14 bd 2f 66 31 bc
       -0.025731659 -0.016324472 -0.03623106 -0.010827585
000110 2c a0 78 3d a0 1e c1 bb 23 f8 0a 3d 69 cf a8 3b
       0.060699627 -0.0058935434 0.033928048 0.0051516783
000120 3e 47 3f 3d ad 2c 97 3d 59 ed 7c bd 4a bb 49 bd
       0.0466988 0.07381568 -0.06174979 -0.04925088
000130 66 08 89 bc 55 62 53 3d 37 67 8d 3c bb 1b 67 3b
       -0.016727637 0.05160745 0.01726113 0.0035264331
000140 25 ed cd bb c0 7a 47 3d 8d b0 aa 3b 09 4a a8 bb
       -0.0062843733 0.048701048 0.005209035 -0.005135779
000150 32 43 8a bb 5d a5 89 3c 66 e0 9d bc 39 48 3a bd
       -0.004219436 0.016802484 -0.01927204 -0.045479033
000160 c3 92 71 bd ad 83 96 3d 24 34 48 3d 12 7a 7d bc
       -0.058977854 0.07349334 0.04887785 -0.015470998
000170 7a f1 2e bd 6c 83 52 bd 11 5e 44 3d f3 1c 0d bd
       -0.04271076 -0.051394865 0.04794127 -0.034451436
000180 5c 1a d8 bc 17 bb dd 3c d6 fa f9 bc 4c 3a 3d 3d
       -0.026379757 0.02706675 -0.030515116 0.046198174
000190 a1 be 6d 3d 5d 90 a6 3c 42 a9 30 3d 66 13 27 bd
       0.058043126 0.02033251 0.043130167 -0.040789984
0001a0 c1 01 2b bd b9 86 70 3d 90 8c 8d 3c 4d f8 e5 bc
       -0.04174972 0.05872223 0.01727894 -0.0280725
0001b0 2b 19 cc bc 7b 42 f2 bc 9f 29 81 3d 7f 2d a8 bc
       -0.024914345 -0.029572716 0.06306767 -0.020529507
0001c0 6a 17 2d 3d 53 4b 6a bb 86 4b f6 bb 38 de ea 3b
       0.042258658 -0.0035750463 -0.0075163273 0.007167604
0001d0 85 21 84 3d 32 88 78 3d b4 7a 8d bd 06 72 cf bc
       0.06451706 0.06067676 -0.069081694 -0.025322925
0001e0 27 65 18 3d b7 fe a4 bd d6 56 31 bd 30 33 62 bd
       0.03720584 -0.080563955 -0.043295704 -0.055224597
0001f0 4e 3b 9e 3b db 47 de 3c 37 d5 2a 3d 9a 29 53 3d
       0.004828847 0.027133873 0.041707244 0.051553346
000200 07 27 12 bd 49 9b 55 3d 96 e9 4e 3d 46 6b a7 3c
       -0.03568175 0.052150045 0.050515734 0.020436894
000210 35 20 87 3d ca 83 5f 3c ee f0 98 bd d5 bd 4f 3d
       0.0659794 0.013642261 -0.07467829 0.050718147
000220 42 05 cf bc be 1c 32 bd 94 e7 54 bd ca 26 8c bd
       -0.025271062 -0.043484442 -0.051978663 -0.06843336
000230 b4 9c d4 ba 03 50 6b bd 95 d5 ca 3c 9c 7c 1e 3d
       -0.0016221018 -0.057449352 0.024760047 0.038693056
000240 87 48 d9 bc ef e6 1c 3d 81 c0 08 3d d2 28 8d bc
       -0.026523842 0.038306173 0.03338671 -0.017231379
000250 4e 86 ac 3d c8 5e fd bc 71 3d 2a bd f6 9d e0 3c
       0.08424054 -0.030928984 -0.0415625 0.027419072
000260 16 77 33 bd ac 6c 80 bd 78 e3 ff 3b 33 13 77 bd
       -0.04381474 -0.062707275 0.007809099 -0.060321044
000270 28 4e b6 bc 98 a8 29 bd 49 d6 96 3d 9f c2 31 3d
       -0.022254065 -0.04142055 0.073650904 0.043398496
000280 e6 6f 9d 3b 40 0d a2 bd 36 27 39 3d f4 8d c9 bc
       0.004804599 -0.079126835 0.04520341 -0.024603821
000290 89 fb 83 bd fa 6f 0f 3d 17 21 9b ae 32 bc 1f 3a
       -0.06444461 0.0350189 -7.054462e-11 0.0006093412
0002a0 dc 00 42 3a e4 da 28 3b dc 44 bf b7 6b 3e 75 3d
       0.0007400641 0.0025765235 -2.280104e-05 0.05987398
0002b0 92 7a a4 2e f9 a9 b7 bc b2 f6 98 3d b2 3a 79 3d
       7.4796294e-11 -0.022419916 0.074689284 0.06084699
0002c0 45 cb 25 bd 92 a0 ae 3c fa 31 ba 3c e1 06 c5 bb
       -0.040477056 0.0213168 0.022728909 -0.006012783
0002d0 74 76 2d 3d 25 81 24 bd 4b fc 63 bd 68 27 46 bc
       0.042349294 -0.040162224 -0.055660527 -0.012094356
0002e0 07 7d 03 bd 10 53 9b ad e0 40 69 bd 91 dd c1 bb
       -0.032101657 -1.7658347e-11 -0.056946635 -0.0059163054
0002f0 7d da 94 3d 62 b5 6a 3d c7 b9 3a bd 15 ac e0 3c
       0.07268236 0.057301886 -0.045587327 0.027425805
000300 9e 4e 83 3c c6 14 a6 3d 56 23 26 bc a8 f5 b0 3c
       0.016028699 0.08109431 -0.010140261 0.021601513
000310 0a 5b f3 3b 08 7a 4b 3d 50 e2 80 bd 41 aa 21 3c
       0.007426624 0.049676925 -0.06293166 0.009867252
000320 c5 46 31 3d e7 cb 68 bd f3 3c 2e bc 57 ec 5f 3d
       0.04328038 -0.05683508 -0.010634649 0.05466875
000330 5b 53 5b 3d 60 ed 9d bd 24 eb ba 3a 0d ed b8 3c
       0.05354629 -0.07711291 0.0014260751 0.022573972
000340 d6 94 52 3d b8 af b3 bd 1c 17 90 bd b2 9e 73 3d
       0.051411472 -0.0877375 -0.07035658 0.059477516
000350 13 44 a1 bd ee b8 2f bd a9 64 61 bb d7 c1 08 3c
       -0.07874312 -0.042900972 -0.0034392274 0.008346996
000360 eb 18 76 3d 2d 7b 6e bb 0f 67 13 bd 04 aa 41 bd
       0.060082357 -0.0036389336 -0.035986956 -0.04728128
000370 3e c6 b6 bc 3d 24 84 3d 5e 17 7c 3c fe 2e aa 3d
       -0.022311326 0.064522244 0.015386431 0.08309744
000380 7e e0 25 ba 78 8f 11 3d 62 d0 1c bd 54 a2 99 bd
       -0.00063277024 0.035537213 -0.038284667 -0.07501665
000390 95 fc 9c bb 14 56 20 3d c3 ee 24 3d 4b 0a 92 3c
       -0.0047908523 0.03914459 0.040266763 0.017827174
0003a0 b3 33 49 bd 85 db dd 3b a4 c9 8b 3d 7b 17 77 bd
       -0.04912157 0.0067705535 0.06825569 -0.060325127
0003b0 f8 12 30 bd 0b 10 2f bd ea 5c 93 bc 96 aa f1 bc
       -0.04298684 -0.04273991 -0.01798864 -0.029500287
0003c0 97 48 08 3d 81 da 8e 3c d5 b6 07 3d 65 73 e9 3c
       0.033272352 0.017438175 0.033133347 0.028497407
0003d0 dd aa 42 bd bb a6 7c bd da 3a 98 bc 0a b6 29 3d
       -0.04752623 -0.061682444 -0.01858275 0.04143337
0003e0 84 0a 77 3d 66 8b 10 3b 91 b6 23 bc 24 ee ec bc
       0.060312763 0.0022055744 -0.009992258 -0.028922148
0003f0 77 4f 87 bb d4 b7 14 bd 62 8b 82 bd ed 52 38 3b
       -0.004129346 -0.036308125 -0.063742414 0.00281256

lin1.bias f4 [180]
000000 45 da ba ba 6a bd eb 3c 6a c8 97 3a 50 9a b7 3c
       -0.0014255723 0.028776843 0.0011580114 0.02241245
000010 ca ab 19 b5 d2 9f a2 3c 9d 21 39 b5 76 e4 02 3c
       -5.724693e-07 0.019851599 -6.8966784e-07 0.00798904
000020 d6 38 77 bc f6 3c 53 3c 90 0a 48 bc 94 fc a3 bc
       -0.015089234 0.012892952 -0.01220955 -0.0200179
000030 04 09 9c 36 15 7a 9f 3c 22 41 b5 3a d0 33 d1 3c
       4.650212e-06 0.019467393 0.0013828615 0.025537401
000040 43 99 96 bc e8 af 01 3d 2b a9 f6 3c 62 c7 fe bc
       -0.018383628 0.031661898 0.030109962 -0.031100933
000050 30 b5 61 b5 71 81 0a 3c 8a bf f4 ba 50 87 d1 bc
       -8.4082694e-07 0.008453713 -0.0018672806 -0.025577217
000060 d4 94 78 bc 36 60 67 b7 4a d4 c6 bc 75 8e 07 bd
       -0.015172202 -1.3791074e-05 -0.02427115 -0.033094842
000070 72 19 f7 3b a4 37 40 3c 40 0b 96 bc 61 4e 3d bb
       0.007540875 0.011732016 -0.018315911 -0.0028885829
000080 ff b9 e1 38 82 b0 1b 35 70 fb 96 3a f2 8b e9 b6
       0.000107634805 5.799885e-07 0.0011519026 -6.960233e-06
000090 6f bf d5 3c d1 6e 9f b5 5c 30 64 3c 4e 77 5b 39
       0.02609226 -1.1878675e-06 0.013927545 0.00020929912
0000a0 a6 3c fa 3b 43 20 19 bc ff de eb ba e2 80 b0 bc
       0.0076366244 -0.009346071 -0.0017995535 -0.021545831
0000b0 48 3a 26 bc 67 3b 28 bb fb 98 f3 3c 90 bd c2 bb
       -0.010145731 -0.0025670172 0.029736033 -0.005943008
0000c0 05 08 30 3b e7 be 57 ba 29 4f fc 3c 1d 9d 3d bc
       0.0026860249 -0.0008230046 0.030799465 -0.011573103
0000d0 f5 00 0c b9 0c bb 20 bb d7 38 2c ba 22 fd f6 3c
       -0.00013351797 -0.002452555 -0.0006569749 0.03015
0000e0 13 97 e6 3c 32 65 5d b8 f4 f5 a6 35 76 69 7c 3b
       0.02814821 -5.278475e-05 1.2439546e-06 0.0038515008
0000f0 60 55 01 3d 7c 22 e2 3c 2a 0a b6 b9 64 3c 8c 3c
       0.03157556 0.027604334 -0.00034721318 0.01711864
000100 75 b6 d2 bc d7 fc fa 3c 54 dc ee b8 4a f9 fe bc
       -0.025721768 0.030638142 -0.00011389764 -0.03112473
000110 67 43 16 b5 3d 94 f4 3a 99 cf 8b ba e9 66 c1 b8
       -5.597744e-07 0.0018659901 -0.0010666727 -9.222126e-05
000120 3b 94 a4 b4 37 f3 3d bc 8d 35 29 bb c6 ef ee b5
       -3.0655232e-07 -0.0115936315 -0.0025819272 -1.7802165e-06
000130 34 74 db 3c c2 01 85 3c b9 c7 2b b6 79 9f aa 39
       0.026788808 0.01623619 -2.559724e-06 0.00032543743
000140 6b 19 83 35 40 6d 34 b9 26 20 02 3d 16 5e fc 3b
       9.767658e-07 -0.00017206836 0.03176894 0.0077016456
000150 f8 ca 1c 3c dd e0 2c 3c f0 40 2f 35 f2 1d a5 b8
       0.009569876 0.010551658 6.5287077e-07 -7.873391e-05
000160 16 08 b9 bc 8d f1 bb b9 76 48 df 3c a8 2a e4 bc
       -0.022586863 -0.0003584739 0.027256232 -0.027852371
000170 04 03 40 3a 73 a7 28 36 d9 7b 70 3b 1c 8d 1c 3c
       0.0007324668 2.513142e-06 0.0036694913 0.0095551275
000180 4c 6b fe bb 38 a1 94 bb 7d ee 20 b6 29 2c 55 bc
       -0.0077642556 -0.0045358203 -2.3980676e-06 -0.013011017
000190 47 11 bf 3b cd db 9e 3c 5b ab d5 ba d1 2f 00 3d
       0.005830917 0.019391919 -0.0016301678 0.0312956
0001a0 e2 75 0e 3d 2c 9e 1b bc bc 65 be b9 14 4a bd 3b
       0.03478039 -0.00949816 -0.00036315422 0.005776653
0001b0 e3 4e 1a 3a e8 b9 09 bb 02 5e 24 b6 5c f1 30 b5
       0.0005886389 -0.002101535 -2.4492624e-06 -6.5916333e-07
0001c0 74 b2 6c 35 c4 09 4b 3c 73 18 a5 bc 1c 38 00 3d
       8.8176535e-07 0.012392465 -0.02015326 0.03130351
0001d0 0b 77 ac b6 25 26 b8 b5 37 a7 0b 36 96 6e 2c 3c
       -5.139858e-06 -1.372017e-06 2.0809946e-06 0.010524413
0001e0 bd b4 06 36 1a 63 43 bc a6 28 8b 3c d9 b3 36 3c
       2.007276e-06 -0.011925483 0.016987156 0.011151277
0001f0 89 84 00 b5 0c 24 67 b6 2a a6 53 bc ae 7c a9 3c
       -4.787658e-07 -3.4442664e-06 -0.012918035 0.020689335
000200 00 74 bd bb 25 85 c9 3c a6 da a7 bb 20 f4 9b b2
       -0.0057816505 0.024599621 -0.0051225005 -1.815539e-08
000210 1e 57 85 bb 25 ef de bc c3 46 f3 bc a7 21 21 bc
       -0.004069223 -0.027213642 -0.029696828 -0.0098346835
000220 da 96 c4 3c f0 f8 0c 35 8f 00 8a 39 e1 c1 8d b7
       0.023997713 5.2516316e-07 0.00026321827 -1.6898792e-05
000230 99 d5 cd 3c 65 2d 14 36 92 6b 3b 3b ba 93 90 bb
       0.025126265 2.2080142e-06 0.0028598052 -0.0044121416
000240 95 75 a3 3a f2 d9 46 3b 9c 0d 70 3b b9 44 b4 3c
       0.0012470955 0.0030342308 0.0036629206 0.022005426
000250 e8 78 c9 bc f7 1e 83 3c 1b e6 f4 3c 01 ac 8e bc
       -0.024593785 0.016005976 0.02989488 -0.017416002
000260 c3 8c 3e bc da 86 8f 3c df 21 7f bb 7a d4 f2 bc
       -0.01163024 0.017520357 -0.00389301 -0.029642332
000270 a7 46 1c b9 fa 13 43 3b f1 d4 d1 b8 54 93 ab ba
       -0.0001490364 0.0029766546 -0.0001000556 -0.0013090172
000280 a8 ac 87 bb b9 18 d1 b4 74 99 08 3b dc bf af b5
       -0.0041404553 -3.8947272e-07 0.0020843418 -1.3094354e-06
000290 d0 60 97 3c 18 d1 65 bb 6b 18 7e bc aa 65 03 b4
       0.018478781 -0.0035067257 -0.015508751 -1.2237311e-07
0002a0 8d be e6 bc 07 bb 6d bc 16 ac 11 b4 af 45 f3 bb
       -0.028167034 -0.014509923 -1.3566782e-07 -0.0074240784
0002b0 fa d9 8b bb 28 ba 2f b6 5f e4 d9 bc ef 09 da bb
       -0.004267928 -2.618539e-06 -0.026598154 -0.006654016
0002c0 0a f1 e5 b9 85 a6 0c bd 91 ff 05 3d ce e9 4c 36
       -0.00043857872 -0.034338493 0.03271443 3.053446e-06

lin2.weight f4 [96, 180]
000000 37 03 48 3d 82 ba 8c 3c 9b 0e 3d bc 14 14 90 3d
       0.04883119 0.017178778 -0.011539127 0.070350796
000010 6c 83 2c bc df 34 ed 3a 5d bb 83 bd 26 b6 01 bc
       -0.01052938 0.0018097422 -0.06432221 -0.007916963
000020 40 fc 97 3d af fe 22 3d 80 84 4f bd 8d 5f 03 bd
       0.0742116 0.039793666 -0.05066347 -0.032073546
000030 dc a1 a2 3d e1 4a 0b 3d f7 4e 99 3c 3b d8 8d 3d
       0.079410285 0.034006957 0.018714411 0.06926008
000040 40 a5 8a 3d 7b d7 3a 3d 4e fa 98 3d 4b cb ad 3c
       0.067698 0.045615654 0.07469617 0.021215102
000050 de f8 7d bd b4 06 23 3d 39 23 d7 3c 81 0e 31 bd
       -0.062004916 0.039801314 0.026261913 -0.043226723
000060 84 fa 53 bc 5b 9c 20 bd e5 a7 ea bc e1 90 9c 3b
       -0.012938146 -0.039211612 -0.028644511 0.004778013
000070 f2 32 13 bc 73 d6 8b bd 79 24 35 bc 70 e9 08 3c
       -0.008984314 -0.06828012 -0.011056059 0.008356437
000080 67 9c 90 bc 02 a0 91 3d 9e 03 5a 3c a0 2e 8a bd
       -0.017652703 0.07110597 0.0133065265 -0.06747174
000090 89 21 b5 bc f7 fc 56 3c 1d b1 93 bc db 09 7d bd
       -0.022110717 0.013121835 -0.01802879 -0.061776977
0000a0 5a e9 8c bd 7f 09 84 3d ef 65 83 3d 3a 53 78 bc
       -0.06880446 0.06447124 0.06415927 -0.0151565615
0000b0 e0 d0 63 bd 63 97 89 bd c1 9b 47 bd 13 0d 14 3c
       -0.05561912 -0.06718328 -0.048732523 0.00903632
0000c0 98 b3 83 bd ed 4d 9c 3c af 5d 76 bd 39 f2 01 3d
       -0.06430739 0.019080127 -0.060147937 0.031725142
0000d0 7a 37 06 bd 4b d3 31 bd 10 8c 13 bd f6 d0 72 bd
       -0.03276775 -0.043414395 -0.036022246 -0.059281312
0000e0 39 5e b8 bc 34 05 65 bd d7 73 a9 bc 45 f3 8d 3c
       -0.022505866 -0.055913165 -0.02068512 0.017327914
0000f0 a3 6c 6c bd e8 11 f7 bc 74 34 7b 3d eb db 89 bd
       -0.05772079 -0.030159906 0.06132932 -0.06731399
000100 ac 44 53 3d a5 23 96 bd ef 32 0e bd f7 ef 8b bd
       0.051579162 -0.073310174 -0.034716543 -0.06832879
000110 85 d2 55 3d 69 fa d3 3c 5f 8f 1c bb c2 f3 93 bd
       0.05220272 0.02587624 -0.0023889167 -0.072242275
000120 d7 51 4c bd ac 43 40 bd bb 2f c9 bc e6 97 61 3d
       -0.049882736 -0.046939537 -0.024558892 0.055076502
000130 d3 1a 5d 3c 6b 3d 25 3d a8 d0 99 3c b4 a3 93 3d
       0.013495165 0.040341776 0.018776253 0.07208958
000140 c0 ff 5e 3d f3 6b 6b 3d ec db 1b 3c a7 5a 9f 3c
       0.05444312 0.057475995 0.009512883 0.019452406
000150 0f 41 a7 bb b8 7c 25 bd c5 a2 2a 3d c3 97 88 bd
       -0.005104191 -0.040402144 0.041659135 -0.06669571
000160 be a1 c4 bc 9a 23 8c bd 51 71 5d 3d 56 06 0d 3c
       -0.024002906 -0.06842728 0.054063145 0.008607468
000170 e9 de ad bb 55 11 a0 bc 69 37 15 bd 4c f1 e2 bc
       -0.005306114 -0.019539515 -0.036429796 -0.02770295
000180 ae a9 92 3a 8e 6e 90 3d bd cb 80 3c fb 38 02 3c
       0.0011189485 0.07052337 0.01572215 0.0079481555
000190 7e 75 85 bd ff c4 92 3d a6 ce b7 bc 3b f4 94 bd
       -0.065165505 0.0716648 -0.022437405 -0.07273146
0001a0 b8 7b d0 bc bf 51 7a 3d 3b cb 4b bd 74 7b 6f 3d
       -0.025449619 0.061113115 -0.049754363 0.058467343
0001b0 6a 8b 86 3d 04 a3 b9 3c de 0c 81 3d 48 5c ae 3c
       0.0656956 0.02266074 0.06301282 0.021284238
0001c0 3d 31 5f 3c 52 21 b0 bc 3b 24 85 3d e0 99 bb bc
       0.013622579 -0.021500263 0.06501051 -0.022900522
0001d0 c1 23 63 bd e4 57 31 bd bc ee 37 bd ec 34 92 3c
       -0.05545402 -0.04329671 -0.04490541 0.0178475
0001e0 94 71 21 3d 33 d2 46 bd be fe 96 bc 7b e6 48 bd
       0.039414957 -0.048540305 -0.018432017 -0.04904793
0001f0 99 23 c0 bc fd c4 45 3d 85 d8 9a 3d d4 ba a0 bc
       -0.023454474 0.048283566 0.07560829 -0.019620337
000200 36 92 88 3b 3f 97 9f bd 2a 56 e5 3b a9 77 e0 3c
       0.0041678203 -0.0779252 0.006998797 0.027400808
000210 38 bb 38 3d 65 be be bc 76 99 b4 bc 81 0b 91 bd
       0.04510042 -0.023284147 -0.022045832 -0.07082272
000220 63 84 72 bd d2 28 a1 bd db f8 88 bd 3b ea 38 bd
       -0.059208285 -0.07869114 -0.066880904 -0.045145255
000230 71 82 ee 3a c5 4b 8d bd 2e a9 f2 3b 12 58 f1 3c
       0.0018196834 -0.068992175 0.0074054217 0.02946094
000240 19 ed c5 3c 98 09 42 bd 5f 6b 6e 3d 98 3a 13 3d
       0.024160909 -0.04737243 0.058207866 0.03594455
000250 50 6b 20 bb 1d e9 28 3d 5a 57 aa 3b 8e 18 9b 3d
       -0.0024478026 0.04123794 0.0051984014 0.07573043
000260 b1 f6 04 3d 0c 7e f8 bb 4f 32 63 bd a4 03 01 3c
       0.032461826 -0.0075833853 -0.0554679 0.007874403
000270 d5 04 b9 3b 2d a2 ad 3c 72 18 6f bb 85 ea 0d 3d
       0.005646328 0.021195496 -0.0036483076 0.034647483
000280 08 8f 15 bd 13 2f 4e 3d 51 4c 91 3d e9 2c a6 3c
       -0.03651336 0.050337862 0.07094634 0.020285087
000290 3b 96 23 3d 70 90 e8 3c bd 73 63 3d 5c 51 2c 3d
       0.039938193 0.028389186 0.0555303 0.042069778
0002a0 dd 37 71 bd 97 1d 2f bd ca c0 55 bd 49 2f f5 3c
       -0.058891166 -0.04275283 -0.05218581 0.029929774
0002b0 b8 ea a1 bd e8 69 61 bd d3 eb 32 3d f8 bd 3a bd
       -0.07906097 -0.05503264 0.04368193 -0.045591325
0002c0 29 73 13 bc 21 2b 3e 3d 28 33 3b 3d d6 d4 87 3d
       -0.008999624 0.04642785 0.045703083 0.06632392
0002d0 89 a1 86 bd 1f 72 48 3c b5 b0 6f 3d 25 94 f4 bc
       -0.06573779 0.01223424 0.05851813 -0.029855797
0002e0 4e 47 ed 3a d9 ab 12 bc 32 ff c5 3c b3 da a6 bc
       0.0018102915 -0.0089521045 0.024169538 -0.020367956
0002f0 ca 71 36 3d 22 bd af bb 94 04 4f bc c6 04 45 bd
       0.04454211 -0.0053631226 -0.012635369 -0.048100255
000300 fb d7 5d 3c 8b 8d 64 bd c2 ca 96 bc a8 b6 f6 bc
       0.013540263 -0.05579905 -0.01840723 -0.030116394
000310 2b 61 55 bd 6c 27 56 3d c4 e5 2d 3d d6 53 8a 3c
       -0.05209462 0.05228369 0.04245545 0.01688568
000320 df 50 86 bd 59 32 08 bd 10 41 75 bd 43 17 77 3c
       -0.06558394 -0.03325114 -0.0598765 0.01508123
000330 5c 91 66 bd 50 ec ba bc 91 77 ea 3c ac ce 52 bc
       -0.05629097 -0.02281776 0.028621467 -0.012866657
000340 9a 03 85 3d 56 7c a6 bc 81 93 91 3d ce 6d 90 3c
       0.064948276 -0.02032296 0.07108212 0.017630484
000350 48 86 29 bd 78 dc b8 3a f1 9f 4d 3d 88 72 4d 3b
       -0.041387826 0.0014103791 0.05020136 0.0031348784
000360 c8 3d 83 3d 25 01 49 bb a8 4d 38 bd 07 d4 38 3d
       0.06408268 -0.0030670848 -0.044995934 0.04512408
000370 2c 4f 97 bd ea 47 5d 3d 9e f7 96 bd 9d 45 27 bd
       -0.07388148 0.05402366 -0.07371448 -0.040837873
000380 ba 43 f9 3b 82 78 25 3d 4c 95 50 3d d3 42 d4 bc
       0.0076069506 0.04039813 0.05092363 -0.02591077
000390 7d b8 5b bd d8 b4 ee 3c dc b7 a1 3c dd ed 8c 3d
       -0.05364274 0.029138967 0.019740991 0.06881306
0003a0 66 95 8a bc 65 0b 42 bc 5c e8 49 3d 27 2e a0 3d
       -0.016916942 -0.011843537 0.04929386 0.07821303
0003b0 68 6d 89 bd b4 77 e6 bb 59 97 88 bd f5 31 55 bd
       -0.06710321 -0.0070333127 -0.06669492 -0.052049596
0003c0 47 39 06 bc e0 77 3a 3d e3 6d 66 3d 5b 99 96 bd
       -0.008192367 0.045524478 0.05625714 -0.07353469
0003d0 b0 0a 3e bd 9b a7 28 3c f1 f0 53 bd 7d 06 8b 3c
       -0.04639691 0.0102938665 -0.05174345 0.016970867
0003e0 a4 1e 13 3d 3c 88 30 3d 9e e2 ec 3c a5 53 5a bd
       0.035917893 0.043098673 0.028916653 -0.053302426
0003f0 57 07 57 bd 9c 2b b5 3c fb e9 a6 3d f2 fb 0d 3d
       -0.052497234 0.022115521 0.08150097 0.034664102

lin2.bias f4 [96]
000000 a2 68 0a bc 0d a3 ca 3c f6 14 ba 3c 92 2a 16 3a
       -0.008447798 0.024735952 0.022715073 0.00057283894
000010 f9 49 00 bd 96 13 40 bc 49 43 b2 bc 14 dd 93 3b
       -0.031320546 -0.01172342 -0.0217606 0.0045124386
000020 3d 4a 85 bc 8b 59 98 ba 4c 6b a8 38 f0 81 99 35
       -0.016270751 -0.0011623366 8.03085e-05 1.1437205e-06
000030 b5 7f 9d 38 83 70 83 39 b5 e1 41 34 18 c9 ae 3c
       7.510131e-05 0.00025070095 1.8056637e-07 0.021336123
000040 ee 34 81 bb ae 66 47 3c 43 98 80 3c dd da dd bb
       -0.0039430773 0.012170477 0.015697604 -0.0067704753
000050 9e 77 9f bc 60 57 8b bc 56 5d bf 3c 3b d1 70 3c
       -0.019466218 -0.017009437 0.023359936 0.014698322
000060 70 74 20 3c d5 4b 94 3a e2 8c 7f bc 03 2c 80 bc
       0.009793386 0.0011314104 -0.015597554 -0.015645986
000070 a6 ef 93 bc 63 13 25 b5 2b a5 ea 3c 3a 8b 80 3c
       -0.01805861 -6.14955e-07 0.028643211 0.015691388
000080 00 de 9f ba d1 30 b2 3a 60 d3 78 35 9a ee b1 3c
       -0.0012196898 0.0013594871 9.269479e-07 0.02172022
000090 70 5e c5 3b 7e 60 99 bc 6b 80 2e b6 30 43 99 bb
       0.0060232207 -0.018722769 -2.600277e-06 -0.004677199
0000a0 28 b2 6d ba 62 3e e1 3c 18 0c 03 bc 44 ab 10 35
       -0.000906738 0.027495567 -0.007998489 5.3893405e-07
0000b0 d9 80 f6 ba 1e 09 c0 3c 0b e3 51 bc a7 dc e5 3c
       -0.001880671 0.023441847 -0.012810479 0.028059317
0000c0 0f d1 4d bb 20 bf f4 39 b5 23 fc 3b 13 9e 82 b6
       -0.0031405126 0.00046681706 0.0076946863 -3.892704e-06
0000d0 c1 f8 87 3a 2d 85 87 3b 35 7f bb bb 38 fb dc 35
       0.0010373817 0.004135749 -0.0057219514 1.6464392e-06
0000e0 5f 65 48 35 63 57 4f ba 60 09 8b 3c 61 87 93 3a
       7.465332e-07 -0.0007909445 0.016972244 0.0011255556
0000f0 ad 47 02 bd 9a 6e 7d b5 ea d3 60 35 5e 63 8f b5
       -0.031806637 -9.441079e-07 8.375488e-07 -1.068325e-06
000100 84 ac 8b 3c b9 02 08 bc aa 37 37 b6 c6 30 32 38
       0.017050035 -0.00830143 -2.7301526e-06 4.248393e-05
000110 39 c0 1a bb 18 05 a2 3a 48 7a 80 3a 90 03 9b b7
       -0.0023613109 0.0012361137 0.0009802068 -1.8479099e-05
000120 73 12 b0 3c b8 f8 34 bc c0 9b b7 35 20 49 c3 3c
       0.021493172 -0.011045627 1.3679892e-06 0.02383858
000130 9d 47 68 bc d7 9e 86 3b 1f ea f9 bc a6 f4 28 b6
       -0.01417723 0.0041082907 -0.030507145 -2.5176355e-06
000140 cf 43 69 3a ea 18 fe bc 20 aa 57 33 fa 31 bb 35
       0.0008898349 -0.03101774 5.0213316e-08 1.3947131e-06
000150 62 e9 8d bc fb e6 03 b5 11 ac 0c b6 57 4d ad bb
       -0.0173232 -4.9137424e-07 -2.0961782e-06 -0.0052887606
000160 66 ec 3b 36 3e 1a 0d ba 4c db fb b6 97 3a e1 ba
       2.8002773e-06 -0.00053826335 -7.5059124e-06 -0.0017183599
000170 14 bc cd bb e1 d8 cd bc 42 d6 bd 3c f1 c6 98 38
       -0.006278524 -0.02512783 0.023173455 7.2849805e-05

lin3.weight f4 [40, 96]
000000 b7 05 31 3d e3 ff 86 bd 0c ef 7c bd dc 1a 9c bd
       0.04321834 -0.06591775 -0.06175141 -0.076223105
000010 86 df a2 3c 7d 58 4b 3d c9 1f df bc 84 0a 1b 3d
       0.019881975 0.049644936 -0.027236836 0.037851825
000020 ba 7d 4d 3b fa e6 10 bd 65 d0 cd bc e0 ee c2 3d
       0.0031355456 -0.035376526 -0.025123784 0.09518218
000030 fd e1 b5 3c 10 d6 92 bd 45 16 d2 3c de e7 c4 3c
       0.022202486 -0.071697354 0.025645385 0.024036344
000040 bf bf 44 3d 9a 99 1f 3a 61 57 89 bd 25 33 8a bd
       0.048034426 0.0006088257 -0.06706119 -0.06748036
000050 8a 8f 96 3d a5 4e 98 3d b1 65 b1 bd f7 a1 a8 bd
       0.07351597 0.07436875 -0.08661974 -0.08234017
000060 9a ce 12 3d a2 b4 d6 3c 1d 77 b5 bd 0f e1 a4 bd
       0.03584156 0.02620918 -0.0886061 -0.08050739
000070 1e 50 a9 bc 6f cc 38 3c f6 90 6b 3d 9e b9 1e bc
       -0.020668086 0.0112792095 0.057511292 -0.009687809
000080 b5 f9 86 bd 80 99 72 bd e2 e7 ba 3d 16 ee 8c 3b
       -0.065905966 -0.05922842 0.091262594 0.004300843
000090 e1 a9 06 bd 46 44 43 bd 78 d0 8f 3d b3 81 c3 3d
       -0.032876853 -0.047672532 0.07022184 0.095462225
0000a0 27 72 b3 3d de 82 35 3d 32 68 9b bd d5 14 61 3c
       0.08762007 0.044314258 -0.07588233 0.013737877
0000b0 b8 8c 65 3d 12 2a c4 3c ba ac 66 3d b1 c2 ac 3d
       0.056042403 0.023945842 0.05631707 0.08435572
0000c0 0d c3 48 bd eb 8d 7f 3d 03 d3 58 3d c3 30 fa bb
       -0.04901414 0.062391203 0.05293561 -0.0076352074
0000d0 b1 63 0a bd bd b6 80 bd f2 e0 b7 bd ad f5 34 bc
       -0.03378648 -0.062848546 -0.08978452 -0.011044902
0000e0 ec 18 9c bd 2c 09 db ba 53 49 9d bd 95 2d 3b 3c
       -0.07621941 -0.0016711107 -0.07680001 0.011424442
0000f0 ca cc b7 bd f0 d5 d3 3c 66 40 2b bd 11 ef 20 3d
       -0.08974607 0.02585885 -0.041809462 0.03929049
000100 52 47 ea bd ae 21 b2 bd f0 98 80 bd f1 06 d7 bd
       -0.114393845 -0.0869783 -0.062791705 -0.10499371
000110 9e da 97 3d ab e9 d0 3c d7 0a d3 3c 2f 14 ae bd
       0.07414745 0.025502047 0.025762005 -0.084999435
000120 db 8f d2 3d 35 d4 96 3c e1 dc 1f bd bb d8 a4 bd
       0.102813445 0.018411735 -0.039029006 -0.080491506
000130 3d a5 06 bd 77 1e ca 3c e4 45 c7 bd 10 92 9f bd
       -0.032872427 0.02467273 -0.097301275 -0.07791531
000140 8a 01 c7 bd c2 f2 7c 3d d5 cf 6d 3c 5f d0 14 bd
       -0.097170904 0.06175495 0.014514883 -0.03633153
000150 9b 75 28 bc 32 0b e5 bc db 90 af bd 31 27 89 bd
       -0.010281946 -0.02795944 -0.08572551 -0.06696928
000160 f0 45 2e bd f4 ac 9d bd 29 51 a3 3d 14 bf 20 bd
       -0.042547166 -0.07699004 0.079744644 -0.039244726
000170 8f fe 6c 3d cb 2b 66 3d 49 eb a2 3d c6 82 53 bb
       0.057859953 0.056194108 0.07955033 -0.0032273992
000180 0f a7 26 3d ce 1a 9a bd cc d1 6b 3d 48 5d a0 3d
       0.040686663 -0.07524644 0.057573125 0.07830292
000190 ff b2 09 3d c9 18 fb 3c 01 17 ae bd 30 1b 34 3c
       0.03361797 0.030651467 -0.085004814 0.01099281
0001a0 94 c9 26 bd a3 21 28 3d 58 49 69 3d 1d a0 dd 3c
       -0.040719584 0.041047703 0.05695471 0.027053887
0001b0 92 64 08 3d e0 1e 30 3c ce 3a ac bd 1c 06 89 3c
       0.033299036 0.010749549 -0.084096536 0.016726546
0001c0 32 6a 2a 3d b2 09 89 bd 8f 07 f4 bc b7 14 22 3d
       0.041605182 -0.06691302 -0.02978876 0.039570536
0001d0 29 b4 a1 3c 34 48 4d bd e5 a3 c7 bb 10 44 3b 3d
       0.019739227 -0.050117686 -0.006092536 0.045719206
0001e0 dd 70 b1 bd 04 8a 99 3b cd 8e 83 3d 9e 80 aa bd
       -0.08664105 0.004685642 0.064237215 -0.08325313
0001f0 ab 9e 57 bd a4 68 25 3c e0 05 39 3d 28 36 8f bc
       -0.052641552 0.010095749 0.04517162 -0.017481878
000200 7f 0e d1 bc 2c 91 21 bd 9f f7 83 3c 67 53 f3 3c
       -0.025519608 -0.039445087 0.016109286 0.029702855
000210 1b ef b9 bc 49 b4 de ba 25 a8 b6 bd 32 18 8c 3d
       -0.022697022 -0.0016990985 -0.0891879 0.068405524
000220 44 77 23 3d 3e 08 40 3c 5b b5 a4 3d 74 a4 56 bc
       0.039908662 0.011720715 0.08042403 -0.013100732
000230 ba b3 95 bc 80 6b af 3c a2 5c 9d bd ae c8 a2 bd
       -0.018274177 0.021413565 -0.07683684 -0.07948433
000240 05 1a 76 bd d7 a6 3e bd 6c 89 ff 3c 33 7b c9 3d
       -0.060083408 -0.04654583 0.031193458 0.098379515
000250 57 d5 dc bd ee 1e cb 3b fc 8b ac 3b 4e 05 c9 bd
       -0.10782879 0.0061987555 0.005265711 -0.09815465
000260 f3 72 88 bd 13 7a b4 3d e8 e4 34 bd fc 03 eb bc
       -0.0666255 0.08812346 -0.044163615 -0.028688423
000270 d2 1e 06 bd 73 4a dd bc 81 63 20 3b aa 0c 38 3d
       -0.032744236 -0.02701304 0.0024473371 0.044933952
000280 bb 50 e2 bd 41 dd fd bc 42 a6 ab 3d 13 7e c0 bd
       -0.11050554 -0.030989291 0.083813205 -0.09399047
000290 10 27 7c 3d 2f 97 c5 bc 6e ed 9d 3d bc df f9 3b
       0.06156069 -0.024119942 0.07711302 0.007625548
0002a0 a1 9c 53 3d 72 6a 54 bd d0 57 af bd a4 98 c6 3d
       0.051663045 -0.051859327 -0.08561671 0.09697083
0002b0 3f 15 c9 3d be 28 da 3d 5b 57 84 3d b8 11 80 3d
       0.098185055 0.10652302 0.06461974 0.062533796
0002c0 f2 80 a8 3b 70 a9 e5 39 d0 3c 27 3d 6b bf 5f 3d
       0.0051423246 0.00043804524 0.04082948 0.05462591
0002d0 c7 d5 c4 bd fa 64 34 3c 46 9b 46 3c dd a8 87 3d
       -0.09611087 0.011010403 0.012121981 0.06624005
0002e0 08 d2 34 3d c2 50 a9 3d 4e 66 54 bd 72 18 3b bd
       0.044145614 0.082673565 -0.051855378 -0.04567761
0002f0 c2 d0 74 bb 07 d8 a8 bd 61 a7 b1 bc de e6 f0 bc
       -0.0037355875 -0.08244329 -0.021686258 -0.029406961
000300 2b 8d 97 3d a5 3b 95 bd 25 3e bc 3c bd da 2c 3d
       0.073999725 -0.07286767 0.022978852 0.042200793
000310 a3 32 27 bd 32 bc 4c 3d cf 89 7e bb a1 ef a3 bd
       -0.040819775 0.049984165 -0.0038839465 -0.0800469
000320 42 a0 d5 bd b1 94 4c bd 64 39 81 bc 82 b1 c0 bd
       -0.104309574 -0.04994649 -0.015774436 -0.09408857
000330 e7 ff af bc c5 cc 94 3d c9 fc b3 bd 43 48 a5 bd
       -0.021484328 0.07265619 -0.08788449 -0.080704235
000340 82 f5 87 3d 7e fe 95 bc 43 ae de 3d 3b 9c 29 bd
       0.06638624 -0.018309828 0.108730815 -0.04140876
000350 2d 34 b5 bd e9 cc 6f bd cd bb aa 3d 5f 78 84 bc
       -0.08847842 -0.058545027 0.083366014 -0.016170679
000360 06 d2 c2 bc a4 9c b8 3d d0 56 98 bc d4 bc c3 3c
       -0.023781788 0.09014252 -0.018596083 0.023893751
000370 38 36 36 3d ba 0d a1 3d f0 a3 8f bd d7 2b 8c 3d
       0.0444853 0.07863946 -0.070136905 0.06844299
000380 47 75 44 3d c6 f1 7f bd b2 80 98 bd eb 28 97 3d
       0.047963407 -0.062486432 -0.07446422 0.07380851
000390 06 95 29 3a 0b 6a b5 3c f8 51 16 bd 8d 9c c8 3b
       0.00064690446 0.022145292 -0.036699265 0.006122178
0003a0 64 ff 30 bd cd c8 37 3d 4d 8e 64 bb 91 09 00 bb
       -0.04321231 0.044869233 -0.0034874857 -0.0019536952
0003b0 30 4d f2 3d 39 a3 91 3d e8 da 8d bd 6d 99 71 3d
       0.118311286 0.071112104 -0.06926519 0.05898421
0003c0 3f db b9 bd 41 62 ab 3d 36 cd 9b 3c 89 53 d1 3d
       -0.09075021 0.0836835 0.01901875 0.10221011
0003d0 46 94 6e 3d f2 ae 4f 3d 2b 0d 2b bd 55 57 52 bc
       0.058246873 0.05070395 -0.041760605 -0.012838204
0003e0 a2 31 9f 3d 2c 28 ab 3d bf e7 ca bb 09 f2 20 bd
       0.077731386 0.083572716 -0.006192177 -0.039293323
0003f0 05 7c 2e 3d 13 82 60 3d 49 6c 99 3d d1 4c 98 bd
       0.042598743 0.05481155 0.07491357 -0.074365266

lin3.bias f4 [40]
000000 67 7c c9 3b 9a e6 31 3a cf c7 aa 3b fa c9 e5 bc
       0.006148863 0.00067863765 0.0052118073 -0.028050411
000010 c1 2c 5d 3b 3d aa b2 bc db e5 bb b6 71 05 24 bd
       0.00337486 -0.021809692 -5.599793e-06 -0.04004425
000020 23 d3 55 3b 43 f6 5d bc 26 53 4b 3c df 85 ed bc
       0.0032627068 -0.013547483 0.012409961 -0.028994499
000030 dc ce ca 3b c3 8a 91 3a 15 16 7e 36 e0 b5 e2 3c
       0.0061892103 0.0011103976 3.7861803e-06 0.027674615
000040 16 50 90 37 8d 74 41 3d 3d d1 cd bc be 74 93 b6
       1.720343e-05 0.047230292 -0.025124187 -4.394532e-06
000050 2b 4b 17 3b 79 9c 37 bd 7c 4a e5 3a eb 36 42 bd
       0.0023085575 -0.04482696 0.0017493512 -0.047415655
000060 8f 83 97 bb 92 fd be 3c 6f 77 d6 bb d4 df 4b bc
       -0.0046238373 0.023314271 -0.0065449993 -0.0124435015
000070 45 9f d2 b7 01 71 00 bc 1e f8 36 3d 6a a6 56 bc
       -2.5108116e-05 -0.007839442 0.044670217 -0.0131012
000080 f2 04 20 bb 68 9f 30 3c 23 5d 5a b9 da eb 1d 3d
       -0.002441701 0.010780193 -0.00020824796 0.038555004
000090 5f cd 29 3d 18 65 fc bc dc bf 31 ba 7e 5e f2 3c
       0.041455623 -0.030809924 -0.00067806034 0.029586073

lin4.weight f4 [1, 40]
000000 b4 f5 9c bd b2 c9 8e bd 81 97 e7 bd 80 37 9e 3d
       -0.07664052 -0.06972064 -0.11308194 0.077254295
000010 cd df 2c 3e dc d1 36 bd b0 7b cd bd 6c 89 45 3e
       0.16882248 -0.04463373 -0.10033357 0.19290704
000020 41 9b 1a 3e 12 b8 33 bd 7f 52 82 3b bf e3 0c 3e
       0.15098287 -0.043876715 0.0039771195 0.13758753
000030 e5 d0 1f 3d 91 23 c4 3d 64 c0 b1 bd f9 0e 85 3c
       0.039017577 0.09577096 -0.08679274 0.016242491
000040 e6 ff a3 3d b4 20 1d 3b 3c 47 b6 bd ca 92 84 bd
       0.08007793 0.0023975791 -0.08900306 -0.0647331
000050 12 3e 81 3c 83 e3 83 bd b1 22 7c bd bf 10 34 3d
       0.015776668 -0.06439879 -0.06155652 0.043961283
000060 b7 c4 2a 3e 66 fb ce bc 28 1b b1 3d 50 b2 b3 bd
       0.16676603 -0.02526636 0.08647758 -0.08774245
000070 e4 d0 38 3e db 88 d8 bd 3e 2a cd bd 67 eb f8 bd
       0.18048435 -0.10572978 -0.10017823 -0.121542744
000080 09 f5 35 3e ca f6 30 3e ae cc d2 3d 9f f5 82 3d
       0.17769255 0.17281643 0.10292946 0.06394505
000090 df 9c ac 3d 4b b4 03 be 4b 6a f5 bd c9 64 10 bd
       0.08428358 -0.12861745 -0.119831644 -0.035252366

bn1.weight f4 [180]
000000 b4 25 80 3f 35 d1 7c 3f a8 8e 7d 3f 59 ec 7e 3f
       1.0011506 0.98756725 0.990458 0.9957939
000010 b8 17 80 3f 60 e4 7d 3f 3d b2 7c 3f ee bd 7d 3f
       1.0007238 0.991766 0.9870947 0.99117935
000020 11 5d 7d 3f 45 54 7f 3f a7 11 7e 3f bd 44 81 3f
       0.98970133 0.9973796 0.99245685 1.0099102
000030 ae 27 81 3f 58 15 80 3f 7b a3 7e 3f f9 c0 7d 3f
       1.0090234 1.0006514 0.994682 0.9912258
000040 35 60 7f 3f 58 fb 7c 3f fb 2d 80 3f bb 8c 80 3f
       0.99756175 0.9882102 1.0014032 1.0042948
000050 f9 6c 7f 3f 4e 08 7d 3f 3a 3e 80 3f b5 f0 7d 3f
       0.99775654 0.98840797 1.001899 0.99195415
000060 ab b9 7e 3f 16 82 80 3f 3f c0 81 3f cb 6d 7c 3f
       0.99502057 1.0039699 1.0136794 0.9860503
000070 b3 5c 7e 3f e3 20 80 3f 6d 6e 80 3f 9f 37 80 3f
       0.993602 1.0010036 1.0033699 1.0016974
000080 c6 a0 81 3f 0c 8b 7e 3f 74 ff 80 3f 4c dd 7e 3f
       1.0127189 0.9943092 1.0077958 0.9955642
000090 fa df 80 3f 32 60 80 3f 68 39 7e 3f 0b c7 7e 3f
       1.0068352 1.0029356 0.99306345 0.99522465
0000a0 0c bf 7d 3f 7b 2a 7d 3f 3e 1b 7d 3f dc 92 7e 3f
       0.9911964 0.98892945 0.98869693 0.9944284
0000b0 71 2a 7d 3f 1e 7c 7c 3f 2b 59 7d 3f 44 cd 7e 3f
       0.98892885 0.9862689 0.98964185 0.9953196
0000c0 4d d9 7d 3f b2 34 7d 3f 8e 31 7e 3f e1 a5 7f 3f
       0.991597 0.9890853 0.99294364 0.99862486
0000d0 9f 89 80 3f 74 c0 7d 3f 45 f2 7e 3f ce c9 7e 3f
       1.0041999 0.99121785 0.99588424 0.9952668
0000e0 04 ea 7e 3f be b5 7f 3f de 97 7f 3f 08 f1 7f 3f
       0.9957583 0.9988669 0.99841106 0.9997716
0000f0 ac 8e 7c 3f bb 00 7e 3f a4 26 7f 3f db 11 81 3f
       0.986552 0.99219865 0.99668336 1.0083574
000100 5e c2 7d 3f 29 c5 7d 3f 7b 0e 82 3f 23 de 7f 3f
       0.99124706 0.9912897 1.0160669 0.9994833
000110 aa e1 7e 3f cf a4 7f 3f 82 1e 7e 3f 0c b6 80 3f
       0.99563086 0.9986085 0.992653 1.0055556
000120 2f f9 81 3f 44 1d 80 3f 82 80 80 3f 4c 84 7e 3f
       1.015417 1.0008931 1.0039217 0.9942062
000130 04 3d 7e 3f 83 86 7e 3f 0b 14 7e 3f 53 54 7f 3f
       0.9931185 0.99424 0.99249333 0.99738044
000140 06 16 7e 3f e6 50 7e 3f ed ff 7e 3f c4 59 7f 3f
       0.99252355 0.9934219 0.9960926 0.99746346
000150 78 f9 7e 3f 23 16 7d 3f a1 9a 7e 3f 9b f9 7d 3f
       0.9959941 0.988619 0.99454695 0.9920899
000160 c2 ab 7e 3f 5b 13 7f 3f 72 92 7e 3f b1 02 80 3f
       0.9948083 0.9963891 0.9944221 1.0000821
000170 77 ad 7e 3f 5b 8a 7e 3f 0d 15 81 3f 6b 0d 7e 3f
       0.99483436 0.99429864 1.0084549 0.99239224
000180 ff 52 7d 3f 6b 3a 7e 3f 98 28 80 3f ba e1 7a 3f
       0.98954767 0.9930789 1.0012388 0.9800068
000190 08 43 80 3f 1b 22 81 3f 1d b4 81 3f cf 9c 7d 3f
       1.0020456 1.0088533 1.0133091 0.99067396
0001a0 b4 46 80 3f 62 92 7e 3f 31 59 81 3f e3 f9 80 3f
       1.0021577 0.9944211 1.0105344 1.0076259
0001b0 81 c4 7e 3f 37 bd 7d 3f d6 8e 7e 3f fc ce 7d 3f
       0.9951859 0.99116844 0.994367 0.9914396
0001c0 1d c5 7f 3f 3f 00 7f 3f ca 83 7f 3f 07 57 7c 3f
       0.99910146 0.9960975 0.9981047 0.98570293
0001d0 b7 93 80 3f cf 58 7d 3f 59 4e 7e 3f 33 2f 7c 3f
       1.0045079 0.98963636 0.993383 0.9850952
0001e0 28 97 80 3f 83 47 7e 3f 2e d3 7f 3f 4d f7 7f 3f
       1.0046129 0.9932787 0.9993161 0.99986726
0001f0 78 33 7e 3f 5c 2e 7e 3f d7 f7 7f 3f e3 73 7f 3f
       0.99297285 0.9928949 0.9998755 0.99786204
000200 8d 70 7f 3f cb 1d 80 3f 0f 86 7e 3f a4 62 80 3f
       0.99781114 1.0009092 0.9942331 1.0030103
000210 53 1f 7e 3f 16 3c 7e 3f 51 92 7e 3f 0d f0 80 3f
       0.99266547 0.99310434 0.9944201 1.0073258
000220 71 d3 7f 3f bb 50 80 3f 2e 45 80 3f e5 50 82 3f
       0.9993201 1.0024637 1.0021112 1.0180937
000230 80 c3 7d 3f a0 4e 7e 3f df 89 7f 3f 48 94 80 3f
       0.99126434 0.9933872 0.9981975 1.0045252
000240 08 9f 7e 3f cf 51 7e 3f 5d 1f 7f 3f 06 8d 81 3f
       0.9946141 0.9934358 0.9965723 1.0121162
000250 ac d9 7e 3f bd 08 7e 3f 46 02 80 3f e0 86 7e 3f
       0.9955089 0.99232084 1.0000694 0.9942455
000260 e2 28 80 3f 57 84 7d 3f 96 83 7f 3f 86 53 80 3f
       1.0012476 0.9903006 0.9981016 1.0025489
000270 0d 36 7e 3f a9 1c 81 3f f0 8b 81 3f c6 27 7e 3f
       0.99301225 1.0086871 1.012083 0.9927944
000280 fd 32 7f 3f a4 79 80 3f e0 49 7d 3f 01 07 7e 3f
       0.99687177 1.0037122 0.9894085 0.9922944
000290 30 aa 7f 3f 7a 53 7e 3f 1f e2 7e 3f 34 f7 7e 3f
       0.9986906 0.99346125 0.99563783 0.9959595
0002a0 a4 01 7e 3f fd ff 7c 3f 74 d8 7d 3f 2d 80 7f 3f
       0.99221253 0.9882811 0.99158406 0.99804956
0002b0 62 db 7f 3f 6d 15 7d 3f 29 d7 80 3f af c7 7f 3f
       0.99944127 0.9886082 1.0065662 0.9991407
0002c0 a7 23 80 3f ae 19 7f 3f a2 5a 80 3f af 8e 7e 3f
       1.001088 0.9964856 1.0027659 0.9943647

bn1.bias f4 [180]
000000 3b f4 b6 3a d5 fc 0f bc d7 ea e4 bb 01 2e 53 bb
       0.0013958284 -0.008788307 -0.006986003 -0.0032223465
000010 19 7b 20 3b 57 f8 a6 bb 58 fd 45 bc 33 43 f4 bb
       0.0024487434 -0.0050955224 -0.012084328 -0.0074543
000020 b2 c8 49 bc e8 bd a4 3a 21 45 51 bb 3b b4 74 3b
       -0.012315916 0.0012568804 -0.0031932073 0.003733887
000030 0e 6a 83 3a 1c 23 8f bb f0 82 e8 bb 8f 1e 43 bc
       0.0010026114 -0.004368199 -0.007095687 -0.011909141
000040 78 57 52 bb 71 94 0b bc 3d 09 4d bb ac bc 15 3a
       -0.0032095592 -0.008519278 -0.0031286024 0.0005712013
000050 77 fc fb 3b cf e5 d6 bb 13 45 56 3b 35 d4 05 bc
       0.0076900083 -0.006558157 0.003269498 -0.00816827
000060 6f 17 10 3b ca 20 4d ba 27 3b 80 39 60 04 2c bc
       0.0021986624 -0.00078250153 0.00024458134 -0.01049909
000070 ee ab 9e ba 86 66 87 ba 76 e7 e9 3a e5 2b 85 bb
       -0.0012105682 -0.0010330237 0.001784547 -0.0040640705
000080 b7 71 03 3c 6f cc 2c 3b 17 de 19 bc ed 8d 40 bc
       0.008022717 0.002636697 -0.009391329 -0.011752588
000090 8e 77 ac b9 6e 39 5c 3b 12 9c 2e bb 45 7f cc bb
       -0.00032895472 0.0033603567 -0.0026643318 -0.0062407576
0000a0 e2 94 fe bb 5e 17 d1 bb 84 6f 42 bc 80 87 80 b8
       -0.007769213 -0.0063809594 -0.011867408 -6.1287545e-05
0000b0 7b 1e eb bb de 4d 3b bc 6d 24 24 bc e6 1c 23 bc
       -0.0071752644 -0.011432139 -0.01001845 -0.00995562
0000c0 95 5b 51 bb e7 5e 4a bb 08 d9 1d bc d8 ab ba 3a
       -0.0031945456 -0.003087932 -0.009634264 0.0014241887
0000d0 c5 d7 f8 3b 63 9c e4 bb 03 da f1 bb 33 0d 95 3b
       0.007594081 -0.0069766506 -0.0073807254 0.0045486926
0000e0 d9 ed 3a bc a0 81 28 3c 24 26 ba bb 54 fc ac 3b
       -0.011409246 0.010284811 -0.0056808162 0.0052791033
0000f0 e3 87 f3 bb 6a e8 f8 b9 4c 36 71 b9 5b f9 40 3b
       -0.0074319704 -0.00047475408 -0.00023003778 0.0029445502
000100 c7 2a 13 bb 28 7a 3f bb a3 c3 83 3b bc 7c 92 3b
       -0.0022455917 -0.0029217098 0.0040211244 0.004470436
000110 30 73 3f bb 28 72 86 bb 7a 39 63 bc cb ef 6f bc
       -0.0029212944 -0.004102964 -0.013868684 -0.014644573
000120 11 f9 0e 3c 92 6a 22 bc 8c 05 39 bb 38 69 0d bc
       0.008726374 -0.009913104 -0.0028232066 -0.008631043
000130 6c 11 05 bb 49 72 00 3b 20 02 80 ba 52 ba ae bb
       -0.0020304574 0.001959937 -0.0009766258 -0.0053322697
000140 f4 27 de bb 76 93 fb ba b4 cf 95 bb 4d 40 8b 37
       -0.006779665 -0.0019193727 -0.0045718793 1.6600034e-05
000150 ce 4f b3 bb 8b f8 b5 b8 8d 49 bc b9 f2 69 1c bc
       -0.00547216 -8.677047e-05 -0.00035912954 -0.009546744
000160 06 e3 0a ba 10 a0 c1 3b 4d e4 cd bb 34 3c 4a 3b
       -0.00052981114 0.0059089735 -0.006283319 0.0030858638
000170 20 f8 78 bb 52 dc b6 bb f5 5e b3 3b aa 5a 7e bb
       -0.003798969 -0.0055804634 0.0054739662 -0.0038811364
000180 75 e6 86 3a f7 ff 36 bc 8c 1b 9e 3b 97 26 3d bc
       0.001029207 -0.011169425 0.004825061 -0.011544845
000190 f0 f5 a0 3b f9 68 07 3c 90 f5 37 3b 68 3e b1 bb
       0.0049121305 0.0082647735 0.002806995 -0.0054090507
0001a0 28 61 54 bb fa d6 00 bb b5 e5 9c 3b 56 a1 13 3b
       -0.0032406542 -0.0019659386 0.0047881254 0.0022526584
0001b0 c4 af d0 bb 2e 73 8d bb cb 23 bf bb 36 ec 7b ba
       -0.006368609 -0.004316709 -0.0058331243 -0.00096100883
0001c0 2e 76 3e ba a8 2b 29 bc 1d f8 3b 3b 3a d0 5a bc
       -0.0007265535 -0.01032535 0.0028681823 -0.013355309
0001d0 bc 27 93 bb 01 cf b0 b9 be 26 6d bb d2 c4 50 bc
       -0.0044908207 -0.00033723566 -0.0036186422 -0.012742238
0001e0 8b b5 f3 ba 55 c7 86 bb a6 84 ee bb 9e 25 3c bb
       -0.0018593533 -0.0041131177 -0.0072789965 -0.0028708945
0001f0 2e 26 87 bb 55 55 9a bb 43 21 f8 ba df ce 82 3b
       -0.0041244244 -0.0047098794 -0.0018930811 0.003991946
000200 b5 ac cf bb cc 2d 97 b9 8c 0d 09 bc 03 7d 09 3b
       -0.006337727 -0.00028835086 -0.008365046 0.0020979054
000210 38 77 ab ba 1a a3 dd bb 29 dd 40 3b 9e 8a 9b bb
       -0.0013081795 -0.006763828 0.0029428697 -0.004746749
000220 0e 1e 1e 3b b6 a2 a5 3b f3 8b 11 3c 5e c8 01 bc
       0.00241268 0.005054797 0.008883464 -0.007921306
000230 c2 14 61 bc c8 a4 e0 bb 3e 9c 81 bb 62 a1 95 3b
       -0.013737859 -0.006855581 -0.003955393 0.0045663575
000240 77 7f 57 3a bc 3d af ba 84 18 8a bb df d1 fa b8
       0.0008220593 -0.0013369839 -0.0042143483 -0.000119600205
000250 b1 0c e7 ba 87 01 27 bb b6 1b 2c 3b 3c 1e 5e bb
       -0.0017627684 -0.0025483088 0.0026261634 -0.0033892533
000260 18 e9 33 ba a6 a3 6a bb 6a 3d da 39 63 f7 a2 bb
       -0.0006863042 -0.0035803108 0.00041625957 -0.0049733385
000270 b8 e7 1a bb d7 fa af ba 8e 0f 62 3c 7c b3 bf bb
       -0.002363665 -0.0013426197 0.013797654 -0.0058502536
000280 1b 8e f1 ba 32 a2 f3 ba f3 f0 cb bb 6f e5 08 bc
       -0.0018429192 -0.0018587767 -0.0062237917 -0.0083554825
000290 43 1f 94 bb 6f fc 1b bc c4 f3 ef bb 23 74 80 ba
       -0.0045203282 -0.009520634 -0.0073227603 -0.0009800236
0002a0 9c b0 b3 bb 14 35 c8 bb ac 4a 2b bb 36 58 a2 ba
       -0.0054837 -0.006109843 -0.0026137037 -0.0012385908
0002b0 d2 df 2a bb f3 22 4d bb 09 ca 8b bb 52 0a 9e bb
       -0.0026073349 -0.003130135 -0.004266028 -0.0048230076
0002c0 5d 52 ad bb b6 74 58 bc 48 c4 f7 bb 10 8e 3a bc
       -0.0052893595 -0.01321142 -0.0075612403 -0.011386409

bn1.running_mean f4 [180]
000000 36 bb eb bd fc 1a 5b 3e c0 a0 8b 3e 53 8f 1b 3d
       -0.11510317 0.21397012 0.2727108 0.03797848
000010 e2 53 d1 bd ba 8f bc 3e c3 4a da be b7 57 9b be
       -0.102210775 0.36828405 -0.42635164 -0.3034036
000020 f8 57 9a be 2d a6 2b be 92 cc 05 3e 96 0d 4a be
       -0.3014524 -0.1676261 0.13066319 -0.19731745
000030 08 3f 0e be 17 f1 32 be c9 b3 c1 3e f0 33 15 3e
       -0.13891232 -0.17474781 0.37832478 0.14570594
000040 b3 30 84 3e 50 6a b4 bd 1a a6 55 bd 5a 36 4b 3e
       0.25818405 -0.0880934 -0.05216036 0.19844952
000050 49 fc c2 3d 2f 74 a1 3d 2c 63 de bd 23 40 97 bc
       0.09520776 0.078834884 -0.10858759 -0.0184632
000060 68 d6 c5 bd 11 5c a5 3d b8 ae 36 3d f7 09 07 3f
       -0.09660035 0.08074201 0.04460022 0.5274958
000070 15 b3 3f be 00 16 33 3a 51 05 7c 3d 85 27 35 3c
       -0.18720658 0.00068315864 0.061528508 0.0110567855
000080 d4 61 38 3e 00 e6 fa bd 00 30 3f 3e c0 30 c2 3c
       0.18006068 -0.122509 0.18670654 0.023704886
000090 a7 55 09 3d 74 e1 af 3d 30 77 80 3e b2 8b 50 3e
       0.03352895 0.08587924 0.25090933 0.2036579
0000a0 bb fa 17 3e 27 1a bb be 62 97 4c 3b dc 28 3d 3e
       0.1484174 -0.3654339 0.003121816 0.18472618
0000b0 4d ae 87 be 51 c2 ab bc 08 74 9a be 86 e9 e1 bd
       -0.26500168 -0.02096668 -0.3016665 -0.11030869
0000c0 d7 6f 1e 3d ff e1 56 bc e0 a7 4d 3e 5a 75 e3 3d
       0.038680878 -0.013115405 0.2008357 0.111063674
0000d0 72 f3 90 be 06 e4 39 bb 73 a1 f6 be af f3 11 be
       -0.28310734 -0.0028364672 -0.4817005 -0.14253114
0000e0 5d 23 cf be ff 34 2a 3e 65 44 3c 3e 01 de fe bc
       -0.40456668 0.16621779 0.18385465 -0.03111172
0000f0 08 84 c6 bd 5d 27 24 3e a4 f3 12 3e 5d b6 13 3e
       -0.09693152 0.16030641 0.14350754 0.14425035
000100 27 c1 b5 be 0d dd 0b be d4 db 10 bd fc 95 80 3e
       -0.35498926 -0.13658543 -0.035365894 0.2511443
000110 fe 55 33 3f bb 60 80 3d f5 9d 1f 3d c5 7d 3d be
       0.7005309 0.0626845 0.038969 -0.18505009
000120 7c 34 91 bd 55 29 f6 be bc 75 04 3e c1 84 f2 bd
       -0.07090089 -0.4807841 0.12935537 -0.11841727
000130 94 d6 a0 bd c8 43 9d 3d e3 c5 a2 3c 86 b7 4b be
       -0.078534275 0.07678944 0.01986975 -0.19894227
000140 b4 63 8d 3e e0 b7 d0 3e 42 1c ea 3d 92 27 b7 3e
       0.2761513 0.40765285 0.11431171 0.35772377
000150 06 f1 73 3e c4 06 b5 3e c9 28 d3 bc 17 39 2d 3e
       0.23822412 0.35356724 -0.025776284 0.1691631
000160 fc e2 72 bd 6f e7 78 3b a2 ca 44 be ca 17 91 3d
       -0.0592985 0.0037979742 -0.19217923 0.070846155
000170 f5 ee 8c be 1b 44 2d 3e 76 01 28 be f1 f2 71 3c
       -0.2752606 0.16920511 -0.16406807 0.014767394
000180 40 9a ab 3e b0 e6 2d be 79 a6 02 be 90 a1 81 3b
       0.3351612 -0.16982532 -0.12758817 0.0039560273
000190 66 bc 46 3d 65 99 5a bc 27 e4 85 3e 26 b4 5a 3e
       0.048519515 -0.013342236 0.2615063 0.21357784
0001a0 b7 37 4d 3e 7e 4d 5e be 4b 23 65 be 4f c0 f9 3e
       0.20040785 -0.21709248 -0.22376744 0.48779532
0001b0 96 9f 01 3d d4 1a 4e be cd 2d fc bd df 84 a6 bd
       0.031646334 -0.20127422 -0.12313423 -0.08130812
0001c0 f2 07 37 3e 53 11 b5 be 23 e7 69 be bb 6b 99 3e
       0.17874125 -0.3536478 -0.22842078 0.29965004
0001d0 ee 59 47 be da cd d9 bc f4 ec 38 bd 30 d8 0f 3d
       -0.19467899 -0.026587415 -0.04514785 0.03511828
0001e0 18 bd fc be bb a3 21 3e fa 58 77 3e 89 1c 21 3e
       -0.49363017 0.15785114 0.24155036 0.15733542
0001f0 25 c6 10 bd d2 f8 8e 3d 6e 26 a4 3e 62 52 c2 be
       -0.035345215 0.069810525 0.3206057 -0.37953478
000200 d9 0f 4d 3e be ec 5a bd 04 c7 2a 3e 25 2d 81 3e
       0.20025577 -0.05344843 0.16677481 0.25229755
000210 50 43 72 3e 0a 87 c3 bc 53 2f e8 3d 4c 84 fc bd
       0.2365849 -0.023868103 0.113371514 -0.12329921
000220 f6 0a 80 be 55 fa d2 bd 0c b2 8d 3d 1c c2 8b 3d
       -0.25008363 -0.10301653 0.06918725 0.06824133
000230 d5 3d 44 3e f7 4a c0 3d 37 23 ee bd 98 2c a1 bd
       0.19164212 0.093892984 -0.116278104 -0.07869834
000240 39 e7 2e bd 09 7e 91 be 33 60 06 bd 2c 79 26 3e
       -0.04270098 -0.2841647 -0.032806586 0.16257161
000250 d8 1e 95 be 69 7a 0d bf 2e 40 9b 3e 74 cc e9 3d
       -0.29125094 -0.5526491 0.30322403 0.114159495
000260 1e 3b 6d 3d 88 e6 da 3e 36 b0 e2 be 6e 86 0e bf
       0.057917707 0.42754006 -0.44275063 -0.55673873
000270 cb 6b 12 3d a4 d7 94 bc b3 cb 67 3e 18 16 84 be
       0.03574733 -0.018169232 0.22636299 -0.25798106
000280 34 a7 4c 3e 25 50 5f bd 26 f2 02 3f 2e 89 31 be
       0.19985658 -0.05451979 0.5115074 -0.17337486
000290 2b ad ea 3d 5b b5 cc bd cf ac b6 3e 63 1b 51 bd
       0.114588104 -0.09995528 0.35678717 -0.05105151
0002a0 92 8c 57 be 55 bb 0a 3c 2a a4 25 3d 2d 8a d7 bd
       -0.21049717 0.008467515 0.040439762 -0.10524402
0002b0 52 ec 93 3e d7 45 a7 bd 46 7e 63 3e 67 1a 86 bd
       0.28891236 -0.08167618 0.22216138 -0.065480046
0002c0 7b c2 8f bd 85 f8 54 bd d0 48 7c 3e 2e 50 41 3e
       -0.07019516 -0.05199482 0.24637151 0.18878242
