Proposed model/saved_best_DNN_model/0.39289model_fingerp3.pth (torch, 216672 bytes, 19 tensors)

lin1.weight f4 [180, 166]
0	0x2d03a3cd	7.482859e-12
1	0x3cb73530	0.022364229
2	0xbd291ac2	-0.041285284
3	0x3bcc7a86	0.006240192
4	0x3cc645ed	0.024203265
5	0x3b802b42	0.0039114067
6	0x3c64167b	0.013921375
7	0x3ce4d31b	0.027932694
8	0x3bf9d7ad	0.0076245875
9	0xbd1c0b42	-0.038096674
10	0x3cc5876a	0.024112422
11	0x3d0f1b17	0.034937944
12	0xbd3c5949	-0.045983586
13	0x3c7bdc81	0.015372396
14	0x3c18ff80	0.00933826
15	0xbd2b6b6d	-0.041850496
16	0x3cb1494f	0.021641402
17	0x3d3657d6	0.04451736
18	0xbd5d2e2c	-0.05399911
19	0x38bd51c3	9.0274516e-05
20	0xbd78635e	-0.06064164
21	0xbc94c892	-0.018162046
22	0x3d4c029f	0.049807187
23	0xbd48421c	-0.04889117
24	0x3b38c014	0.002819066
25	0xbb734bb0	-0.003712397
26	0xbc028ad0	-0.007967666
27	0x3d233e43	0.0398543
28	0xbd4fdb92	-0.050746508
29	0x3d7cf663	0.06175841
30	0x3d650d03	0.055920612
31	0x3ce99e4d	0.028517867
32	0xbd9c1aba	-0.07622285
33	0x3d92718e	0.07150565
34	0xbbb6a83b	-0.005574254
35	0x3ac10e86	0.001472906
36	0xbd2d1fae	-0.04226654
37	0x3d54ce8b	0.051954787
38	0xbd58184f	-0.052757557
39	0x3a017a6d	0.00049392023
40	0x3d22a643	0.03970934
41	0xbd1847cf	-0.037177857
42	0x3d06721b	0.032823663
43	0x3d72eb68	0.059306532
44	0x3d720113	0.059083056
45	0x3d24fb34	0.04027863
46	0x3d7e1161	0.062028293
47	0x3d8b1c24	0.06792477
48	0x3c8dd177	0.017311795
49	0x3be3cf45	0.0069521987
50	0x3d2ac088	0.04168752
51	0x3c2b0272	0.010437595
52	0x3cdb2c53	0.026754534
53	0x3d4b118f	0.049577292
54	0x3d93cce0	0.07216811
55	0xbc22a10d	-0.009926093
56	0x3d8305a8	0.06397563
57	0x3d996f62	0.07491948
58	0xbd8e5f66	-0.069517896
59	0x3cb40f4d	0.021979952
60	0x3ce80c78	0.028326258
61	0x3cb4327c	0.02199673
62	0x3d298eca	0.04139594
63	0x3d75bdc5	0.05999543
64	0x3cd418cc	0.02589073
65	0x3d777e12	0.060422964
66	0x3c866ffe	0.016410824
67	0x3d6a2d11	0.057171885
68	0x3d16c1c3	0.03680588
69	0x3d98ece4	0.07467058
70	0xbb585bfc	-0.0033013811
71	0x3cb31eda	0.021865297
72	0xbca9eed7	-0.02074377
73	0x3d575d35	0.052579124
74	0xbd865029	-0.06558258
75	0xbcc7a06a	-0.024368484
76	0x3d01ce7f	0.03169107
77	0xbda558f2	-0.080736056
78	0xbd94ec97	-0.072716884
79	0xbd1e6738	-0.038672656
80	0xbd562936	-0.052285396
81	0xbc03bd6b	-0.008040766
82	0xbd8cd2aa	-0.068761185
83	0xbd30cef0	-0.0431661
84	0xbbf6f918	-0.0075370185
85	0x3d2866a3	0.041113507
86	0xba18d1ea	-0.00058296195
87	0xbd893d7d	-0.06701181
88	0x3d82aa18	0.06380099
89	0xba42ed1b	-0.0007435844
90	0xbcfc6ac3	-0.030812627
91	0xbd47076f	-0.048591074
92	0xbc430448	-0.011902876
93	0xbd302e19	-0.043012712
94	0xbd4658e0	-0.0484246
95	0xbd75da4c	-0.060022637
96	0x3d792548	0.06082657
97	0xbd1aa4b4	-0.03775473
98	0xbd5078a3	-0.0508963
99	0x3ce8661f	0.028369008
100	0x3d4f9389	0.05067781
101	0x3cdc19a0	0.026867688
102	0x3b13b079	0.0022535606
103	0xbc201ee1	-0.009772987
104	0x3cbae2e5	0.02281327
105	0xbd04b371	-0.03239769
106	0x3c5b8163	0.013397547
107	0xbd5925de	-0.05301463
108	0xbbbbb5f7	-0.005728479
109	0xbba8c07b	-0.0051498986
110	0x3c851c23	0.016248768
111	0xbd9709a8	-0.07374889
112	0x3daa55fe	0.08317183
113	0x3d7023b0	0.058627784
114	0x3b99b674	0.0046909396
115	0xbd1fba5b	-0.03899608
116	0x3cb2783f	0.021785853
117	0xbd722525	-0.059117455
118	0xbb888f6f	-0.0041674892
119	0xbc0fa32d	-0.0087669315
120	0xbd88578c	-0.06657323
121	0x3ba326a0	0.0049789697
122	0xbd7a90e6	-0.061173342
123	0xbcab2941	-0.020893695
124	0x3d0cf94b	0.03441743
125	0x3d002d7f	0.03129339
126	0x3cf301d0	0.02966395
127	0xbb8f9a70	-0.004382424
128	0xbd75a9e0	-0.05997646
129	0xbb306c4d	-0.002692002
130	0x3cdf52dc	0.02726119
131	0xbd34d3f5	-0.04414745
132	0x3d8ac5f7	0.0677604
133	0x3d595a77	0.05306479
134	0xbbd79da5	-0.006580072
135	0xbc0ff2b6	-0.008785894
136	0xbc9bf54f	-0.01903787
137	0x3d1d536d	0.03840964
138	0x3cd994d0	0.026560217
139	0xbce3d5f0	-0.027811974
140	0xbc4d51b0	-0.012531683
141	0xbd62ee19	-0.05540285
142	0x3d78dbfe	0.060756676
143	0xbd4ccf73	-0.050002526
144	0xbd2a2283	-0.04153682
145	0xbd8a47b7	-0.0675196
146	0x3cf32e53	0.029685175
147	0x3c3a1752	0.011358099
148	0xbd28f8fc	-0.041253075
149	0xbc19a89d	-0.009378579
150	0xbd53fd3a	-0.051755168
151	0x3b426455	0.0029661853
152	0xbcabc0c0	-0.020965934
153	0xbd3e67a9	-0.046485577
154	0xbd8d03f7	-0.06885522
155	0x3d460932	0.048348613
156	0xbcb93003	-0.022605902
157	0x3c9d42d1	0.0191969
158	0xbcc124df	-0.023577152
159	0xbd03fd03	-0.032223713
160	0x3d4b73ef	0.04967111
161	0x3b785672	0.0037893322
162	0xbd9ca881	-0.07649327
163	0x3ccf7823	0.02532584
164	0xbd5b965b	-0.053610187
165	0x3d0e9375	0.034808595
166	0x3bb319f8	0.005465742
167	0x31ca93cc	5.8957763e-09
168	0xbd74fa9d	-0.059809316
169	0x2fa7aa44	3.0498104e-10
170	0x2fde5186	4.043949e-10
171	0xbcf89c7a	-0.030348051
172	0xaf11c3c9	-1.325723e-10
173	0x3d730ea7	0.059340145
174	0x3d5aefda	0.053451397
175	0xbcecb81b	-0.028896382
176	0xbc861429	-0.016367035
177	0xbd23a981	-0.039956573
178	0x3d86e5f1	0.065868266
179	0x3cc56411	0.024095567
180	0x3d553354	0.052050903
181	0xbd6db355	-0.058032352
182	0xbba9117b	-0.0051595545
183	0x3c2292f4	0.009922732
184	0x3d19555a	0.037434913
185	0x2d330ea6	1.0178225e-11
186	0xbd827e8e	-0.06371795
187	0xbd0af7ec	-0.033927843
188	0xbc810466	-0.015749168
189	0xbd89c338	-0.06726688
190	0x3be42cac	0.006963333
191	0xbd8935c3	-0.06699707
192	0x3c788e2c	0.015170615
193	0x3d1f75a5	0.038930554
194	0xbbb91f2c	-0.005649468
195	0xbc5a6d62	-0.013331743
196	0xbc8bb997	-0.01705627
197	0x3d6f9a3a	0.05849669
198	0xbd32400a	-0.043518104
199	0xbbec13bd	-0.0072045014
200	0xbc108c31	-0.008822487
201	0x3bfd5e4c	0.0077321883
202	0x3cd85900	0.026409626
203	0xbd27d1f4	-0.04097171
204	0xbc196b21	-0.00936392
205	0x3c591351	0.013249234
206	0x3b07eb3b	0.0020739574
207	0xbd78377d	-0.060599793
208	0x3d4d3fcb	0.050109666
209	0xbc92b852	-0.017910156
210	0x3d9ce60b	0.07661065
211	0xbae5f6fc	-0.001754492
212	0x3b7e29e3	0.003878229
213	0x3c71cf13	0.014758843
214	0x3d1b2646	0.037878297
215	0x3ce22f30	0.027610391
216	0xbce97a35	-0.028500656
217	0x3d3cabfe	0.046062462
218	0x3dafb7a8	0.085799515
219	0xbd582b3f	-0.052775618
220	0xbd86fee2	-0.06591584
221	0xbd85b3f9	-0.06528468
222	0xbc407002	-0.011745455
223	0x3bafba48	0.0053627826
224	0xbd1ebf47	-0.038756635
225	0x3da010c6	0.07815699
226	0xbd7fba75	-0.06243368
227	0xbd2ad067	-0.041702654
228	0xbd5c1230	-0.053728282
229	0x3a331351	0.00068311865
230	0xbd7f8f7f	-0.062392708
231	0xbd1dd13b	-0.038529616
232	0xbd54922a	-0.051897205
233	0xbd5cd749	-0.05391625
234	0x3d76d60e	0.060262732
235	0x3cf6d594	0.030131139
236	0x3d931900	0.07182503
237	0xbd5c5a9c	-0.05379735
238	0x3c9f451e	0.019442137
239	0x3d8b6238	0.06805843
240	0x3cf13823	0.029445713
241	0xbc172677	-0.009225479
242	0x3b822472	0.00397163
243	0x3d9d078b	0.07667454
244	0xbd21b9e1	-0.03948391
245	0xbd8808ef	-0.06642329
246	0x3ca881fc	0.020569794
247	0x3d859a02	0.06523515
248	0x3d7af072	0.061264463
249	0xbd4d9555	-0.050191242
250	0xbd8effc0	-0.06982374
251	0x3c375e02	0.011191847
252	0x3d82c478	0.0638513
253	0x3c09fdb0	0.0084223
254	0x3c1c8a87	0.009554512
255	0xbda13c50	-0.07872832

lin1.bias f4 [180]
0	0xb52a5617	-6.345521e-07
1	0x3c7c6f2e	0.015407367
2	0xb59fffd9	-1.1920885e-06
3	0x3a03aa6c	0.0005022648
4	0xbca17367	-0.019708348
5	0x35c633b4	1.4767197e-06
6	0x375f0934	1.3293979e-05
7	0xb60c5a85	-2.0914315e-06
8	0xbcfae892	-0.030628476
9	0xbb0ce7c0	-0.0021500438
10	0x3636f160	2.7260612e-06
11	0x3d07857f	0.033086296
12	0xbb383e56	-0.0028113327
13	0x3ca8be35	0.02059851
14	0xb64f290e	-3.08693e-06
15	0x3c89e5dc	0.016833238
16	0x38269344	3.9714636e-05
17	0xbb839883	-0.0040159835
18	0x3aa1a14d	0.0012331397
19	0xbb870ebf	-0.004121631
20	0x3c586584	0.013207797
21	0x3cb2dde9	0.02183433
22	0xbce33f65	-0.02774019
23	0x3b8c306a	0.0042782323
24	0x3ba1e72b	0.0049408874
25	0xb5d9451a	-1.6187871e-06
26	0xb61e3534	-2.3574803e-06
27	0x3bb83746	0.0056218235
28	0x3c63a954	0.013895351
29	0x3c7694a8	0.015050091
30	0x3642aa3e	2.9007347e-06
31	0x39d6d6c7	0.00040977282
32	0xbcbcc255	-0.023041883
33	0xbb8e4706	-0.0043419627
34	0x3d00aa18	0.031412214
35	0xb5aa2f65	-1.2679781e-06
36	0xbcd51057	-0.026008768
37	0x3c45eed2	0.012080865
38	0x39a334bb	0.0003112907
39	0x3cbb5f7e	0.022872683
40	0x3cf2e2bb	0.02964913
41	0xbc8d454e	-0.017244961
42	0x392c3695	0.00016423532
43	0x39275ded	0.00015961351
44	0x3ca33837	0.019924266
45	0x363aaffa	2.7818592e-06
46	0xbced42ba	-0.028962482
47	0x38bc5dae	8.981988e-05
48	0x3d05828b	0.0325952
49	0xb94dec02	-0.00019638243
50	0x3718049f	9.060982e-06
51	0xbac83ef3	-0.0015277549
52	0xb4103ee1	-1.343392e-07
53	0x3b9f7cdd	0.00486718
54	0x34d19e43	3.9044434e-07
55	0xbba66ad5	-0.0050786533
56	0x365b66c5	3.2693363e-06
57	0xbc05f0b7	-0.008175067
58	0xb59bbb21	-1.1602862e-06
59	0x39d16899	0.00039941518
60	0xb5f9190f	-1.8559239e-06
61	0x3717dbd1	9.051481e-06
62	0x3c7f1bd8	0.015570603
63	0x3bfeaf48	0.00777236
64	0x3bef747b	0.0073075867
65	0x3af38adc	0.0018580812
66	0xbcba82d9	-0.022767471
67	0x3c8c70c5	0.017143616
68	0x34b4c9be	3.36744e-07
69	0x363621df	2.713983e-06
70	0xb61887bc	-2.2728773e-06
71	0x38b073eb	8.4139254e-05
72	0xbb665ba5	-0.003514984
73	0x34cfe9c1	3.8726833e-07
74	0xb608c594	-2.0380585e-06
75	0x3cb18414	0.021669425
76	0x3b3f19e9	0.002915973
77	0xb60aace4	-2.0664238e-06
78	0xb8d381c0	-0.00010085432
79	0x38051d3d	3.17369e-05
80	0x3bf9ce7c	0.007623492
81	0xbc37be16	-0.011214754
82	0xbc7fdc6d	-0.015616518
83	0xb861b3dc	-5.3811687e-05
84	0xb3c9136c	-9.363325e-08
85	0xbb96f592	-0.004606911
86	0x3c835373	0.016031003
87	0x34b06a40	3.2859862e-07
88	0x3c39053c	0.011292752
89	0xbcade752	-0.021228466
90	0xbd066ca0	-0.032818437
91	0x3af1cd71	0.0018448067
92	0x3c1225c6	0.008920139
93	0x3b8d8f80	0.004320085
94	0xbb88faef	-0.0041803042
95	0xbc4d81b3	-0.01254313
96	0x3b303773	0.002688852
97	0x35ea6995	1.7465087e-06
98	0xbc0f1b49	-0.008734533
99	0xbbe21dc0	-0.006900519
100	0xb5a9dc03	-1.2655513e-06
101	0xbce2f752	-0.027705822
102	0xbcfd6e56	-0.030936401
103	0x3a23083a	0.00062191824
104	0x35744b2d	9.100648e-07
105	0xbb801314	-0.0039085243
106	0xbc5952ec	-0.013264399
107	0xbad3608f	-0.0016126799
108	0xbcc23b5c	-0.023709945
109	0xb6ac3b36	-5.1328925e-06
110	0x3aaf5185	0.0013375735
111	0xbb5c4116	-0.003360813
112	0xb916cc6f	-0.00014381272
113	0x3c2d4f6a	0.010578016
114	0x3acb1476	0.0015493769
115	0xbca548bd	-0.020176286
116	0xb72b8a57	-1.0224604e-05
117	0x3d02a8a6	0.031899117
118	0xbc858ea4	-0.016303368
119	0xbbc7c85d	-0.006096883
120	0x3c236399	0.009972476
121	0x3931d335	0.00016958716
122	0xbb980b0d	-0.004639989
123	0x380369fb	3.1331536e-05
124	0x360a492a	2.060619e-06
125	0x3c86e0a5	0.01646454
126	0xba18a2f6	-0.0005822623
127	0x3c56457e	0.013078092
128	0x3c122a14	0.008921165
129	0xbc97d64a	-0.018534798
130	0x3c13cfec	0.00902174
131	0xb7273ec3	-9.9685885e-06
132	0x34462a12	1.8455492e-07
133	0xbb6c7b48	-0.0036084224
134	0xb8e54a20	-0.00010933378
135	0x3cef86a9	0.029239016
136	0x38870d7c	6.439813e-05
137	0xb6e89f42	-6.932679e-06
138	0xb48f4e07	-2.6692598e-07
139	0x36a84a33	5.015428e-06
140	0x3c0279a2	0.00796357
141	0xb55e50ba	-8.281892e-07
142	0x3cfdbb43	0.030973082
143	0xb5b9ace0	-1.3833887e-06
144	0xb4df0f41	-4.1548086e-07
145	0x3cb2e5a4	0.021838017
146	0xbc91ce00	-0.017798424
147	0x3cf0fce6	0.029417466
148	0x3d083566	0.03325405
149	0x3cf7e7cd	0.030261898
150	0xbad550b5	-0.0016274663
151	0x3c83ae7e	0.016074415
152	0x3c89deca	0.016829867
153	0x3c9d0ba6	0.019170593
154	0xb9d79ecd	-0.0004112631
155	0x3a61ebda	0.00086182135
156	0x3bdc67f9	0.0067262617
157	0xbc75ebd0	-0.015009835
158	0x371de056	9.4101615e-06
159	0x3ca4dcdc	0.020124845
160	0xbbd8e463	-0.0066190227
161	0x3cc427a0	0.023944676
162	0x35088f3c	5.087238e-07
163	0x36b62257	5.4280204e-06
164	0x3b66713c	0.0035162708
165	0x3cb45b34	0.022016145
166	0xb76abb60	-1.39911135e-05
167	0xbcbe6037	-0.023239238
168	0xb6d5bbe4	-6.369768e-06
169	0x3bcaf072	0.006193214
170	0x3cbbbeb3	0.02291808
171	0xbca1015f	-0.019653974
172	0xbbf017b5	-0.007327045
173	0xbacaf420	-0.0015484132
174	0x3cdff649	0.027339118
175	0x3ceb0c38	0.02869235
176	0x37009c6a	7.6658125e-06
177	0xba857472	-0.0010181798
178	0xbc070fd5	-0.008243521
179	0xb90d5986	-0.00013480158

lin2.weight f4 [96, 180]
0	0xbcc7d425	-0.02439315
1	0xbc61845a	-0.013764465
2	0x3d44a6ce	0.04801064
3	0x3d20d3dd	0.03926455
4	0x3d80d746	0.0629106
5	0xbd337215	-0.04380997
6	0xbcaba1da	-0.0209512
7	0xbb94c53c	-0.0045401137
8	0xbd054be3	-0.032543074
9	0xbd27b41c	-0.04094325
10	0x3bfd3e20	0.007728353
11	0x3d009e40	0.03140092
12	0x3d3c226d	0.04593127
13	0x3cd93bae	0.026517715
14	0x3c39f63f	0.011350214
15	0xbd1c8a8c	-0.038218066
16	0x3d71ae76	0.05900427
17	0xbd9c2c9c	-0.07625696
18	0xbd1617ec	-0.036643907
19	0xbd8cb14f	-0.068697564
20	0xbd6d9141	-0.057999853
21	0xbcc40e6b	-0.023932656
22	0xbd0de33c	-0.034640536
23	0xbcc3931c	-0.023873858
24	0xbd66e3bc	-0.05636953
25	0x3d65af62	0.05607546
26	0x3cf5252a	0.029924948
27	0x3ca2d165	0.019875238
28	0xbce62718	-0.028094813
29	0xbd3dc476	-0.046329938
30	0xbd9d4a75	-0.07680217
31	0xbb2c23aa	-0.0026266375
32	0xbcac1626	-0.021006655
33	0x3cc74633	0.024325466
34	0x3ce4e270	0.027940005
35	0xbcb4a829	-0.022052841
36	0x3d7928e0	0.060829997
37	0xbd656aec	-0.05601017
38	0xbcc27c0c	-0.02374079
39	0xbc84997a	-0.016186465
40	0xbd84f46a	-0.06491931
41	0xbd0931ee	-0.033494882
42	0xbd8c41c1	-0.06848479
43	0xbd6ce694	-0.057837084
44	0x3c9e43c7	0.019319428
45	0x3da1f0f0	0.07907283
46	0x3d06b70f	0.032889422
47	0x3d70ce17	0.058790293
48	0xbd67d8cd	-0.05660324
49	0x3d811dcc	0.063045114
50	0x3d800495	0.06250874
51	0x3d3940e8	0.045227915
52	0xbd7a7039	-0.06114218
53	0xbb037531	-0.0020058865
54	0x3d7cac9c	0.06168805
55	0xbc07439a	-0.008255864
56	0x3d8f5358	0.069983184
57	0xba9812b7	-0.0011602257
58	0xbd4fb922	-0.050713666
59	0x3d4bde2a	0.04977242
60	0xbc167068	-0.009182073
61	0xbd6f4a3a	-0.058420397
62	0xbcead44e	-0.028665688
63	0xbd24d338	-0.040240496
64	0x3d759982	0.05996085
65	0xbd21ab0f	-0.039469775
66	0xbd8d1b58	-0.06889981
67	0xbd07253b	-0.03299449
68	0xbd242ddd	-0.0400828
69	0xbbcc2da6	-0.0062310277
70	0x3cbf89f7	0.023381216
71	0xbcc183f4	-0.02362249
72	0xbd83f567	-0.06443291
73	0x3d470943	0.048592817
74	0x3d067c85	0.032833595
75	0xbd623285	-0.05522396
76	0xbd95ab07	-0.073080115
77	0xbc7c1dfe	-0.01538801
78	0xbc89de91	-0.01682976
79	0x3b57bebf	0.003292009
80	0x3ca98643	0.020693904
81	0xbd6b8a53	-0.057504963
82	0x3d8c3c56	0.06847446
83	0xbd55adc8	-0.052167684
84	0xbd036a34	-0.032083705
85	0xbd2f577f	-0.042808052
86	0x3ccf280e	0.025287654
87	0xbd83587a	-0.0641336
88	0x3d907b01	0.07054711
89	0xbd903e29	-0.07043106
90	0xbd713df1	-0.058896963
91	0x3c428042	0.011871399
92	0xbd8e6167	-0.06952172
93	0x3d890858	0.066910446
94	0xbc9cc42d	-0.019136513
95	0xbb9e04a1	-0.004822329
96	0x3d8b26af	0.06794488
97	0x3c8360d6	0.016037386
98	0xbd70c7c3	-0.058784258
99	0xbcc6187a	-0.024181593
100	0xbd843034	-0.064545065
101	0xbc9df977	-0.019283993
102	0xbd803968	-0.062609494
103	0xbd694c08	-0.056957275
104	0xbd74e36f	-0.05978721
105	0xbba362a6	-0.004986125
106	0x3d0d4c49	0.03449658
107	0xbd7aeaca	-0.06125907
108	0x3d2ff1c5	0.04295518
109	0xbd16ffb7	-0.036864962
110	0x3d1c59f0	0.03817171
111	0x3d967578	0.07346624
112	0x3b7083c9	0.0036699644
113	0xbce55a2e	-0.027997103
114	0xbd963c80	-0.07335758
115	0xbd90eb65	-0.07076148
116	0xbd0ae175	-0.03390642
117	0x3da3f06a	0.0800484
118	0xbd4f1255	-0.050554592
119	0x3cf6a9d3	0.030110275
120	0x3d1e4b5f	0.0386461
121	0x3d7a0db2	0.061048217
122	0x3d881de9	0.0664633
123	0xbc778a71	-0.015108691
124	0x3d1ec847	0.038765218
125	0x3d2aacc5	0.041668672
126	0x3d3bf1c6	0.04588487
127	0xb9e4c63f	-0.00043635254
128	0xbc80a8df	-0.015705524
129	0x3d648730	0.055792987
130	0xbc02f662	-0.007993313
131	0x3cdba5f4	0.026812531
132	0x3d15ccca	0.036572255
133	0x3c78c3de	0.015183417
134	0xbc2ceb92	-0.010554211
135	0xbd4d4ed6	-0.050124012
136	0x3d715efb	0.05892847
137	0xbd22d639	-0.03975508
138	0xbcc4c97d	-0.024021858
139	0x3d7ff027	0.062484886
140	0x3b4294c2	0.0029690717
141	0x3d9463fc	0.07245633
142	0xbd84da0f	-0.06486904
143	0x3d031f5e	0.032012336
144	0x3cdbc6cd	0.026828194
145	0xbd8ad909	-0.067796774
146	0x3d2ff809	0.042961154
147	0x3c0dfd1b	0.008666302
148	0x3d5d7aa0	0.054072022
149	0xbd332a2d	-0.043741394
150	0xbcc42ff3	-0.023948645
151	0xbcbefa78	-0.023312792
152	0x3d7835ba	0.060598113
153	0x3d0adae3	0.033900153
154	0xbd931e82	-0.07183553
155	0x3d846d2d	0.06466136
156	0x3d899132	0.06717147
157	0x3d0129e5	0.031534094
158	0x3c63a345	0.013893907
159	0x3cc584d3	0.024111187
160	0x3d78d63e	0.060751192
161	0xbbad90cd	-0.0052968026
162	0x3d834a59	0.06410665
163	0x3cb3813c	0.02191221
164	0xbd42a27d	-0.047518242
165	0xbca27ff1	-0.019836398
166	0xbcbe8ed4	-0.023261465
167	0x3daa5cac	0.08318457
168	0x3d3fdb86	0.046840213
169	0xbd040a6f	-0.032236513
170	0xbd258792	-0.040412493
171	0x3addc2f1	0.0016919059
172	0xbd842ae9	-0.06453497
173	0xbd69c474	-0.057072118
174	0x3d343f39	0.044005606
175	0x3d87f4be	0.06638478
176	0x3d5222ac	0.051302597
177	0xbc4f1346	-0.0126388725
178	0x3cdce900	0.026966572
179	0xba2bc78c	-0.0006552867
180	0xbc9d817b	-0.01922678
181	0x3d0f7233	0.03502102
182	0x3d5f3565	0.05449428
183	0x3d877083	0.06613257
184	0xbd20106a	-0.039078154
185	0xbd26eb11	-0.04075152
186	0xbd8562ed	-0.06513009
187	0xbcb06e98	-0.02153711
188	0x3c995d7c	0.018721335
189	0xbc69fb4b	-0.014281104
190	0x3cf00f28	0.029304102
191	0xbd4dc732	-0.050238796
192	0xbc336528	-0.0109494105
193	0x3d7d8c32	0.06190128
194	0x3d0f5f7b	0.035003167
195	0x3cb47306	0.022027504
196	0xbcb1964d	-0.021678114
197	0xbd832d39	-0.0640511
198	0xbcb8d6ed	-0.022563422
199	0xbc4ab069	-0.012371161
200	0xbce2ee02	-0.027701382
201	0x3c40e606	0.011773592
202	0x3c8940f0	0.016754597
203	0x3da7254c	0.08161411
204	0xbcaea07e	-0.021316763
205	0x3d029e9d	0.031889547
206	0x3d488518	0.048955053
207	0xbc84f495	-0.016229907
208	0x3d524236	0.051332675
209	0xbd56d4b9	-0.052448962
210	0xbc2cf362	-0.010556074
211	0x3d8932ae	0.066991195
212	0xbd62e118	-0.055390447
213	0xbbf145e3	-0.0073630675
214	0xbd47c774	-0.048774198
215	0x3c1428f2	0.009042965
216	0x3d3424e3	0.04398049
217	0x3d3e92a8	0.04652658
218	0x3d81fd80	0.063471794
219	0xbd8b9b57	-0.06816738
220	0x3cf4ddf4	0.029890992
221	0x3d8605da	0.06544085
222	0x3ce9c0a5	0.028534243
223	0x3cac6b9a	0.021047402
224	0xbd292716	-0.04129704
225	0x3accf2ad	0.0015636288
226	0x3d1dc5aa	0.038518585
227	0xbc7c09d7	-0.015383205
228	0xbcc9b8c6	-0.02462424
229	0xbd1463ed	-0.03622811
230	0xbcd026d8	-0.025409147
231	0x3d4d36dc	0.050101146
232	0x3cf6677d	0.030078644
233	0x3d311f73	0.043242883
234	0x3d818410	0.06324017
235	0xbd834c09	-0.06410987
236	0xbd8ef799	-0.06980819
237	0xbd6d97ea	-0.058006205
238	0xbd2f6ea5	-0.04283013
239	0xbd83afdc	-0.06430027
240	0xbc29168c	-0.010320317
241	0xbd757c26	-0.05993285
242	0x3cc48950	0.023991257
243	0x3b8ee1f3	0.0043604313
244	0xbcd78b87	-0.026311649
245	0x3d3a1099	0.045425985
246	0xbd0cd1c5	-0.03437974
247	0xbd0a4fa3	-0.033767354
248	0x3d240df5	0.040052373
249	0x3d6db47b	0.058033448
250	0x3d49e6c6	0.04929235
251	0xbd8e8fc1	-0.06961013
252	0xbd08d98b	-0.03341059
253	0xbd20c3ec	-0.039249346
254	0xbd993bea	-0.07482131
255	0xbd849511	-0.06473745

lin2.bias f4 [96]
0	0xb60166c2	-1.928231e-06
1	0x3a8fab1d	0.001096103
2	0xbc90a371	-0.01765606
3	0xb38ed680	-6.6514076e-08
4	0xbc5d5659	-0.013509356
5	0x35a5a940	1.2342716e-06
6	0xbcd6653f	-0.026171325
7	0x3bfc3781	0.0076970463
8	0x3ce2801d	0.02764898
9	0xbc25db8c	-0.010123145
10	0xbc0a6560	-0.008447021
11	0xb8ad1d65	-8.254758e-05
12	0x368b6ac5	4.1549524e-06
13	0xbcbbaff0	-0.022911042
14	0x3c906ff5	0.01763151
15	0xbad306b5	-0.0016100021
16	0xbc6fc993	-0.014635461
17	0x3cadfdce	0.021239188
18	0x3c1e5929	0.009664812
19	0x3c731859	0.014837348
20	0xbce46750	-0.027881294
21	0x3cacd826	0.021099161
22	0xb7f56276	-2.9252125e-05
23	0x3b7254d5	0.0036976833
24	0xbce0e895	-0.027454654
25	0xbcaf87a8	-0.02142699
26	0x364138fb	2.8792408e-06
27	0xbb0bd389	-0.0021335802
28	0xbbadec0f	-0.0053076814
29	0x3c9f28f5	0.01942871
30	0x3a95d0e1	0.0011430049
31	0x3510e96b	5.398385e-07
32	0x3ae5f1c8	0.001754337
33	0x3c784e8c	0.015155446
34	0xba4f383c	-0.0007904803
35	0x3a5b9449	0.0008376283
36	0xbc09fa29	-0.008421459
37	0x3aec4070	0.0018024575
38	0x3c40cbbf	0.011767327
39	0xbc60283f	-0.01368147
40	0xbc2df398	-0.010617159
41	0xbc8d7e11	-0.017272027
42	0xbcf47985	-0.029843101
43	0x3c2e7580	0.010648131
44	0x36407c1b	2.8682468e-06
45	0x3b608ee0	0.0034264848
46	0xbcddb6b0	-0.027064651
47	0xba8c6f41	-0.0010714309
48	0x35ccd151	1.5260104e-06
49	0x3260dc78	1.3088645e-08
50	0x3c5f35e7	0.013623691
51	0xb6450c0d	-2.9362302e-06
52	0x3612d18e	2.1877672e-06
53	0x3b415ac7	0.002950357
54	0xbc0c5b64	-0.008566711
55	0x3c7eeaa8	0.015558876
56	0x3c855b4d	0.016278887
57	0x3ca70e57	0.02039258
58	0xbce9fe9b	-0.028563788
59	0xbbc3cf9d	-0.005975677
60	0xbc3ca965	-0.011514996
61	0xbce27bd5	-0.027646938
62	0xb9c99ae4	-0.0003845311
63	0xbcaee2be	-0.021348353
64	0x3cfc0abf	0.030766843
65	0x3cde27f0	0.027118653
66	0x3bd99b82	0.0066408524
67	0x3c9ac878	0.01889442
68	0x3c1dad28	0.009623803
69	0xbc0e10f0	-0.00867103
70	0xbb9e08b8	-0.0048228167
71	0x3580057d	9.53834e-07
72	0xbc91ab1b	-0.017781785
73	0x3606f82e	2.0112016e-06
74	0xbb184c32	-0.0023238775
75	0xbd01de05	-0.031705875
76	0x3cb82e33	0.022482967
77	0xbc0c2ede	-0.008556096
78	0x363ed94a	2.8438685e-06
79	0xb603abbf	-1.962049e-06
80	0x3cc43ea5	0.023955652
81	0x3cec4e8a	0.028846044
82	0xb41efe62	-1.480744e-07
83	0xbcc22cb0	-0.02370295
84	0x3b98cc77	0.004663046
85	0xbcddddcd	-0.027083302
86	0xbc93d0d3	-0.018043911
87	0xbc091ebf	-0.008369147
88	0xbc479257	-0.012180886
89	0xb7e6e398	-2.7524118e-05
90	0x3b14f154	0.002272685
91	0xbc9eab57	-0.01936881
92	0x3c89e517	0.016832871
93	0x3b86c8c4	0.0041132886
94	0xbc379dac	-0.0112070255
95	0x3b9efecc	0.0048521515

lin3.weight f4 [40, 96]
0	0xbca672c5	-0.020318398
1	0xbd8eff3e	-0.06982277
2	0xbd3780bd	-0.04480051
3	0xbddc8147	-0.10766845
4	0xbd003fdf	-0.031310912
5	0x3d9eb37e	0.07749079
6	0xbd6b043b	-0.05737708
7	0x3d2b612c	0.041840717
8	0x3ce8a995	0.028401176
9	0xbbf71058	-0.00753979
10	0xbd6eed39	-0.058331702
11	0x3d2924fb	0.041295033
12	0x3d88859b	0.06666108
13	0x3d75da8d	0.06002288
14	0x3d86a950	0.065752625
15	0x3d3001d0	0.04297048
16	0xbdafef7f	-0.08590602
17	0xbd590a9b	-0.05298863
18	0xbdb8fa73	-0.090321444
19	0x3d66f800	0.056388855
20	0x3c3c076c	0.011476379
21	0xbd564228	-0.052309185
22	0x3d93f22b	0.07223924
23	0x3c17a6b0	0.00925605
24	0x3bf5bf62	0.0074996212
25	0xbc934998	-0.017979428
26	0xbca6c898	-0.020359322
27	0xbd5fca59	-0.054636333
28	0x3db19f3d	0.086729504
29	0xbdbf6a58	-0.09346455
30	0xbb7f011e	-0.0038910578
31	0xbc48c831	-0.012254761
32	0x3de288c8	0.11061245
33	0xbd01a444	-0.031650797
34	0xbbe8364a	-0.00708655
35	0x3dac33b5	0.084083
36	0x3cb958cb	0.022625348
37	0xbd748364	-0.059695616
38	0x3d4e535d	0.05037247
39	0xb96d7004	-0.0002264381
40	0x3d9c470e	0.0763074
41	0x3c7e12e3	0.015507433
42	0x3d8a06f1	0.06739605
43	0x3d6d453b	0.05792735
44	0xbcb6720e	-0.022271182
45	0xbdde5f41	-0.10858012
46	0xbd9d1e60	-0.07671809
47	0x3d497609	0.049184833
48	0xbdbb4780	-0.09144497
49	0xbd958dab	-0.07302412
50	0xbd05e1d1	-0.03268606
51	0x3ce7ec7e	0.02831101
52	0x3cf09619	0.029368447
53	0x3ce21f88	0.027602926
54	0xbdc29d05	-0.09502605
55	0xbb7d4c00	-0.0038650036
56	0x381b210e	3.6985664e-05
57	0xbdadb441	-0.08481646
58	0x3cae12ee	0.02124926
59	0x3d192a19	0.037393663
60	0xbd152a71	-0.03641743
61	0xbd5297e5	-0.05141439
62	0xbc8b690a	-0.01701786
63	0x3dc414b3	0.095742606
64	0x3c576f10	0.013149038
65	0x3d57606c	0.05258219
66	0xbb828cce	-0.0039840704
67	0xbd1b6c0e	-0.037944846
68	0x3b414212	0.0029488844
69	0xb8dd23a7	-0.00010544742
70	0x3d369db8	0.044584006
71	0xbda32990	-0.07966912
72	0x3da93576	0.0826215
73	0x3dc96589	0.098338194
74	0xbd2d9952	-0.042382546
75	0xbdc69610	-0.09696591
76	0x3d9fd091	0.07803453
77	0x3ca56b47	0.020192755
78	0x3d23e91b	0.04001723
79	0xbdaa638b	-0.083197676
80	0x3d73baea	0.059504427
81	0x3db0b7cf	0.08628809
82	0x3d9b5c23	0.07585933
83	0x3cfed5bf	0.031107781
84	0xbd338404	-0.04382707
85	0x3d812712	0.0630628
86	0x3da61583	0.08109572
87	0x3c4b58af	0.012411281
88	0xbd6923fa	-0.056919076
89	0x3dcda002	0.10040285
90	0x3dacadc8	0.08431584
91	0xbd4fdccb	-0.050747674
92	0x3d16592e	0.036706142
93	0xbd0928cd	-0.033486176
94	0x3d61cacf	0.055125054
95	0xbbcf0d8d	-0.006318754
96	0xbb9c5b62	-0.004771636
97	0x3d436f99	0.04771385
98	0xbdbca797	-0.09211653
99	0xbd5b6a0f	-0.053567942
100	0x3c9d45ce	0.019198325
101	0x3d7fbe3c	0.06243728
102	0x3d0cb076	0.034347974
103	0xbdcab9e8	-0.0989874
104	0x3d940846	0.072281405
105	0x3b55ca3e	0.0032621766
106	0x3dd729f2	0.10506047
107	0x3d8cae88	0.06869227
108	0xbd02e669	-0.031958017
109	0xba8c82fe	-0.0010720191
110	0xbd2816c5	-0.04103734
111	0xbccdac8f	-0.025106696
112	0xbc9c4223	-0.019074505
113	0x3d70bf1f	0.058776017
114	0x3d988cae	0.074487075
115	0x3dbb6a47	0.0915113
116	0xbd86acf2	-0.065759555
117	0x3d2bb788	0.041923076
118	0xbc86ef70	-0.016471595
119	0x3d8fd5fc	0.07023236
120	0x3cca0138	0.024658784
121	0x3d7d806d	0.061890054
122	0xbdb69665	-0.08915404
123	0xbd2e2163	-0.04251231
124	0xbdbff065	-0.093720235
125	0xbca03a01	-0.019558908
126	0x3dc972c8	0.09836346
127	0xbd9ecd97	-0.07754057
128	0x3cdead6d	0.027182305
129	0x3d98f905	0.07469372
130	0xbdd367b8	-0.10322517
131	0xbdc4d934	-0.09611741
132	0x3c390876	0.011293521
133	0xbd847bf1	-0.064689524
134	0xbdb776db	-0.08958217
135	0xbdc42e34	-0.09579125
136	0x3d1b49b5	0.03791209
137	0xbcce90cc	-0.025215529
138	0x3d0e0a4b	0.034677785
139	0x3dae7ce6	0.08519916
140	0xbd52fd7d	-0.051511277
141	0x3dfa669d	0.12226603
142	0xbd183c8a	-0.03716711
143	0x3d051b06	0.032496475
144	0xbdb0a719	-0.08625621
145	0xbd57ac9e	-0.052654855
146	0x3c94236a	0.018083293
147	0x3d3df45c	0.046375617
148	0xbd2c557c	-0.04207371
149	0x3d4927ea	0.04911033
150	0x3d852474	0.065010935
151	0x3dbaea55	0.091267265
152	0xbdcffb20	-0.1015532
153	0xbd2685d8	-0.040654987
154	0x3ce122e6	0.027482461
155	0x3cdd9df8	0.027052864
156	0x3db69224	0.08914593
157	0x3d201f2a	0.03909222
158	0xbd57cd1f	-0.052685853
159	0x3c9666fb	0.018359652
160	0xbcb88a08	-0.022526756
161	0x3b852892	0.0040636742
162	0x3da26d7d	0.079310395
163	0xbd57ce60	-0.05268705
164	0x3d212822	0.039344914
165	0xbd9dc37c	-0.07703301
166	0xbdafbf71	-0.085814364
167	0x3cf42d16	0.029806655
168	0x3ddf54c1	0.109048374
169	0xbd9616d3	-0.07328572
170	0xbcf44722	-0.029819075
171	0xbd47ffee	-0.048828058
172	0xbd756688	-0.059912235
173	0xbd521bc2	-0.051296003
174	0xbc8fdbd5	-0.017560879
175	0xbb3b974f	-0.0028624122
176	0xbbf3d070	-0.007440619
177	0xbdad4303	-0.08460047
178	0x3d0abf04	0.033873573
179	0x3d1a37cf	0.03765088
180	0x3da85026	0.08218412
181	0x3d9d337b	0.07675835
182	0xbd9a1d73	-0.07525148
183	0x3cdedda7	0.027205301
184	0xbd40fca2	-0.04711593
185	0xbcb71f71	-0.02235386
186	0x3d4ca44d	0.049961377
187	0x3d318f7d	0.04334973
188	0xbd9949bd	-0.074847676
189	0x3cc9ee48	0.024649754
190	0x3d2d713f	0.042344328
191	0xbbaa2663	-0.0051925643
192	0xbcf3ec66	-0.02977581
193	0xbda47a33	-0.0803112
194	0xbdca8292	-0.098881856
195	0x3b650036	0.0034942753
196	0x3c9e8072	0.019348357
197	0xbd98f057	-0.07467716
198	0xbd9cecf6	-0.07662384
199	0x3d77dbdb	0.060512405
200	0x3d935986	0.071948096
201	0x3dab0293	0.083501
202	0xbd2b767c	-0.041861042
203	0xbdc975b5	-0.09836904
204	0x3ce080ff	0.02740526
205	0xbd7edf77	-0.06222483
206	0xbcc861b3	-0.02446065
207	0x3dad1baf	0.08452546
208	0x3d47948b	0.048725646
209	0x3db13c45	0.086540736
210	0xbdb58ecd	-0.08865128
211	0xbd2d3686	-0.042288326
212	0xbd4f6d74	-0.050641492
213	0x3d972c3b	0.07381483
214	0x3caf27e0	0.021381319
215	0xbdae346c	-0.085060924
216	0x3cc41467	0.02393551
217	0x3ce2528d	0.027627254
218	0xbd2b601a	-0.041839696
219	0x3c387c88	0.011260159
220	0xbd9dec81	-0.07711125
221	0xbabf08d3	-0.0014574773
222	0x3c39257e	0.011300443
223	0x3d6bbfb9	0.057555888
224	0xbd463272	-0.048387952
225	0xbd92f604	-0.0717583
226	0x3d225105	0.039628047
227	0x3b88e081	0.0041771536
228	0x3d45e2e7	0.048312094
229	0x3d412b7f	0.04716062
230	0xbc023c7c	-0.007948991
231	0xbdd71825	-0.10502652
232	0xbcbf5daf	-0.023360102
233	0x3d14c9de	0.036325328
234	0x3d42124e	0.047380738
235	0xbd6dd682	-0.0580659
236	0x3bb439d4	0.0055000577
237	0xbd91e17b	-0.07123085
238	0xbd054bd1	-0.032543007
239	0xbd6c4586	-0.05768349
240	0x3d1eba28	0.03875175
241	0x3d282c02	0.041057594
242	0x3dcf613a	0.10125966
243	0x3d306336	0.043063365
244	0x3d6188ee	0.055062227
245	0x3c8ce3e7	0.017198516
246	0x3da8a7a9	0.08235104
247	0x3db5a919	0.088701434
248	0x38efe20a	0.00011438511
249	0x3c6ea8d3	0.014566618
250	0x3ced79fc	0.02898883
251	0xbc2adfb1	-0.010429309
252	0x3d46774b	0.04845361
253	0x3d9e24a0	0.077218294
254	0x3dd5db0b	0.1044217
255	0xbd411720	-0.047141194

lin3.bias f4 [40]
0	0xba86fbce	-0.0010298432
1	0xb5cfe289	-1.5488632e-06
2	0xbc971b53	-0.018445646
3	0xbd216831	-0.039406005
4	0x3ad5c388	0.0016308883
5	0xbc8e0226	-0.017335009
6	0xbc35fc0c	-0.011107456
7	0xbb89a3c6	-0.0042004315
8	0x3c93c874	0.01803992
9	0xb6157e4d	-2.2276247e-06
10	0xbcfd7c57	-0.030943079
11	0x3d4c82de	0.049929492
12	0xbd2e16c7	-0.04250219
13	0xb8876025	-6.45521e-05
14	0x3d0b2592	0.033971377
15	0x361179c7	2.1677567e-06
16	0xbc90e636	-0.017687898
17	0x3cef7053	0.029228365
18	0xb5942faf	-1.1040737e-06
19	0xbce8776a	-0.028377254
20	0xbb9bf590	-0.004759498
21	0x3d25cb63	0.040477168
22	0x3bbda05e	0.0057869395
23	0x3b89b471	0.0042024185
24	0x3ab732cc	0.0013976931
25	0x38781668	5.9148675e-05
26	0xbce8560e	-0.028361347
27	0xb728868b	-1.0044906e-05
28	0xbd4c48f7	-0.049874272
29	0x3cdf9219	0.027291344
30	0x36600f6b	3.3387576e-06
31	0xb4fc30ef	-4.6974262e-07
32	0x3d57973c	0.052634463
33	0x3d662820	0.05619061
34	0xb41d97af	-1.4676947e-07
35	0x38b28e5c	8.514218e-05
36	0xbc395c62	-0.01131353
37	0x3bc3a47b	0.0059705353
38	0xb8bf4362	-9.120141e-05
39	0x3c93c82d	0.018039787

lin4.weight f4 [1, 40]
0	0xbda4b2a1	-0.08041883
1	0x3d8eddb3	0.069758795
2	0x3e0739ce	0.13205644
3	0x3dc67694	0.09690586
4	0xbc99cd1b	-0.01877456
5	0x3e06ef07	0.13177119
6	0x3da307a0	0.07960439
7	0xbd634c9d	-0.055492986
8	0x3e4faf61	0.20281745
9	0xbe0737e2	-0.13204911
10	0xbd84a20c	-0.064762205
11	0x3e0ad82a	0.13559023
12	0x3b857827	0.004073161
13	0x3d2cf054	0.042221382
14	0xbd0e5bc5	-0.034755487
15	0xbe0784cd	-0.13234253
16	0x3d0d4f22	0.034499295
17	0x3c7de3a2	0.015496166
18	0x3ded5d48	0.115900576
19	0xbd10ed67	-0.035382655
20	0xbb836111	-0.004009374
21	0xbda037bd	-0.07823131
22	0x3d461c2c	0.04836671
23	0x3df6e317	0.12055033
24	0xbd826fe2	-0.06368996
25	0xbdd82b54	-0.10555139
26	0x3e4263b9	0.18983354
27	0x3e4bdfd4	0.19909602
28	0x3dc6d93a	0.097094014
29	0x3e3f7e9d	0.18700643
30	0x3e141326	0.1446043
31	0xbce2c5ba	-0.027682174
32	0x3d9a60b1	0.07537974
33	0xbc026a37	-0.007959894
34	0xbc1d816c	-0.009613376
35	0x3d6d85be	0.057988875
36	0x3dca1bc7	0.09868579
37	0xbd2e5cb8	-0.042568892
38	0xbe023b78	-0.12717998
39	0x3dfcfee4	0.12353304

bn1.weight f4 [180]
0	0x3f7e9b9d	0.994562
1	0x3f80bb13	1.005709
2	0x3f7c2d17	0.985063
3	0x3f801a10	1.0007954
4	0x3f7e6b0b	0.99382085
5	0x3f8108a5	1.0080763
6	0x3f806532	1.0030882
7	0x3f7f3567	0.9969086
8	0x3f7d9e84	0.9907
9	0x3f806a82	1.0032504
10	0x3f7e0fdf	0.9924297
11	0x3f811112	1.0083334
12	0x3f7bb97c	0.983299
13	0x3f806c66	1.003308
14	0x3f800ab8	1.0003271
15	0x3f80d20e	1.0064104
16	0x3f805d8a	1.0028546
17	0x3f7c4a9b	0.9855134
18	0x3f7e7525	0.993975
19	0x3f7df9a8	0.9920907
20	0x3f7f57d8	0.99743414
21	0x3f7ffc49	0.9999433
22	0x3f7e0f90	0.99242496
23	0x3f7c8f10	0.98655796
24	0x3f7f7c9d	0.9979952
25	0x3f7ef01b	0.9958512
26	0x3f807bec	1.0037818
27	0x3f7e1dd5	0.9926427
28	0x3f7f0710	0.9962015
29	0x3f7f64e2	0.9976331
30	0x3f7d599c	0.9896486
31	0x3f7d636b	0.98979825
32	0x3f7d3323	0.98906153
33	0x3f7f680a	0.99768126
34	0x3f7e4065	0.9931701
35	0x3f7f61bf	0.99758524
36	0x3f7d7aaf	0.99015325
37	0x3f7cdf8e	0.9877862
38	0x3f805f21	1.0029031
39	0x3f80b788	1.0056009
40	0x3f811209	1.0083629
41	0x3f80b086	1.0053871
42	0x3f81b6e1	1.0133935
43	0x3f80797b	1.0037073
44	0x3f802751	1.0011998
45	0x3f7dcc33	0.9913971
46	0x3f7d84f7	0.99031013
47	0x3f80b75f	1.005596
48	0x3f7f0e0f	0.99630827
49	0x3f7ed527	0.99543995
50	0x3f8068ea	1.0032017
51	0x3f7f2b21	0.99675184
52	0x3f7f63d1	0.9976168
53	0x3f7d37e6	0.9891342
54	0x3f7a993e	0.9789008
55	0x3f7e5c7a	0.9935986
56	0x3f7d0944	0.98842263
57	0x3f814f92	1.0102408
58	0x3f7e35dd	0.9930094
59	0x3f7ef366	0.99590147
60	0x3f80b4b0	1.0055141
61	0x3f7ea424	0.9946921
62	0x3f80c9c8	1.0061579
63	0x3f7ddee4	0.9916823
64	0x3f7f17fa	0.9964596
65	0x3f802da4	1.0013928
66	0x3f7d7c12	0.9901744
67	0x3f7d6cfa	0.9899441
68	0x3f808b56	1.0042522
69	0x3f8071d5	1.0034739
70	0x3f7ec04f	0.9951219
71	0x3f7f7175	0.99782497
72	0x3f7b6480	0.98200226
73	0x3f7ef8a4	0.99598145
74	0x3f7d6170	0.989768
75	0x3f7dad0a	0.9909216
76	0x3f7d0c53	0.9884693
77	0x3f7e91e8	0.99441385
78	0x3f7ee29d	0.99564534
79	0x3f7f0d3d	0.99629575
80	0x3f802941	1.001259
81	0x3f7fcc97	0.99921554
82	0x3f7e78fc	0.9940336
83	0x3f7f16ce	0.9964417
84	0x3f800541	1.0001603
85	0x3f801940	1.0007706
86	0x3f7efc9b	0.99604195
87	0x3f7e65ca	0.9937407
88	0x3f7dccb6	0.9914049
89	0x3f7ec22f	0.9951505
90	0x3f7dfbe8	0.99212503
91	0x3f7c3ff9	0.98535115
92	0x3f8199ca	1.0125058
93	0x3f815450	1.0103855
94	0x3f7fe33d	0.99956113
95	0x3f80640c	1.0030532
96	0x3f7d62d3	0.9897892
97	0x3f7ec565	0.9951995
98	0x3f8015e2	1.0006678
99	0x3f80250f	1.0011309
100	0x3f7ca2ed	0.98686105
101	0x3f802387	1.0010842
102	0x3f7eea79	0.99576527
103	0x3f7f7689	0.99790245
104	0x3f7f276f	0.99669546
105	0x3f7f9b3a	0.9984623
106	0x3f7fa0e9	0.99854904
107	0x3f80a7dc	1.0051227
108	0x3f7e7278	0.99393415
109	0x3f7fa530	0.9986143
110	0x3f7e3c93	0.9931118
111	0x3f7e6ad1	0.9938174
112	0x3f7fc474	0.9990914
113	0x3f7ff417	0.99981827
114	0x3f810257	1.0078839
115	0x3f7db005	0.9909671
116	0x3f812497	1.0089291
117	0x3f80bd07	1.0057687
118	0x3f7dfebe	0.9921683
119	0x3f7e9edc	0.9946115
120	0x3f801385	1.0005957
121	0x3f7eec3d	0.9957922
122	0x3f7d332e	0.9890622
123	0x3f80d1d0	1.006403
124	0x3f7cc2b4	0.98734593
125	0x3f8010e8	1.0005159
126	0x3f7f3b8d	0.9970024
127	0x3f7d609b	0.98975533
128	0x3f7d80cd	0.9902466
129	0x3f800f6f	1.000471
130	0x3f7f1cf9	0.99653584
131	0x3f802124	1.0010114
132	0x3f7f8f29	0.9982782
133	0x3f7d1677	0.98862404
134	0x3f7f51be	0.99734104
135	0x3f7e828e	0.9941796
136	0x3f7cca01	0.98745733
137	0x3f8009d1	1.0002996
138	0x3f806d8d	1.0033432
139	0x3f7e75c5	0.9939845
140	0x3f8006c0	1.000206
141	0x3f7ee2d1	0.99564844
142	0x3f8096af	1.0045985
143	0x3f7ddcc3	0.9916498
144	0x3f803e21	1.001896
145	0x3f7f28d6	0.99671686
146	0x3f7d9676	0.9905771
147	0x3f7f7f18	0.99803305
148	0x3f7e7a80	0.9940567
149	0x3f7d9c08	0.9906621
150	0x3f7e5e70	0.9936285
151	0x3f7e4312	0.9932109
152	0x3f806af0	1.0032635
153	0x3f809ce9	1.0047885
154	0x3f7cf703	0.9881441
155	0x3f7dad68	0.9909272
156	0x3f7c8790	0.9864435
157	0x3f7ebcfc	0.9950712
158	0x3f7c95ba	0.98665965
159	0x3f7c7a35	0.98623973
160	0x3f7d5cba	0.98969615
161	0x3f807665	1.0036131
162	0x3f805540	1.0026016
163	0x3f803e3b	1.0018991
164	0x3f7ee97d	0.99575025
165	0x3f812f7e	1.0092618
166	0x3f7d633c	0.98979545
167	0x3f8200c1	1.015648
168	0x3f7ead5a	0.99483263
169	0x3f7cf375	0.98808986
170	0x3f803131	1.0015012
171	0x3f7dca5f	0.9913692
172	0x3f80515e	1.0024831
173	0x3f802dc8	1.0013971
174	0x3f7f5b05	0.9974826
175	0x3f7ef00e	0.99585044
176	0x3f7df783	0.992058
177	0x3f8154c2	1.0103991
178	0x3f7ce646	0.9878887
179	0x3f800f40	1.0004654

bn1.bias f4 [180]
0	0xbc0d6874	-0.008630861
1	0xbc63ff5a	-0.013915861
2	0xbc0cf7be	-0.008603988
3	0xbc573c47	-0.01313693
4	0xbb78a5f3	-0.003794071
5	0xba7d50bd	-0.0009663215
6	0x3a861139	0.0010228521
7	0x3bad6383	0.0052914037
8	0xbc195f7f	-0.009361147
9	0xbbe03c9c	-0.0068431627
10	0xbc27c3a9	-0.01023952
11	0x3bf84426	0.0075764833
12	0xbc536c0a	-0.0129041765
13	0xbc3ab511	-0.011395709
14	0xbb4053ee	-0.00293469
15	0xba284f9e	-0.00064205553
16	0x3b2b59e8	0.0026146118
17	0xbc59d92a	-0.013296405
18	0xbc7e6f1e	-0.015529422
19	0xbbc435fb	-0.0059878803
20	0xbbaa84af	-0.0052038054
21	0xbb23eee4	-0.0025014216
22	0x39c3ed8d	0.00037370287
23	0xbc178de3	-0.009250137
24	0x3b6fadbd	0.0036572062
25	0xbb260325	-0.0025331464
26	0xbb8b9131	-0.0042592515
27	0xbc22b449	-0.009930679
28	0xbbf3d83b	-0.007441548
29	0xb921b3a0	-0.00015421072
30	0xbbfa4c82	-0.007638515
31	0xbb68c6c2	-0.003551886
32	0xbc04c197	-0.008102796
33	0x3bfe83a7	0.007767159
34	0xbb3e21fa	-0.002901195
35	0xbb95b293	-0.004568407
36	0xbc12da14	-0.008963127
37	0xbb9bf4fa	-0.004759428
38	0x3b7c5cbf	0.003850743
39	0xbb80d4d5	-0.0039316216
40	0xbb2b52c0	-0.0026141852
41	0xbabc093b	-0.0014346013
42	0xbb3e038b	-0.002899381
43	0xbb80e4ff	-0.0039335485
44	0xbb7c1953	-0.0038467243
45	0xbbde0630	-0.00677564
46	0xbc22e586	-0.009942418
47	0x3b938740	0.004502207
48	0x3a7bbd3c	0.0009603088
49	0xbba114bd	-0.0049158023
50	0xbbf3a944	-0.0074359495
51	0xbbf979b0	-0.0076133832
52	0x3b529a62	0.0032135476
53	0xbbb04847	-0.00537971
54	0xbc4ec587	-0.012620336
55	0xba46789e	-0.0007571074
56	0xbc3f3466	-0.011670208
57	0x3c70c59f	0.014695554
58	0x396b8206	0.00022459784
59	0x38416a62	4.6113862e-05
60	0x3bfd01e7	0.007721174
61	0xbb997503	-0.0046831383
62	0x3bf44daa	0.0074555473
63	0xbbf1ef50	-0.0073832646
64	0x3987b23f	0.0002588201
65	0x3bc859fe	0.0061142435
66	0xbbbbcae4	-0.0057309736
67	0xbc3b1524	-0.011418615
68	0x3ace734d	0.0015750915
69	0xba426b02	-0.0007416458
70	0xbba26ee4	-0.004957067
71	0xbbd8ee39	-0.006620195
72	0xbc8cf06f	-0.017204491
73	0xbbaea09c	-0.0053292047
74	0xbac1814a	-0.0014763263
75	0x3b1e4e90	0.0024155714
76	0xba458458	-0.00075346744
77	0xbb87fb14	-0.004149804
78	0xbb3e8c91	-0.0029075483
79	0xbbcf5e0c	-0.00632835
80	0xbc97baa5	-0.018521616
81	0xbb610f56	-0.0034341416
82	0xbc366f8b	-0.011134992
83	0x3ac554b8	0.0015055155
84	0xbab6b346	-0.0013938926
85	0x39eca049	0.0004513285
86	0x3abcc0c3	0.0014400709
87	0x3b8b9958	0.0042602234
88	0xbbcff9d0	-0.0063469186
89	0x3bda14fc	0.0066553336
90	0xbbad1cd7	-0.005282979
91	0xbbc2a4f6	-0.005940075
92	0x3bb83909	0.0056220335
93	0x3b8fd9b1	0.0043899645
94	0xba540b66	-0.00080888567
95	0xbb847d93	-0.00404329
96	0xbb75ef78	-0.0037526768
97	0xbbc50b7f	-0.0060133333
98	0x3b29d3aa	0.0025913515
99	0xba4d4b17	-0.00078313187
100	0xb97d3f58	-0.00024151558
101	0x3ad4f452	0.001624713
102	0xba89eeef	-0.0010523478
103	0x3b86241f	0.0040936614
104	0xbbb2ba42	-0.0054543326
105	0xbb7d85ef	-0.0038684567
106	0xbbc14975	-0.0058986493
107	0xba87b3bf	-0.0010353251
108	0xbbb80e69	-0.005616952
109	0xba886809	-0.0010406981
110	0x3b3a8ee1	0.002846651
111	0x3ba3118b	0.0049764565
112	0xbb1ed925	-0.0024238315
113	0xb9efdb4a	-0.00045749015
114	0x3bcb47b9	0.0062036184
115	0xbc1f85cf	-0.009736492
116	0x3c2b4a40	0.010454714
117	0xbc1810f1	-0.009281383
118	0xbb85e552	-0.004086175
119	0xbbf6379b	-0.007513953
120	0xb71e02ec	-9.418214e-06
121	0xbbe75f3f	-0.0070609148
122	0xbbaa8742	-0.0052041123
123	0xbb184cf9	-0.0023239239
124	0xbc27b26d	-0.010235411
125	0x3b73d92d	0.0037208304
126	0xbb02aa77	-0.001993803
127	0xbb9fb6b8	-0.0048740767
128	0x392f59bd	0.0001672273
129	0xbc2b4d96	-0.01045551
130	0xbbd005a9	-0.006348331
131	0x3b1f3851	0.0024295042
132	0x3b8d3cf3	0.004310244
133	0xbb5d3952	-0.003375609
134	0x3a64cca6	0.0008728005
135	0xbb627919	-0.0034557043
136	0xbc015dff	-0.007895946
137	0x3bf1e195	0.007381628
138	0x3bf2b4d9	0.0074068126
139	0xbbc9addf	-0.0061547603
140	0xba1ff2ed	-0.00061015674
141	0xbb49201d	-0.0030689307
142	0xbc119ab2	-0.00888698
143	0xbc0d4124	-0.008621488
144	0x3b5a5fb8	0.0033321213
145	0x3b08c8a8	0.0020871554
146	0xbbaf8fa5	-0.0053577
147	0xbb5768d5	-0.0032868881
148	0xbaabe5f4	-0.0013114796
149	0xbbbfe2fb	-0.0058559156
150	0xbaf66ff6	-0.0018801678
151	0xbb25db0b	-0.0025307562
152	0xbba951f3	-0.00516724
153	0xb8be7d39	-9.0832305e-05
154	0xbc444aef	-0.011980756
155	0xbc07446e	-0.008256061
156	0xbbfc93e7	-0.007708061
157	0xbbca5e5f	-0.0061758007
158	0xbc3c2478	-0.011483304
159	0xbc0ef10a	-0.00872446
160	0xbb89e729	-0.0042084646
161	0x3b3eef85	0.0029134464
162	0xba1c3037	-0.00059581123
163	0xbb45bc15	-0.003017192
164	0xbbb2f49e	-0.0054612895
165	0x3b413fab	0.0029487412
166	0xbc12a94e	-0.008951498
167	0x3ae108b3	0.001716873
168	0xbb8db14a	-0.004324113
169	0xbc33c962	-0.010973306
170	0xbbcedc8b	-0.006312912
171	0xbc75fe19	-0.015014195
172	0x3b054d04	0.0020340094
173	0xbb813e94	-0.0039442275
174	0x3839d28e	4.430353e-05
175	0xbc7557e1	-0.014974565
176	0xbb8c580a	-0.004282956
177	0xba4f6caf	-0.00079126185
178	0xbc054ef5	-0.008136501
179	0x3b97a0b9	0.004627314

bn1.running_mean f4 [180]
0	0xbeb8af6c	-0.36071336
1	0x3d9a6931	0.07539595
2	0xbe62ebe9	-0.22160305
3	0xbd98c97e	-0.074603066
4	0xbe793722	-0.24337438
5	0xbeabb710	-0.33538103
6	0xbe1170ee	-0.14203236
7	0xbc0e2f0c	-0.008678209
8	0x3ea47210	0.32118273
9	0x3e1306eb	0.14358108
10	0xbeacdcac	-0.3376211
11	0x3ea7470e	0.32671398
12	0xbe9c94b2	-0.30582196
13	0xbe3f66d2	-0.18691567
14	0xbcaf44dd	-0.021395141
15	0x3dcedd6a	0.10100825
16	0x3eee4d9b	0.46543583
17	0x3e61b61e	0.22042128
18	0xbd0ac6e9	-0.0338811
19	0xbd80b07e	-0.06283663
20	0xbd1cecde	-0.03831183
21	0x3e34bfb6	0.17651257
22	0x3dfddace	0.12395249
23	0x3d30a7b5	0.043128688
24	0xbe034cf0	-0.12822318
25	0xbd47213d	-0.048615683
26	0x3d8dbb21	0.06920458
27	0x3ef84e52	0.48497254
28	0xbeacd9e0	-0.33759975
29	0x3e3f3453	0.18672304
30	0x3e0cf953	0.13766985
31	0x3e5961a3	0.21228652
32	0xbd675377	-0.056476083
33	0xbe69efb5	-0.22845347
34	0xbdcdb3b4	-0.10044041
35	0x3e780f62	0.24224618
36	0xbe80d91f	-0.2516565
37	0xbcb7ec62	-0.022451583
38	0x3ee309a1	0.44343284
39	0x3ea30d54	0.31846106
40	0x3e23e038	0.16003501
41	0x3df93b92	0.12169565
42	0x3d90aeb7	0.07064574
43	0x3e4cd41e	0.20002791
44	0x3e394abb	0.18094914
45	0x3e79a6bf	0.24380015
46	0xbe1d91a7	-0.15387593
47	0x3da9817b	0.082766496
48	0xbab8f7fd	-0.0014111992
49	0xbcab45fa	-0.02090739
50	0x3d4c0c59	0.049816463
51	0x3e15c815	0.14627106
52	0xbe80aafe	-0.25130457
53	0xbe743eda	-0.23852101
54	0x3efb9118	0.49134135
55	0x3e927423	0.2860423
56	0xbe283d29	-0.16429581
57	0x3e180430	0.14845347
58	0x3e731b83	0.23740964
59	0xbe11f31b	-0.14252894
60	0xbc962574	-0.018328406
61	0x3e754227	0.23951016
62	0x3cde5e68	0.027144626
63	0xbda1be3d	-0.07897613
64	0xbcea38c5	-0.028591523
65	0xbe0fa307	-0.14027034
66	0x3eb15951	0.34638456
67	0xbd9c2d90	-0.07625878
68	0xbe06de12	-0.1317065
69	0x3e1aa2c4	0.15101153
70	0xbda687cb	-0.08131369
71	0x3e1e4f27	0.15459882
72	0x3e567c59	0.20945872
73	0xbe91db2e	-0.28487533
74	0x3dd05dab	0.10174116
75	0xbde96380	-0.11395931
76	0x3e94b43b	0.29043755
77	0xbe896923	-0.26838025
78	0xbde90e3d	-0.11379669
79	0xbb8fa47b	-0.0043836213
80	0xbdfc5b1f	-0.123220675
81	0x3db0070b	0.08595093
82	0xbe3b0a33	-0.1826561
83	0x3da185b5	0.07886831
84	0x3d937e6f	0.0720185
85	0x3d276ab2	0.040873237
86	0xbe44c243	-0.1921473
87	0xbe95edf8	-0.29283118
88	0xbe9e7f5a	-0.30956537
89	0x3c79d4f7	0.015248529
90	0xbf24e77c	-0.6441572
91	0x3e7b93c8	0.24568093
92	0xbd4be026	-0.04977431
93	0x3e850136	0.25977486
94	0xbe3fc6a4	-0.18728119
95	0x3eb932b5	0.361715
96	0xbca1d8d4	-0.019756712
97	0x3dcc87c4	0.09986833
98	0x3ea189b3	0.3155037
99	0xbdc637be	-0.09678601
100	0xbe5939d7	-0.2121347
101	0x3e939ecb	0.28832087
102	0x3e9fd50e	0.31217235
103	0xbe4e290c	-0.20132846
104	0x3e14d260	0.14533377
105	0x3e392cd0	0.18083501
106	0x3d8d545f	0.06900858
107	0x3e8e7637	0.27824566
108	0xbdaab84d	-0.08335934
109	0xbe72adc7	-0.23699103
110	0xbe053d84	-0.13011748
111	0x3e3355b9	0.1751317
112	0x3e03922a	0.12848726
113	0xbda15945	-0.07878355
114	0x3e96b6b4	0.29436266
115	0xbdebe4f4	-0.11518279
116	0x3e6336f2	0.22188929
117	0xbe378169	-0.1792046
118	0xbd5ff699	-0.054678533
119	0xbe8193ea	-0.25308162
120	0xbe9436f6	-0.28948182
121	0xbf024d5a	-0.5089928
122	0x3ecddee5	0.40209118
123	0xbe58076c	-0.21096581
124	0x3d16a58c	0.03677897
125	0x3e7d8064	0.24756008
126	0xbe405435	-0.18782122
127	0x3d150b88	0.03638795
128	0xb9d71889	-0.00041026276
129	0xbe0684da	-0.13136616
130	0x3ed658e0	0.4186468
131	0x3e8e2f0e	0.27770275
132	0x3e934ead	0.28770962
133	0xbe34232c	-0.17591542
134	0x3c703d3b	0.014663036
135	0x3e740eae	0.23833725
136	0x3e77c15b	0.24194853
137	0xbedfb5a5	-0.4369327
138	0x3d4a020f	0.04931837
139	0xbdcc0034	-0.09960976
140	0x3d3ec088	0.04657033
141	0xbe644cd7	-0.22294937
142	0x3d1717c9	0.036887918
143	0x3d1f7545	0.038930196
144	0x3dfb8878	0.12281889
145	0xbdebe1fd	-0.11517713
146	0xbe85e0f7	-0.26148197
147	0xbedacc05	-0.4273378
148	0xbd80df8a	-0.06292637
149	0xbe699b8b	-0.22813241
150	0xbe2f1b57	-0.17100273
151	0xbe505b39	-0.20347299
152	0x3dae0596	0.08497159
153	0xbb045f93	-0.0020198568
154	0xbd9b89ef	-0.07594668
155	0x3ecdebf6	0.40219086
156	0x3ec1a1ba	0.378187
157	0xbe44cc4f	-0.19218563
158	0xbe864d9c	-0.26231086
159	0x3e3d6308	0.18494809
160	0x3e52441d	0.20533796
161	0x3c0b7126	0.008510863
162	0x3e31ff59	0.17382564
163	0x3e2505eb	0.16115539
164	0x3cf987da	0.030460287
165	0xbef6256c	-0.48075426
166	0x3e8254ba	0.25455266
167	0xbe47ff6d	-0.19531031
168	0x3da027dd	0.07820103
169	0x3e13c1ca	0.14429393
170	0x3c99f92f	0.018795578
171	0xbec2076d	-0.3789629
172	0xbd8b9005	-0.06814579
173	0xbd423ba3	-0.047420155
174	0x3d80ec3e	0.062950596
175	0x3de9d519	0.11417598
176	0x3e2c38c8	0.16818535
177	0x3cd80522	0.026369635
178	0x3edaa5d0	0.4270463
179	0xbdbeb259	-0.09311361

bn1.running_var f4 [180]
0	0x3d3d0d6d	0.046155382
1	0x3cf390a8	0.029732063
2	0x3d246721	0.040137414
3	0x3d9bf9e3	0.076160215
4	0x3d3d5ea4	0.046232834
5	0x3d87e96d	0.06636319
6	0x3d14aff9	0.036300633
7	0x3d09b196	0.033616625
8	0x3d9a4476	0.07532589
9	0x3d151e5a	0.0364059
10	0x3d389b1c	0.0450698
11	0x3d036ea2	0.03208793
12	0x3d814e56	0.063137695
13	0x3ceacc2e	0.028661814
14	0x3d2e1bf8	0.04250714
15	0x3d0bbb60	0.03411424
16	0x3d85be84	0.065304786
17	0x3d236f76	0.03990122
18	0x3d4aa660	0.049475074
19	0x3d241d70	0.040067136
20	0x3d3d84ea	0.046269335
21	0x3d06ad46	0.03288009
22	0x3d4e79af	0.050409015
23	0x3d5bb27a	0.053637005
24	0x3d29cea3	0.04145683
25	0x3d2162da	0.039400913
26	0x3d65d8fd	0.05611514
27	0x3d471b30	0.048609912
28	0x3d7d049a	0.061771967
29	0x3d2270aa	0.039658226
30	0x3d5caec6	0.053877614
31	0x3d64b364	0.055835143
32	0x3d4822f8	0.048861474
33	0x3d1bca5b	0.038034778
34	0x3d36c067	0.044617083
35	0x3d341d8e	0.043973498
36	0x3d140339	0.036135886
37	0x3d24e0c1	0.040253405
38	0x3d899985	0.06718735
39	0x3d374063	0.04473914
40	0x3d189d2e	0.037259273
41	0x3d975a98	0.07390326
42	0x3d0c9c34	0.034328654
43	0x3d17ad93	0.037030768
44	0x3d197b48	0.037471086
45	0x3d36f242	0.04466463
46	0x3d04290e	0.032265715
47	0x3d1a42d0	0.037661374
48	0x3d1f50c3	0.03889538
49	0x3d26911a	0.040665723
50	0x3ceb12d0	0.028695494
51	0x3d40b362	0.047046073
52	0x3d4e4f33	0.0503685
53	0x3d2f2c78	0.042767018
54	0x3d87da41	0.066334255
55	0x3d52d192	0.051469393
56	0x3d4d76aa	0.050161995
57	0x3d413259	0.047167156
58	0x3d532bfa	0.05155561
59	0x3d31009b	0.043213468
60	0x3d260016	0.040527426
61	0x3d343934	0.043999866
62	0x3d0ed53b	0.03487132
63	0x3d1ce32e	0.038302593
64	0x3d477a6d	0.04870074
65	0x3d31ed90	0.043439448
66	0x3d35e580	0.04440832
67	0x3d24b1ec	0.040208742
68	0x3d03af29	0.032149468
69	0x3cf14343	0.029451018
70	0x3d5d36a7	0.0540072
71	0x3d487571	0.048940126
72	0x3d4025c6	0.046911024
73	0x3d4f70b2	0.050644584
74	0x3cf9d04f	0.030494837
75	0x3d77d0ba	0.06050179
76	0x3d66abd2	0.056316204
77	0x3d28512a	0.04109303
78	0x3cd152ce	0.02555218
79	0x3d3b3af4	0.04571052
80	0x3d29ee4a	0.041487016
81	0x3d0536c5	0.032522935
82	0x3d179072	0.03700299
83	0x3d32cf2c	0.043654606
84	0x3d3b1b04	0.04568006
85	0x3d2694cc	0.040669248
86	0x3d10805f	0.035278674
87	0x3d59dc93	0.05318887
88	0x3d9de3ce	0.07709466
89	0x3d1923c0	0.03738761
90	0x3db6981e	0.08915733
91	0x3d085bcc	0.03329067
92	0x3d55c9d4	0.05219443
93	0x3d2bd59b	0.041951757
94	0x3d232c0e	0.039836936
95	0x3d67a266	0.05655136
96	0x3d7c9be1	0.061672095
97	0x3d2278d1	0.039666
98	0x3d20f157	0.03929266
99	0x3d6eb775	0.058280427
100	0x3d4ef9d4	0.050531223
101	0x3d9c5928	0.07634193
102	0x3dc9339e	0.09824298
103	0x3d66f696	0.056387506
104	0x3cfaac80	0.030599833
105	0x3d676615	0.056493837
106	0x3d1ef1cf	0.038804825
107	0x3d28fce0	0.041256785
108	0x3d2f90d2	0.04286272
109	0x3d52cb60	0.051463485
110	0x3d36fbce	0.044673733
111	0x3d238daa	0.039930023
112	0x3d6a8a05	0.057260532
113	0x3d078a30	0.03309077
114	0x3d23e252	0.040010758
115	0x3d234166	0.03985729
116	0x3d45db04	0.048304573
117	0x3d81850c	0.06324205
118	0x3d23a582	0.039952762
119	0x3cecd9e0	0.028912485
120	0x3d91805a	0.07104559
121	0x3d1cdb92	0.038295336
122	0x3dad3c13	0.08458724
123	0x3d15aaf6	0.036539994
124	0x3d260dfc	0.04054068
125	0x3d18cb32	0.037303157
126	0x3d074546	0.03302505
127	0x3d38f6bc	0.04515718
128	0x3d4f144a	0.05055646
129	0x3d6b9ff0	0.057525575
130	0x3d6cac16	0.0577813
131	0x3d0439f0	0.032281816
132	0x3d21065a	0.039312698
133	0x3d5c752d	0.053822685
134	0x3d13f31e	0.036120526
135	0x3d12903b	0.03578208
136	0x3d5c843a	0.05383704
137	0x3d33c3c4	0.04388787
138	0x3d254e3b	0.04035781
139	0x3cef41b1	0.029206129
140	0x3d056b64	0.03257312
141	0x3d20a57f	0.03922033
142	0x3d3c423e	0.04596161
143	0x3d4b8cc9	0.04969481
144	0x3d4ee0f5	0.050507504
145	0x3d04656b	0.032323282
146	0x3d0e9e3a	0.034818865
147	0x3d8d979f	0.06913685
148	0x3cf621e6	0.03004546
149	0x3d0c3dd2	0.034238644
150	0x3d2e0c58	0.04249224
151	0x3d289cfc	0.041165337
152	0x3d097ca0	0.033566117
153	0x3d02fe9a	0.03198109
154	0x3d51691c	0.05112563
155	0x3d417700	0.047232628
156	0x3db76533	0.08954849
157	0x3d2d12d3	0.04225428
158	0x3d1b7886	0.037956737
159	0x3ceb049c	0.028688721
160	0x3d42f8a6	0.04760041
161	0x3d165a11	0.036706988
162	0x3d56f117	0.052476015
163	0x3d73f926	0.05956378
164	0x3d3157f2	0.04329676
165	0x3d69b759	0.05705962
166	0x3d29b4c1	0.041432146
167	0x3d0ca8d3	0.03434069
168	0x3d44f5f0	0.048086107
169	0x3d50c3c2	0.05096794
170	0x3d71781f	0.058952447
171	0x3d775fa5	0.060393948
172	0x3d2f1611	0.042745654
173	0x3d6ffdb6	0.058591567
174	0x3d071296	0.03297671
175	0x3d260a36	0.04053708
176	0x3d1fbc46	0.03899791
177	0x3d5cc92d	0.053902794
178	0x3d883862	0.06651379
179	0x3d0be180	0.0341506
