Proposed model/saved_best_DNN_model/0.39289model_fingerp2.pth (torch, 216672 bytes, 19 tensors)

lin1.weight f4 [180, 166]
0.00016554617 -4.0615352e-13 0.055738755 -0.007226055 -0.004852872 -0.040243316 0.028033668 -0.07338526
0.0047506616 0.0648382 0.03879356 -0.044798166 -0.05705397 -0.01824429 0.04104055 0.05721314
-0.07751364 0.07101464 0.030769203 -0.029812919 0.010674207 0.069178075 -0.034192763 0.033562932
-0.00034822623 0.023968706 -0.0019611435 0.07247559 -0.055928983 0.06471849 0.034705717 0.05303259
-0.048021823 0.018780379 0.007942519 -0.05711401 -0.03495878 -0.04545847 -0.031102518 0.014704152
-0.012796757 0.05580332 0.02225959 0.010448602 -0.013930688 -0.003865535 -0.06243694 0.074098915
-0.023637125 -0.019867392 0.017075263 -0.03970934 0.023137078 0.06372849 0.045807056 0.016222097
0.000775747 -0.0028524003 -0.020850563 -0.07106876 -0.043482304 -0.05571682 0.0060803974 -0.042191856
0.019054286 0.02080422 0.07193905 -0.007469429 0.064654045 -0.053756576 -0.05916232 -0.05346244
0.06586013 0.013624837 0.02249867 0.05567923 0.053340696 0.027522797 -0.06921047 -0.03635518
0.0035831213 0.06533521 0.049327362 -0.05409015 -0.065180846 0.0505544 0.0066061574 0.041575607
0.052041877 0.04538088 -0.033546794 0.0060305893 0.07711812 -0.07990106 0.055898983 -0.04680805
0.007802538 -0.06372249 0.027308073 0.0028194878 0.022277845 -0.046768308 0.013077224 0.008644028
0.018138604 0.033880692 -0.04006865 -0.033674445 0.026316017 0.05346608 -0.0012262315 -0.01821635
-0.061857235 0.03753541 -0.026018588 -0.054374427 0.049659435 0.01484775 0.05456233 0.086217746
-0.022705229 -0.008070498 0.05031659 0.040157177 0.015088702 -0.07990234 0.01377753 0.065143965
-0.08358777 0.07303887 -0.031276878 0.068545036 -0.051213123 -0.02483979 0.05825535 0.0019283274
-0.031118566 0.0066149393 0.055102434 -0.02389405 -0.053249862 0.034051023 0.0040193195 -0.048528757
-0.06469027 0.023572043 0.009275447 -0.007898346 0.08183184 0.06338722 0.023660596 -0.03312271
0.03160606 -0.07861693 -0.049329374 -0.005051986 -0.0441105 -0.022611544 0.009421019 0.047142167
0.012628236 0.007948895 -0.06174113 -0.05667991 -0.021828134 0.002097927 -0.0036344451 -0.011403914
-0.008117849 0.017232183 0.0005086949 0.029146533 -4.1973425e-11 -0.035002455 -0.04762459 -0.03455299
0.013283354 -0.046343394 -0.093356386 -0.027500533 0.08259576 0.048829906 0.04099571 -0.027411018
-0.02034295 0.032428544 0.023037285 0.059373163 0.06472484 -0.016735667 -0.06709791 -0.016803846
-0.049891748 0.0079718055 0.014567978 0.025496894 -0.02144094 0.0491327 0.021933207 0.05000858
0.092113286 -0.032984585 0.055623036 0.04837759 -0.033420924 0.050685287 -0.045535684 -0.04680544
-0.00034637074 0.08730082 0.054368746 -0.04142867 0.070182666 0.06901407 0.0764948 -0.100762226
0.042903844 0.04656834 0.009465713 -0.02065028 -0.034505196 -0.087985255 0.018161202 -0.0025442254
-0.04095953 -0.021372285 -0.006924832 0.00017894531 -0.008455441 -0.06092242 -0.028713223 -0.034025393
0.04582658 0.050518803 0.0019257944 0.023264246 0.042638622 -0.05583938 -0.04316 -0.06746254
-0.0027246522 0.045351703 0.011852468 -0.082388386 0.041142408 -0.04828176 -0.025569906 -0.013488863
0.00462324 0.040828776 0.053963766 -0.01888551 0.050172854 -0.081599146 0.0734696 -0.027575793
00000000: 7696 2d39 e4a4 e4aa 524e 643d 8bc8 ecbb
00000010: d704 9fbb 2dd6 24bd dda6 e53c 034b 96bd
00000020: 70ab 9b3b e4c9 843d ffe5 1e3d 487e 37bd
00000030: 6cb1 69bd 0d75 95bc 231a 283d 5358 6a3d
00000040: 79bf 9ebd 2070 913d b20f fc3c 393a f4bc
00000050: dee2 2e3c 3cad 8d3d b60d 0cbd 4979 093d
00000060: 2292 b6b9 055a c43c 8786 00bb 156e 943d
00000070: ca15 65bd 218b 843d 9527 0e3d b338 593d
00000080: 88b2 44bd 4fd9 993c 5721 023c 61f0 69bd
00000090: f030 0fbd a932 3abd b5ca febc afe9 703c
000000a0: 7da9 51bc 0692 643d be59 b63c 9d30 2b3c
000000b0: 8a3d 64bc ea54 7dbb e0bd 7fbd 2cc1 973d
000000c0: a5a2 c1bc f1c0 a2bc 6ce1 8b3c 43a6 22bd
000000d0: f889 bd3c 1584 823d 2ea0 3b3d 34e4 843c
000000e0: 805b 4b3a 56ef 3abb cdce aabc 7f8c 91bd
000000f0: 801a 32bd 5237 64bd 123e c73b 5ed1 2cbd
00000100: bc17 9c3c 9d6d aa3c c854 933d 1dc2 f4bb
00000110: 5769 843d db2f 5cbd 3054 72bd 6efb 5abd
00000120: ade1 863d b53a 5f3c 214f b83c e70f 643d
00000130: c67b 5a3d 7d77 e13c 38be 8dbd 2be9 14bd
00000140: cdd2 6a3b 77ce 853d 7d0b 4a3d a28d 5dbd
00000150: 897d 85bd 2112 4f3d 7778 d83b 2f4b 2a3d
00000160: dd29 553d 4de1 393d 5d68 09bd 409c c53b
00000170: 1bf0 9d3d 2ba3 a3bd 55f6 643d ccb9 3fbd
00000180: 6fac ff3b f080 82bd 2eb5 df3c 28c7 383b
00000190: 0780 b63c 2090 3fbd da41 563c ae9f 0d3c
000001a0: 6997 943c 7bc6 0a3d 061f 24bd 37ee 09bd
000001b0: b094 d73c 40ff 5a3d 80b9 a0ba 743a 95bc
000001c0: 035e 7dbd bbbe 193d ef24 d5bc b8b7 5ebd
000001d0: b167 4b3d fa43 733c c07c 5f3d ee92 b03d
000001e0: 5100 babc 1f3a 04bc c518 4e3d da7b 243d
000001f0: 9a36 773c d7a3 a3bd 26bb 613c 336a 853d
00000200: 1130 abbd 6795 953d 2f1c 00bd 5761 8c3d
00000210: dac4 51bd d17c cbbc 299d 6e3d eebf fc3a
00000220: 5dec febc 22c2 d83b 17b3 613d 74bd c3bc
00000230: 871c 5abd 1679 0b3d 7fb4 833b 17c6 46bd
00000240: 557c 84bd 281a c13c 0bf8 173c 1068 01bc
00000250: 7497 a73d 29d1 813d ded3 c13c aeab 07bd
00000260: 5b75 013d ea01 a1bd 990d 4abd 218b a5bb
00000270: 36ad 34bd d83b b9bc 9e5a 1a3c 2518 413d
00000280: a9e6 4e3c 153c 023c 44e4 7cbd 3129 68bd
00000290: ead0 b2bc 607d 093b df2f 6ebb 7bd7 3abc
000002a0: ba00 05bc 822a 8d3c f059 053a b6c4 ee3c
000002b0: e099 38ae bc5e 0fbd 0112 43bd 7087 0dbd
000002c0: 6da2 593c 92d2 3dbd a231 bfbd cc48 e1bc
000002d0: f727 a93d de01 483d 1eeb 273d 128d e0bc
000002e0: 42a6 a6bc cbd3 043d b0b8 bc3c 4631 733d
000002f0: 758e 843d 3d19 89bc a16a 89bd 38a8 89bc
00000300: 4a5b 4cbd 2d9c 023c 87ae 6e3c ddde d03c
00000310: e9a4 afbc 5f3f 493d 45ad b33c ccd5 4c3d
00000320: e4a5 bc3d d81a 07bd fbd4 633d 9427 463d
00000330: 61e4 08bd 609b 4f3d a083 3abd 10b7 3fbd
00000340: 1899 b5b9 c6ca b23d c3b1 5e3d 1cb1 29bd
00000350: eebb 8f3d 4057 8d3d 4ea9 9c3d 6d5c cebd
00000360: f1bb 2f3d 72be 3e3d 1416 1b3c c72a a9bc
00000370: 5255 0dbd 9d31 b4bd cdc6 943c 05bd 26bb
00000380: 2ec5 27bd ee14 afbc b3e9 e2bb 44a3 3b39
00000390: b188 0abc ca89 79bd fe37 ebbc 365e 0bbd
000003a0: a7b4 3b3d ceec 4e3d f06a fc3a a994 be3c
000003b0: d6a5 2e3d d5b7 64bd 8ac8 30bd cd29 8abd
000003c0: 1490 32bb b5c2 393d db30 423c 3ebb a8bd
000003d0: f184 283d 18c3 45bd fb77 d1bc 6400 5dbc
000003e0: 8c7e 973b 133c 273d 1c09 5d3d c9b5 9abc
000003f0: 0d82 4d3d 741d a7bd 3b77 963d a1e6 e1bc

lin1.bias f4 [180]
-0.02016178 0.034775313 9.571858e-07 -0.008407542 -0.0047917212 4.808367e-05 0.023658771 -0.0033558947
2.6769512e-06 0.0022633572 9.420854e-07 -1.7418693e-06 0.023364441 -0.00040834327 -0.00022633285 -0.0014762148
-0.006563651 0.020791475 0.011720152 -0.00550874 -0.012795911 -0.00014471587 -4.847947e-06 5.486033e-07
0.027705755 -0.003092182 0.030236313 0.00028550977 0.0053954236 -0.028387671 1.8901097e-05 0.008857096
0.0050522955 -5.717371e-06 0.02483392 -0.021113694 -0.012811172 -0.030466205 0.00313016 -1.146022e-05
-0.026343994 -0.00027094115 1.1157517e-06 0.025868563 -7.510428e-07 6.9581634e-05 -0.0028805665 -0.010150647
-0.03243213 -0.028920997 0.0018638509 -0.0049326285 -0.007064371 -1.6615937e-07 1.9370545e-06 0.026463589
-0.0225467 -0.012317938 -0.0011072307 -0.023950767 -0.024821524 -0.023031764 -0.01535362 0.0153559055
-0.02164534 0.00042383219 -0.008611814 -0.030232383 0.010846395 0.00018090775 0.034162793 -0.009424585
-0.025709378 0.0007793069 1.8793188e-06 0.019658258 2.6563492e-05 0.031006845 0.0020984183 7.710963e-07
-0.0005914607 -5.6522344e-07 0.025928752 -0.02986445 5.2923866e-07 -2.8546297e-06 -4.3338267e-05 -0.00029331777
0.017350845 -0.0044817976 0.0026982462 0.011450669 0.002822603 0.00017911712 0.015251607 0.029030008
0.028818015 -0.031892512 -1.1385665e-06 -1.1295573e-06 0.028156389 0.024355711 -0.00072675437 -0.0102940295
0.012874337 2.7419437e-06 -2.8997886e-07 -0.004877913 5.081599e-06 0.007296967 -0.013342533 0.034997087
-0.0013610357 -0.012103387 -0.025795039 0.0042952104 -0.022517586 0.005711381 -1.4965784e-06 -6.879233e-08
0.005275296 0.03454579 -4.3035425e-07 -0.018302731 -4.1961792e-07 -0.0026271464 -0.014852546 2.2170407e-07
0.028681513 0.0116864005 -0.0045519276 -3.4915804e-05 -0.0045056217 -1.3611605e-06 -0.010925306 0.02675079
2.6359016e-06 0.003709493 0.015556745 2.5821528e-06 0.0017125359 -3.5308335e-07 -1.058449e-05 0.00035829004
-0.005237794 -0.012932562 9.0684436e-05 -0.010748815 -0.0019289936 0.0044043497 -1.5294041e-06 3.8796793e-07
-0.017111534 0.024671035 -0.0026475145 3.2692064e-06 -2.9284386e-06 -4.0670617e-05 -0.010356419 -1.9944284e-06
0.020666296 0.010150018 -1.6417509e-05 0.0015282808 -0.0023537148 1.8917852e-05 0.010142115 -1.3753312e-06
0.00042355782 -1.8155902e-07 0.024816358 -4.290628e-06 0.016471086 -0.01575609 -0.011403558 0.009910282
-3.1690552e-06 0.009281941 2.8301356e-06 0.0062285364
00000000: 512a a5bc 8f70 0e3d a778 8035 c9bf 09bc
00000010: df03 9dbb 73ad 4938 0ad0 c13c 92ee 5bbb
00000020: aca5 3336 d554 143b 9ee3 7c35 2cca e9b5
00000030: c966 bf3c e816 d6b9 c353 6db9 8d7d c1ba
00000040: e513 d7bb e252 aa3c e105 403c a982 b4bb
00000050: f1a5 51bc dfbe 17b9 8cab a2b6 bb43 1335
00000060: 2ef7 e23c 35a6 4abb 25b2 f73c 79b0 9539
00000070: 18cc b03b 438d e8bc cc8d 9e37 5a1d 113c
00000080: ba8d a53b d8d7 bfb6 8170 cb3c a0f6 acbc
00000090: f3e5 51bc 4394 f9bc 5f23 4d3b 4545 40b7
000000a0: 5ccf d7bc 1b0d 8eb9 f0c0 9535 4fea d33c
000000b0: 459b 49b5 5bec 9138 e3c7 3cbb e64e 26bc
000000c0: 8ed7 04bd baeb ecbc 754c f43a e3a1 a1bb
000000d0: 3d7c e7bb 8a69 32b4 58fe 0136 2bca d83c
000000e0: dbb3 b8bc 2dd1 49bc 7f20 91ba 6634 c4bc
000000f0: 8256 cbbc 1cad bcbc c08d 7bbc 5697 7b3c
00000100: 9151 b1bc cb35 de39 9118 0dbc e7a9 f7bc
00000110: 14b5 313c 0eb2 3d39 49ee 0b3d 9369 1abc
00000120: 799c d2bc 674a 4c3a e73c fc35 5b0a a13c
00000130: aad4 de37 1102 fe3c 9e85 093b 56fd 4e35
00000140: 410c 1bba dcb9 17b5 8968 d43c 4ba6 f4bc
00000150: 0111 0e35 2a92 3fb6 1cc6 35b8 72c8 99b9
00000160: 5c23 8e3c 0bdc 92bb 0fd5 303b 969b 3b3c
00000170: 6cfb 383b 63d1 3b39 e0e1 793c 57d0 ed3c
00000180: c213 ec3c b9a1 02bd d9d0 98b5 4b9b 97b5
00000190: 3aa8 e63c a185 c73c a983 3eba 4aa8 28bc
000001a0: e2ee 523c 3c02 3836 64ae 9bb4 e6d6 9fbb
000001b0: 9a82 aa36 651b ef3b a49a 5abc 1b59 0f3d
000001c0: c864 b2ba 494d 46bc 1e50 d3bc d6be 8c3b
000001d0: cd76 b8bc 8926 bb3b 0bde c8b5 fcba 93b3
000001e0: 64dc ac3b e37f 0d3d 700b e7b4 9cef 95bc
000001f0: d947 e1b4 342c 2cbb 1858 73bc 8d0d 6e34
00000200: 7ef5 ea3c 5178 3f3c 5628 95bb 8f72 12b8
00000210: e5a3 93bb 1eb1 b6b5 0e00 33bc 7924 db3c
00000220: 72e4 3036 f71a 733b b8e1 7e3c 0c49 2d36
00000230: 2b77 e03a 688f bdb4 0a94 31b7 e0d8 bb39
00000240: cda1 abbb 19e3 53bc d62d be38 cc1b 30bc
00000250: 49d6 fcba 5d52 903b ed45 cdb5 e849 d034
00000260: 7d2d 8cbc e91a ca3c ec81 2dbb 8a64 5b36
00000270: 3186 44b6 be95 2ab8 f8ad 29bc 05d8 05b6
00000280: 5d4c a93c 434c 263c 55b8 89b7 9850 c83a
00000290: c840 1abb c7b1 9e37 1d2b 263c 0598 b8b5
000002a0: f810 de39 90f2 42b4 ad4b cb3c 37f8 8fb6
000002b0: 5fee 863c ea12 81bc fdd5 3abc bc5e 223c
000002c0: f4ab 54b6 4813 183c 5ced 3d36 c018 cc3b

lin2.weight f4 [96, 180]
-0.03494846 -0.07479016 -0.035853107 0.0370581 -0.0031990309 0.025983317 -0.038232323 0.023299282
0.055251267 0.0004435507 0.026992643 0.03242883 -0.021284714 -0.030912656 -0.02192801 0.065935805
-0.06103525 -0.03646164 -0.040750626 -0.07623272 0.03397153 -0.03957263 0.009835674 0.0053345724
-0.011326013 -0.057986964 -0.06191644 -0.045264207 0.023879541 0.024618816 0.060700543 0.03616578
0.0660399 -0.058532387 -0.07702919 -0.022523055 -0.006930367 -0.03542237 -0.06968675 0.004070973
0.0046552853 0.0010366765 0.07026272 -0.04578953 -0.064277306 0.061439972 0.019231247 -0.015296368
0.01861229 0.00021147722 -0.031822715 0.042025194 -0.04571883 0.02190686 0.052149203 -0.044695653
-0.010540009 -0.016393898 -0.00183282 0.016508149 -0.06278566 -0.03905212 0.026130589 -0.06282649
-0.0019311996 0.061762266 0.012677191 -0.015444698 0.009220957 -0.019212784 0.06299604 0.033882942
-0.062326703 0.01745994 0.016658422 0.026455319 -0.03612561 -0.03485858 -0.029330479 0.060059965
-0.043035626 0.078417264 0.06432221 0.033671632 -0.04455261 0.05794237 -0.028373858 -0.048740935
-0.03963804 -0.046821833 0.045040093 0.05903497 0.029175265 -0.048794065 -0.04067988 -0.048693072
-0.01082823 0.054939404 -0.0163966 0.047350537 0.075570084 0.03056377 -0.002179068 -0.04217812
-0.0015940967 -0.032079548 0.011974242 0.05552342 0.011277741 0.0036297168 0.055934187 0.042299908
-0.017978234 0.020184549 0.072438836 -0.061862376 0.010135283 -0.060877416 0.021686628 -0.034795787
-0.052265786 0.0079546105 0.03660572 -0.025408635 0.029865786 -0.015864672 0.015508121 0.060389794
0.05114824 -0.06509186 -0.04327973 0.011244983 -0.025915809 0.026273133 -0.03428833 0.077645026
-0.039094165 -0.041631095 0.0047897296 -0.010199877 0.009080637 0.003390383 -0.015187669 0.04638818
-0.049014032 0.021040672 0.054218426 -0.0075012157 0.02526403 0.03441302 0.026056984 -0.018700616
0.0074837953 -0.019094748 0.05772348 -0.0541779 0.03108793 0.028903406 -0.045450013 0.006942623
0.02545012 0.070051804 0.022016177 -0.050500408 0.042551935 -0.046395067 0.008234535 0.04231517
-0.003424486 0.055468045 0.01652564 0.055823036 0.063680306 0.026406718 0.038828574 0.047670253
0.006640179 0.011429394 0.035379723 -0.051434357 -0.010755894 -0.05442667 -0.019166978 -0.01587438
-0.02486183 0.026073365 0.045885272 0.034499582 -0.039208557 0.01647109 0.027457347 -0.016253395
0.0096212495 -0.0581577 -0.009217097 -0.023286821 -0.04187967 0.080020726 0.04778731 0.05194769
-0.03300485 -0.044476446 0.013451745 0.03232954 -0.04105109 -0.07588942 0.05470582 -0.01409851
0.069493115 -0.054661535 -0.05480996 -0.056850765 -0.010952148 0.028084766 -0.023909142 -0.019831644
0.0512891 -0.03140571 -0.017926844 0.066250496 -0.07136115 -0.06812748 0.053462513 0.07127142
0.010281175 0.05172898 0.06680988 -0.036364783 -0.036677163 0.013832467 0.06968263 0.03573887
0.033989258 -0.029190846 0.042879887 -0.034928564 -0.052669466 0.06254373 -0.030394586 -0.04940369
0.072204776 -0.039325535 -0.009999734 0.06991729 -0.041067656 -0.05163511 0.0014339774 0.013582597
-0.03543604 0.07223215 -0.031302836 0.023140857 0.007941318 0.046811767 -0.057481263 -0.06274306
00000000: 1e26 0fbd 952b 99bd b5da 12bd 3cca 173d
00000010: d5a6 51bb f7da d43c 7f99 1cbd 23de be3c
00000020: 274f 623d 5e8c e839 ad1f dd3c 18d4 043d
00000030: 485d aebc 8a3c fdbc 5fa2 b3bc 5a09 873d
00000040: 1900 7abd cd58 15bd 21ea 26bd e61f 9cbd
00000050: bb25 0b3d e916 22bd cf25 213c a3cd ae3b
00000060: be90 39bc bd83 6dbd 189c 7dbd f666 39bd
00000070: 079f c33c 66ad c93c 22a1 783d 9222 143d
00000080: ed3f 873d a8bf 6fbd 7bc1 9dbd 4582 b8bc
00000090: 2218 e3bb 0c17 11bd edb7 8ebd cc65 853b
000000a0: 5d8b 983b 17e1 873a e7e5 8f3d cd8d 3bbd
000000b0: d2a3 83bd 7ba8 7b3d d98a 9d3c 9e9d 7abc
000000c0: cd78 983c fcbf 5d39 8958 02bd 9c22 2c3d
000000d0: ab43 3bbd 0476 b33c 679a 553d ca12 37bd
000000e0: 00b0 2cbc 7f4c 86bc 3c3b f0ba 193c 873c
000000f0: c595 80bd 1ef5 1fbd d10f d63c 2dab 80bd
00000100: 4e20 fdba 6efa 7c3d feb3 4f3c c20b 7dbc
00000110: 7f13 173c 2164 9dbc 1104 813d d7c8 0a3d
00000120: 494a 7fbd 2608 8f3c 3e77 883c d3b8 d83c
00000130: 73f8 13bd dfc7 0ebd 7946 f0bc 7001 763d
00000140: 2046 30bd 3b99 a03d 5dbb 833d 44eb 093d
00000150: cc7c 36bd fb54 6d3d 4b70 e8bc 93a4 47bd
00000160: 7f5b 22bd 40c8 3fbd f67b 383d a7ce 713d
00000170: f700 ef3c 49dc 47bd f29f 26bd 6372 47bd
00000180: e368 31bc 2408 613d 2a52 86bc a3f2 413d
00000190: 7dc4 9a3d df60 fa3c b2ce 0ebb f7c2 2cbd
000001a0: 02f1 d0ba d865 03bd 9c2f 443c 876c 633d
000001b0: 46c6 383c 8be0 6d3b 3f1b 653d ab42 2d3d
000001c0: 1747 93bc 115a a53c d05a 943d 6763 7dbd
000001d0: 750e 263c 995a 79bd 28a8 b13c 0786 0ebd
000001e0: a614 56bd 0e54 023c e1ef 153d c525 d0bc
000001f0: 18a9 f43c a1f6 81bc c615 7e3c 4a5b 773d
00000200: d180 513d e24e 85bd 1646 31bd e13c 383c
00000210: 644d d4bc c13a d73c eb71 0cbd 5b04 9f3d
00000220: 3421 20bd 5e85 2abd 2af3 9c3b 631d 27bc
00000230: f4c6 143c 3031 5e3b b3d5 78bc 8801 3e3d
00000240: f0c2 48bd 7d5d ac3c 2414 5e3d c2cc f5bb
00000250: 83f6 ce3c abf4 0c3d 7575 d53c 0932 99bc
00000260: a03a f53b 976c 9cbc 756f 6c3d a5e9 5dbd
00000270: 1dac fe3c d6c6 ec3c cb29 3abd f17e e33b
00000280: c57c d03c 5277 8f3d 455b b43c 84d9 4ebd
00000290: f04a 2e3d c108 3ebd 25ea 063c ac52 2d3d
000002a0: 576d 60bb 7632 633d c760 873c b2a6 643d
000002b0: d26a 823d e752 d83c b60a 1f3d e241 433d
000002c0: dc95 d93b 5a42 3b3c 54ea 103d d5ac 52bd
000002d0: 7d39 30bc 80ee 5ebd 1104 9dbc fd0a 82bc
000002e0: 09ab cbbc cf97 d53c 32f2 3b3d 6f4f 0d3d
000002f0: 2799 20bd 61ee 863c 3bee e03c d725 85bc
00000300: 72a2 1d3c c536 6ebd 4f03 17bc 01c4 bebc
00000310: 048a 2bbd e8e1 a33d a0bc 433d 1ac7 543d
00000320: 1830 07bd ef2c 36bd b564 5c3c fb6b 043d
00000330: 3025 28bd ea6b 9bbd 3613 603d 70fd 66bc
00000340: 6852 8e3d c6e4 5fbd 6980 60bd 59dc 68bd
00000350: a370 33bc 0612 e63c 1bdd c3bc f975 a2bc
00000360: 8514 523d 46a3 00bd 51db 92bc 57ae 873d
00000370: cb25 92bd 6c86 8bbd 82fb 5a3d c0f6 913d
00000380: 6072 283c c4e1 533d 9ed3 883d 3df3 14bd
00000390: cb3a 16bd 92a1 623c c4b5 8e3d ec62 123d
000003a0: 5238 0b3d a421 efbc d2a2 2f3d 4111 0fbd
000003b0: f0bb 57bd ed16 803d 11fe f8bc 865b 4abd
000003c0: 19e0 933d d013 21bd edd5 23bc cc30 8f3d
000003d0: 8f36 28bd 567f 53bd 4cf4 bb3a 8a89 5e3c
000003e0: 6225 11bd 73ee 933d 6737 00bd e591 bd3c
000003f0: 4d1c 023c b2bd 3f3d 7971 6bbd 6f7f 80bd

lin2.bias f4 [96]
-0.030680342 0.014676223 -0.00073655753 0.0120864 -2.1524906e-07 -0.00023911001 -1.5221008e-06 2.903942e-06
6.640477e-05 -0.02085393 0.025156882 -3.147863e-07 -0.005087366 -0.011784824 0.0054784105 -0.02219023
0.008129762 0.024307178 0.0034600678 0.004248238 0.0009346457 0.005921281 -1.3757654e-05 -0.00053741643
-0.0286929 0.023434378 0.0027167306 0.00252764 -0.007635702 3.1571566e-05 0.00713783 -0.020428345
0.0037388632 -0.023840966 -0.01981233 -0.02306974 0.00311812 1.2374369e-07 0.0037822605 -0.008499917
-0.03045829 -0.0011766108 -0.032267883 0.005589715 -0.0004926803 6.4763174e-07 0.0006256304 0.0067632576
-1.5974555e-06 -0.0029915457 1.8235603e-08 0.008810005 0.0015513761 5.72917e-05 -0.017258268 0.029032841
0.0015435443 -1.1606251e-07 0.0005138571 0.017444728 0.011119255 -0.013157011 -8.4126305e-07 1.13982736e-07
-0.009431798 -0.00045037406 0.026133584 0.003870024 1.9379738e-06 0.027509881 -0.025142701 0.026702693
8.681648e-08 -8.1402493e-07 -0.0099015655 -0.017301926 0.013908554 -2.348176e-07 -0.02238186 -0.017884713
-0.0011310896 -0.00699603 0.003897125 3.993982e-06 1.3830039e-06 0.012646246 -0.020148784 0.03188155
-0.0030848444 0.02023058 0.006175374 0.024062583 -0.021393936 2.4705018e-06 0.028880019 -0.010503535
00000000: 5755 fbbc 8a74 703c 8a15 41ba 0906 463c
00000010: 361f 67b4 9bb9 7ab9 fc4a ccb5 58e1 4236
00000020: ca42 8b38 dcd5 aabc ce15 ce3c e6ff a8b4
00000030: ebb3 a6bb 2215 41bc 3d84 b33b 49c8 b5bc
00000040: b132 053c d91f c73c 4ec2 623b ce34 8b3b
00000050: 0303 753a 4e07 c23b add0 66b7 68e1 0cba
00000060: 5f0d ebbc 74f9 bf3c 2d0b 323b c3a6 253b
00000070: e934 fabb b66b 0438 75e4 e93b 5859 a7bc
00000080: b707 753b 214e c3bc 784d a2bc c0fc bcbc
00000090: 5f59 4c3b 68de 0434 cddf 773b 3c43 0bbc
000000a0: aa83 f9bc 8238 9aba 542b 04bd ee29 b73b
000000b0: 3727 01ba ead8 2d35 5801 243a 519e dd3b
000000c0: 2768 d6b5 cf0d 44bb 84a4 9c32 d757 103c
000000d0: 8b57 cb3a 7f4c 7038 3661 8dbc 48d6 ed3c
000000e0: c150 ca3a 0a3e f9b3 5eb4 063a 3fe8 8e3c
000000f0: 892d 363c 8190 57bc 28d3 61b5 acc6 f433
00000100: d487 1abc 2f20 ecb9 1916 d63c 3ba0 7d3b
00000110: 230e 0236 675c e13c 11f8 cdbc 9bbf da3c
00000120: dd6f ba33 5e83 5ab5 2d3a 22bc c5bc 8dbc
00000130: b4e0 633c 2c22 7cb4 2a5a b7bc f682 92bc
00000140: 1241 94ba f43e e5bb e866 7f3b 0b04 8636
00000150: a79f b935 3332 4f3c 100f a5bc 3a96 023d
00000160: 1a2b 4abb 9aba a53c cb5a ca3b e51e c53c
00000170: 5642 afbc e6ca 2536 ca95 ec3c 0517 2cbc

lin3.weight f4 [40, 96]
-0.06771466 0.093066394 0.078521684 -0.03294784 -0.082493156 -0.06778422 -0.08540813 0.034564894
0.06864959 -0.00087210635 -0.058919482 0.020794729 0.05520718 -0.058386274 0.03712045 0.021827357
-0.08162956 -0.085221544 0.05875772 -0.03206406 0.06782248 -0.04719659 -0.054306034 -0.08462649
-0.053043477 0.03310331 0.00809 0.014357978 -0.0809477 0.06917227 -0.07573831 -0.04826981
0.098428816 -0.051454607 0.024647893 0.053404987 -0.05207479 0.044536676 0.021762406 0.013471513
-0.004106627 -0.072448075 -0.022289056 0.02041853 -0.005088118 0.090161584 -0.10549536 -0.04571626
-0.02755064 0.035404865 0.047592558 0.045984097 -0.07488335 0.021635706 0.073590636 -0.076831125
-0.048233524 0.10996134 0.09479119 0.0019342442 0.1069694 -0.0893443 -0.054514043 -0.04970885
-0.007292109 -0.028278142 0.04484449 -0.037971366 -0.043963782 -0.034552567 -0.053362507 0.03033897
-0.036990907 0.06683665 0.07328801 0.08027932 -0.06875435 0.020115286 -0.055419117 -0.04528732
0.070484504 -0.016765714 0.03856941 -0.052275207 0.022598147 -0.019620137 0.0183701 0.034313966
0.05452218 -0.05908961 -0.039171893 -0.071959205 0.03567076 0.0033600572 0.07161598 -0.07312825
-0.074969 -0.00071009493 -0.052831788 0.018688127 -0.044111915 0.08456061 -0.040769976 -0.0897666
-0.005445093 0.03837848 -0.013947885 0.10760865 0.037740953 -0.052798603 -0.011041303 0.009519357
-0.02360209 0.0636675 -0.03340138 0.051586017 -0.0292373 0.103930905 0.045799825 0.08900693
0.032528643 0.078237355 -0.085298136 -0.107095435 -0.05577181 0.0632974 0.096120566 -0.09212001
-0.003135975 -0.052851282 0.08952817 -0.033206847 0.09099826 0.017463211 0.09448997 0.05428717
-0.04065863 -0.10742052 0.007854249 0.0735005 0.013472291 -0.07022663 -0.057931226 0.09142105
0.10724731 -0.048731532 -0.059608746 0.01563497 -0.095924184 0.0030530216 -0.021192014 0.039324123
-0.017859962 -0.0073208483 0.04611745 -0.0026536344 -0.006269682 -0.055586226 0.0557908 0.04043738
-0.07771247 -0.0008442863 0.046578012 -0.06838167 0.07007576 -0.061509322 0.020809809 -0.070912234
0.022197591 -0.08170752 -0.005942367 0.06995128 -0.013206083 0.11590802 -0.06280486 -0.06435988
0.018347505 0.07466206 -0.034456585 0.11309578 0.006110423 -0.10246341 -0.011236244 -0.025086015
-0.017472114 -0.03301262 -0.0308029 -0.07315155 -0.007736265 -0.07320419 0.032922033 -0.031640362
-0.053187497 -0.015624554 -0.031489607 -0.10079393 0.046728425 0.057623297 0.09423432 -0.08092318
-0.06754153 0.0511441 -0.07583113 0.06752165 -0.0072038313 -0.06245136 0.060981218 0.010691536
-0.02901093 -0.08172153 0.10370793 -0.07461398 -0.09116753 0.08558331 0.005446731 0.027456524
0.055672344 0.08544118 -0.03189263 -0.056425497 0.1095809 -0.023429338 -0.09614378 -0.046959486
0.025558922 -0.093888305 -0.105343804 0.043558218 0.04407798 0.0149189485 0.047904443 -0.09534627
-0.074933425 0.07973126 -0.036429208 0.064615786 -0.03308927 0.040615458 0.02594575 -0.069911316
-0.0251691 0.037031397 -0.033369202 -0.083988376 -0.052594386 -0.028309377 -0.02889806 -0.114253305
-0.012128094 -0.09533351 0.02433572 0.018718055 -0.09679916 0.09121311 -0.032486305 -0.030458419
00000000: fcad 8abd 9899 be3d facf a03d 50f4 06bd
00000010: 2cf2 a8bd 74d2 8abd 75ea aebd eb93 0d3d
00000020: 2898 8c3d 119e 64ba 8e55 71bd b559 aa3c
00000030: ed20 623d 7226 6fbd 9d0b 183d 49cf b23c
00000040: 662d a7bd a288 aebd efab 703d 9b55 03bd
00000050: 83e6 8a3d 3651 41bd 0170 5ebd a750 adbd
00000060: 1e44 59bd 5697 073d eb8b 043c b93d 6b3c
00000070: e8c7 a5bd 31aa 8d3d b01c 9bbd 90b6 45bd
00000080: 0c95 c93d 11c2 52bd 61ea c93c 30bf 5a3d
00000090: 604c 55bd 176c 363d 1347 b23c 9fb7 5c3c
000000a0: e290 86bb a85f 94bd 8a97 b6bc c344 a73c
000000b0: 3aba a6bb a3a6 b83d f40d d8bd f940 3bbd
000000c0: e1b1 e1bc b104 113d 6af0 423d d259 3c3d
000000d0: 715c 99bd 5d3d b13c b0b6 963d a359 9dbd
000000e0: 8490 45bd 6933 e13d e221 c23d 7786 fd3a
000000f0: c612 db3d 25fa b6bd 1e4a 5fbd 829b 4bbd
00000100: a5f2 eebb 90a7 e7bc dbae 373d dd87 1bbd
00000110: 5e13 34bd fe86 0dbd a592 5abd 6e89 f83c
00000120: c783 17bd a7e1 883d 0618 963d 7c69 a43d
00000130: 15cf 8cbd d0c8 a43c 28ff 62bd 327f 39bd
00000140: 2e5a 903d 4058 89bc f5fa 1d3d 871e 56bd
00000150: c01f b93c 69ba a0bc e47c 963c cd8c 0c3d
00000160: a652 5f3d f207 72bd b572 20bd 595f 93bd
00000170: 811b 123d 6834 5c3b 66ab 923d 44c4 95bd
00000180: 5989 99bd aa25 3aba 2566 58bd d817 993c
00000190: b2ae 34bd 1d2e ad3d 6bfe 26bd 8dd7 b7bd
000001a0: c06c b2bb c132 1d3d ab85 64bc ed61 dc3d
000001b0: 4296 1a3d 5943 58bd 95e6 34bc 14f7 1b3c
000001c0: 2c59 c1bc 1b64 823d e3cf 08bd dc4b 533d
000001d0: 1083 efbc bad9 d43d 9998 3b3d 4449 b63d
000001e0: c13c 053d e83a a03d cab0 aebd da54 dbbd
000001f0: fb70 64bd 11a2 813d dcda c43d 6aa9 bcbd
00000200: ee84 4dbb 967a 58bd 8c5a b73d e703 08bd
00000210: 4c5d ba3d 020f 8f3c f583 c13d 395c 5e3d
00000220: aa89 26bd 4aff dbbd 1caf 003c 6e87 963d
00000230: e2ba 5c3c fbd2 8fbd 4b49 6dbd f63a bb3d
00000240: 7aa4 db3d b79a 47bd 4d28 74bd e914 803c
00000250: e673 c4bd 3415 483b e09a adbc 5512 213d
00000260: 0e4f 92bc bae3 efbb a7e5 3c3d 99e8 2dbb
00000270: e871 cdbb 62ae 63bd e584 643d aba1 253d
00000280: b727 9fbd 1853 5dba 96c8 3e3d b00b 8cbd
00000290: e183 8f3d 33f1 7bbd 5579 aa3c 6f3a 91bd
000002a0: b9d7 b53c 4656 a7bd 30b8 c2bb 9e42 8f3d
000002b0: 545e 58bc 2f61 ed3d d69f 80bd 1dcf 83bd
000002c0: 824d 963c 6ce8 983d 5922 0dbd c39e e73d
000002d0: f139 c83b 56d8 d1bd 3918 38bc 3081 cdbc
000002e0: ae21 8fbc 3e38 07bd 5d56 fcbc 7bd0 95bd
000002f0: 7f80 fdbb 14ec 95bd 41d9 063d 5399 01bd
00000300: 22db 59bd 21fe 7fbc 3ffb 00bd 0c6d cebd
00000310: 4e66 3f3d 6806 6c3d ecfd c03d 0dbb a5bd
00000320: 3753 8abd 7a7c 513d 5a4d 9bbd ca48 8a3d
00000330: 1e0e ecbb ffcc 7fbd 71c7 793d 8d2b 2f3c
00000340: 54a8 edbc 9e5d a7bd d364 d43d 37cf 98bd
00000350: 0bb6 babd 4d46 af3d 7e7a b23b 81ec e03c
00000360: af08 643d c9fb ae3d d9a1 02bd 6c1e 67bd
00000370: f36b e03d e2ee bfbc 08e7 c4bd 9758 40bd
00000380: f260 d13c 8348 c0bd 7ebe d7bd 1a6a 323d
00000390: 1d8b 343d 9b6e 743c 7337 443d e844 c3bd
000003a0: b276 99bd 254a a33d cb36 15bd 4855 843d
000003b0: 9d88 07bd 655c 263d 2e8c d43c aa2d 8fbd
000003c0: 6e2f cebc 3cae 173d 25ae 08bd 1902 acbd
000003d0: 366d 57bd 11e9 e7bc a0bb ecbc a3fd e9bd
000003e0: eab4 46bc 373e c3bd b45b c73c 9b56 993c
000003f0: a33e c6bd f0cd ba3d 5c10 05bd ef83 f9bc

lin3.bias f4 [40]
0.011417861 -0.014417266 0.013861139 0.00057483657 -0.032801174 0.022216443 0.004581234 0.005559664
0.013882175 0.0027619565 7.248239e-07 1.9841737e-07 -0.04276859 -1.2908289e-07 0.0009004193 -0.0020337682
-0.012687296 -0.04473576 -0.0026410997 0.007131564 -0.0002170663 0.0019402786 -0.052317735 0.03341061
-0.021144943 -0.051709086 0.029573668 0.005747826 0.021122802 0.056437965 0.011077013 0.03490646
-0.0028650188 -0.03730865 0.03670108 -2.9662215e-06 -3.741802e-06 -0.030229058 0.029442798 -0.00063757703
00000000: fb11 3b3c 6536 6cbc d519 633c a1b0 163a
00000010: 865a 06bd 42ff b53c 2d1e 963b d82d b63b
00000020: 1072 633c f101 353b 8591 4235 8d0c 5534
00000030: 1e2e 2fbd 099a 0ab4 1e0a 6c3a f848 05bb
00000040: 60de 4fbc d83c 37bd 4d16 2dbb e5af e93b
00000050: 4b9c 63b9 f250 fe3a 1f4b 56bd 90d9 083d
00000060: 2938 adbc e8cc 53bd 7a44 f23c 4258 bc3b
00000070: ba09 ad3c 7f2b 673d 5c7c 353c 14fa 0e3d
00000080: 0ac3 3bbb f4d0 18bd df53 163d 4c0f 47b6
00000090: ab1b 7bb6 eea2 f7bc 0632 f13c 1223 27ba

lin4.weight f4 [1, 40]
-0.024191253 -0.06818436 0.08053934 -0.02176322 -0.008369388 0.12466351 -0.0133679435 -0.005070942
0.1863348 0.026242724 -0.12388668 0.03558025 -0.045541327 -0.010388387 -0.10827787 -0.11024233
-0.02753664 -0.08309658 -0.07820985 0.0549047 0.03927011 0.105003834 0.11759915 0.15316844
0.054241672 -0.052856203 0.096043855 0.058837123 0.12805142 -0.12698622 -0.079758726 0.0749373
0.17965737 0.0003872767 0.101383574 0.13537192 0.08791412 0.09824698 -0.13304622 0.1228942
00000000: bc2c c6bc 3ea4 8bbd cff1 a43d c848 b2bc
00000010: c21f 09bc 954f ff3d 3805 5bbc 252a a6bb
00000020: 8dce 3e3e fbfa d63c 4db8 fdbd 99bc 113d
00000030: 8b89 3abd 0e34 2abc cac0 ddbd bbc6 e1bd
00000040: 8594 e1bc 8a2e aabd 7c2c a0bd c0e3 603d
00000050: b2d9 203d 400c d73d d3d7 f03d 30d8 1c3e
00000060: 842c 5e3d bf7f 58bd a4b2 c43d 32ff 703d
00000070: e91f 033e ad08 02be 8b58 a3bd ba78 993d
00000080: 1af8 373e 660b cb39 31a2 cf3d f09e 0a3e
00000090: 510c b43d b635 c93d 453d 08be f4af fb3d

bn1.weight f4 [180]
1.0145051 1.0133327 0.9973885 0.98589283 0.99275815 0.9902669 0.99764746 1.0102692
1.0103515 0.99574655 0.98959416 1.009872 1.006724 0.9957667 0.9936457 1.0054051
0.99300635 0.993376 0.9841929 0.99765295 0.99542385 0.9860366 0.99701184 0.98233545
0.99764377 0.9898336 0.99626344 0.9922261 0.9927553 1.010071 0.99673235 1.0065514
1.004724 0.9929736 0.99103445 0.99639773 0.99814796 0.99591494 0.9927642 0.99565023
0.9967502 0.9928327 0.9881669 0.9991158 0.9950475 0.9999917 0.99536556 0.98908216
0.99292505 0.990851 0.9935052 0.99192923 0.98466265 1.0011653 0.98500276 0.9862894
0.99491614 0.9978572 0.98954093 1.003674 1.0023485 1.0033482 0.9988146 0.98479897
0.9982287 1.0024533 0.9858213 0.99201745 0.9937582 0.99290127 0.9857753 0.98896384
1.0108603 1.0036143 0.99487054 1.0038995 0.9910559 0.9886994 0.99197495 0.9916199
0.9995005 0.99503565 0.98745555 1.0051085 0.9943384 0.99225837 1.001583 0.9932988
0.9942245 0.99475306 1.0112628 0.99354017 0.9889495 0.99340713 0.99714094 0.9999287
0.98415935 0.9973019 0.9859134 0.99723005 0.99672383 0.99260217 0.9951815 0.9886423
0.9962814 0.9911294 0.9946731 0.9953206 0.99559766 0.9887111 1.0011574 0.99708515
1.0007937 0.99166024 1.0035584 1.0029988 0.99915063 1.0082997 0.98195153 1.0044048
0.9929269 0.9961727 0.9962441 1.0002846 0.9947938 1.0026224 0.9950942 0.99220264
0.9967695 1.0111073 0.9915935 0.9921578 0.9924414 0.9969318 1.004813 1.0062749
0.9935625 0.9963132 0.9997914 0.98785216 0.99822336 0.98708117 1.0177101 0.9946302
0.99981123 1.0124811 0.98653555 0.98032725 0.9954503 0.99439013 0.99964964 1.0029511
1.0020287 1.0004572 1.0035785 0.99163836 0.9971265 1.0032245 0.9904778 0.99230266
0.993846 0.9979337 1.0045785 0.9969805 1.0038977 0.99822783 0.99785167 0.9961141
0.98885363 0.9872672 0.996682 0.9893297 0.99838525 1.0083159 0.99779534 0.9985967
0.99393696 0.998496 0.9997555 0.99606013
00000000: 4edb 813f e3b4 813f da54 7f3f 7963 7c3f
00000010: 6625 7e3f 2282 7d3f d365 7f3f 8050 813f
00000020: 3353 813f 3fe9 7e3f 0b56 7d3f 7c43 813f
00000030: 55dc 803f 91ea 7e3f 915f 7e3f 1db1 803f
00000040: aa35 7e3f e44d 7e3f 11f4 7b3f 2f66 7f3f
00000050: 19d4 7e3f e56c 7c3f 2b3c 7f3f 567a 7b3f
00000060: 9565 7f3f bc65 7d3f 1f0b 7f3f 8802 7e3f
00000070: 3625 7e3f 024a 813f da29 7f3f add6 803f
00000080: cc9a 803f 8533 7e3f 6fb4 7d3f ec13 7f3f
00000090: a086 7f3f 48f4 7e3f cb25 7e3f efe2 7e3f
000000a0: 052b 7f3f 492a 7e3f 82f8 7c3f 0ec6 7f3f
000000b0: 6fbb 7e3f 75ff 7f3f 47d0 7e3f 7d34 7d3f
000000c0: 5630 7e3f 69a8 7d3f 5b56 7e3f 13ef 7d3f
000000d0: da12 7c3f 2f26 803f 2429 7c3f 767d 7c3f
000000e0: d3b2 7e3f 9273 7f3f 8e52 7d3f 6478 803f
000000f0: f54c 803f b76d 803f 50b2 7f3f c91b 7c3f
00000100: eb8b 7f3f 6450 803f c95e 7c3f dbf4 7d3f
00000110: f066 7e3f c72e 7e3f c55b 7c3f bc2c 7d3f
00000120: df63 813f 6f76 803f d6af 7e3f c77f 803f
00000130: d7b5 7d3f 671b 7d3f 12f2 7d3f cdda 7d3f
00000140: 44df 7f3f a8ba 7e3f e3c9 7c3f 65a7 803f
00000150: f68c 7e3f a504 7e3f df33 803f d548 7e3f
00000160: 7f85 7e3f 23a8 7e3f 0f71 813f a658 7e3f
00000170: cb2b 7d3f ee4f 7e3f a144 7f3f 54fb 7f3f
00000180: def1 7b3f 2d4f 7f3f d264 7c3f 784a 7f3f
00000190: 4b29 7f3f 2d1b 7e3f 37c4 7e3f a917 7d3f
000001a0: 4c0c 7f3f a8ba 7d3f e5a2 7e3f 55cd 7e3f
000001b0: 7ddf 7e3f 2c1c 7d3f ed25 803f f940 7f3f
000001c0: 021a 803f 72dd 7d3f 9a74 803f 4462 803f
000001d0: 56c8 7f3f f70f 813f 2d61 7b3f 5690 803f
000001e0: 7530 7e3f 2d05 7f3f da09 7f3f 5309 803f
000001f0: ceaa 7e3f ee55 803f 7ebe 7e3f fe00 7e3f
00000200: 492c 7f3f f76b 813f 12d9 7d3f 0efe 7d3f
00000210: a410 7e3f ec36 7f3f b69d 803f 9ecd 803f
00000220: 1d5a 7e3f 620e 7f3f 54f2 7f3f e1e3 7c3f
00000230: 918b 7f3f 5ab1 7c3f 5344 823f 16a0 7e3f
00000240: a1f3 7f3f fb98 813f 988d 7c3f baf6 7a3f
00000250: d5d5 7e3f 5a90 7e3f 0ae9 7f3f b460 803f
00000260: 7a42 803f fb0e 803f 4375 803f 03dc 7d3f
00000270: af43 7f3f a969 803f f48f 7d3f 8c07 7e3f
00000280: b16c 7e3f 9578 7f3f 0796 803f 1d3a 7f3f
00000290: b87f 803f dc8b 7f3f 3573 7f3f 5501 7f3f
000002a0: 8325 7d3f 8bbd 7c3f 8d26 7f3f b644 7d3f
000002b0: 2d96 7f3f 7f10 813f 846f 7f3f 09a4 7f3f
000002c0: a772 7e3f 6f9d 7f3f faef 7f3f ccfd 7e3f

bn1.bias f4 [180]
-0.003271701 0.008009344 -0.00017764865 0.0008611426 -0.0035110314 -0.011613929 -0.00265873 0.002494726
0.0012468752 -0.0123239355 -0.007054952 0.007450951 -0.004370954 0.0003792768 -0.005258977 -0.0027841143
-0.0058110086 -0.008392588 -0.011148692 0.0022435861 0.002639989 -0.0067301216 -0.0037689628 -0.0106755365
-0.012651527 -0.010824142 -0.0015212807 -0.00878214 -0.010265702 -0.0075261705 -0.004558366 0.00398379
0.00495368 -0.013066363 0.0031726994 0.0036666475 -0.0031598168 -0.0077332244 -0.0009518056 -0.0047861985
-0.0027770582 -0.0078605665 -0.0058963103 -0.005731826 -0.0017641129 -0.008802974 -0.00398007 -0.009607821
-0.0012038354 -0.010128033 0.0009034056 -0.010937948 -0.007021848 -0.0020469613 -0.010629315 -0.013307113
-0.008766359 -0.0023181797 6.958072e-05 0.005314909 0.00031384584 -0.011765215 -0.00041859064 -0.009300337
0.008477599 0.008079998 -0.007810631 0.0020770626 0.00040177422 -0.009156009 -0.009752234 -0.0048443996
0.0031301782 -0.0055394717 -0.005659899 0.00418615 -0.0028866353 -0.01253146 -0.0034001153 -0.0020524852
0.0018534759 -0.007149422 -0.009185397 -0.00425846 -0.00013844523 -0.006977018 0.0019255532 -0.0030653193
-0.008335028 0.00043883716 0.010255243 -0.0058470564 -0.009589861 -0.0014412435 -0.003973889 -0.0076517127
-0.017542077 -0.003988084 -0.007912167 -0.0046199453 -0.002939986 -0.011386632 -0.011759126 -0.0041735293
-0.004406836 0.0015787793 -0.0032261622 0.004201127 0.0014510854 -0.0027340373 -0.001250339 -0.010995985
-0.005667022 0.0032624654 -0.013820312 -0.0067417263 -0.0020547223 -0.007046797 -0.015600083 -0.0047942135
-0.0022212134 -0.005664727 -0.005323706 -0.004503693 -0.0058810688 -1.5261796e-05 -0.004354622 -0.007957704
-0.00086018856 -0.007377383 -0.011869244 0.0015189962 -0.0007976057 0.00037468912 0.0018009004 -0.0042209225
-0.010215683 -0.009770228 -0.0072090426 -0.004572667 -0.005631781 -0.011038713 -0.011956687 -0.002892519
0.00090430625 -0.008302997 -0.0029066622 -0.014244798 -0.0031323517 0.0024387983 -0.012585586 0.0067033344
0.0036346612 -0.01030742 0.002084601 -0.006611186 -0.0009592421 0.00336579 -0.0063822092 -0.013135939
-0.0019956222 0.00096718065 -0.0076877037 -0.0047091953 0.001745923 -0.0041573294 -0.0034896997 0.003188836
-0.0046533323 -0.007989046 -0.010485735 -0.0069721583 0.0006708983 0.0038983086 -0.0032644542 -0.001462251
-0.016802741 -0.0016756448 -0.003037746 -0.010501274
00000000: 096a 56bb a039 033c 3247 3ab9 4dbe 613a
00000010: 5519 66bb 5948 3ebc 163e 2ebb 8f7e 233b
00000020: 306e a33a 55ea 49bc 3a2d e7bb 1b27 f43b
00000030: 383a 8fbb acd9 c639 7f53 acbb b075 36bb
00000040: 466a bebb 1181 09bc 01a9 36bc 2109 133b
00000050: aa03 2d3b 5a88 dcbb b400 77bb 72e8 2ebc
00000060: 5a48 4fbc be57 31bc b665 c7ba f7e2 0fbc
00000070: 7a31 28bc 189e f6bb 585e 95bb 748a 823b
00000080: 7b52 a23b 4c14 56bc 10ed 4f3b 234c 703b
00000090: ee14 4fbb fd66 fdbb 9882 79ba 8bd5 9cbb
000000a0: 4eff 35bb 9bc9 00bc d635 c1bb 0bd2 bbbb
000000b0: ce39 e7ba 593a 10bc 3f6b 82bb 1f6a 1dbc
000000c0: 03ca 9dba 0df0 25bc 86d2 6c3a 1435 33bc
000000d0: 8817 e6bb 5026 06bb 9426 2ebc 1406 5abc
000000e0: c6a0 0fbc 9aec 17bb ddeb 9138 b028 ae3b
000000f0: ad8b a439 e3c2 40bc 4976 dbb9 7160 18bc
00000100: a1e5 0a3c f861 043c 52f0 ffbb 541f 083b
00000110: 39a5 d239 1603 16bc d6c7 1fbc c5bd 9ebb
00000120: ad23 4d3b 7584 b5bb ad76 b9bb f92b 893b
00000130: b42d 3dbb c150 4dbc 78d4 5ebb fd82 06bb
00000140: 55f0 f23a b345 eabb 597e 16bc 8d8a 8bbb
00000150: 9c2b 11b9 789f e4bb d862 fc3a 86e3 48bb
00000160: a48f 08bc ba13 e639 9b05 283c aa98 bfbb
00000170: cb1e 1dbc 1be8 bcba 6637 82bb 38bb fabb
00000180: 67b4 8fbc 79ae 82bb 09a2 01bc e962 97bb
00000190: c8ac 40bb ff8e 3abc 59a9 40bc 1ac2 88bb
000001a0: 3867 90bb 0bef ce3a 056e 53bb 9ca9 893b
000001b0: 5932 be3a 892d 33bb 6ae2 a3ba 8128 34bc
000001c0: 6db2 b9bb 16cf 553b 976e 62bc b3e9 dcbb
000001d0: 85a8 06bb d1e8 e6bb 7e97 7fbc c718 9dbb
000001e0: c791 11bb 2d9f b9bb 7c72 aebb b793 93bb
000001f0: fbb5 c0bb 7506 80b7 38b1 8ebb 0861 02bc
00000200: 477e 61ba f9bd f1bb 3877 42bc 0e19 c73a
00000210: 6a16 51ba ec71 c439 310c ec3a aa4f 8abb
00000220: ae5f 27bc 4e13 20bc d539 ecbb 50d6 95bb
00000230: ce8a b8bb b8db 34bc fbe5 43bc 6b90 3dbb
00000240: f70e 6d3a 4b09 08bc b37d 3ebb 0363 69bc
00000250: 2448 4dbb 3fd4 1f3b c633 4ebc a5a7 db3b
00000260: 7f33 6e3b 74e0 28bc cd9d 083b a6a2 d8bb
00000270: a675 7bba 9694 5c3b da21 d1bb 1f38 57bc
00000280: fcc8 02bb 658a 7d3a 22e9 fbbb 984f 9abb
00000290: 74d7 e43a 353a 88bb 72b3 64bb cafb 503b
000002a0: fb7a 98bb 7de4 02bc 5ccc 2bbc b476 e4bb
000002b0: 39df 2f3a c47a 7f3b 74f0 55bb 00a9 bfba
000002c0: e7a5 89bc 4fa1 dbba ec14 47bb 890d 2cbc

bn1.running_mean f4 [180]
-0.04129591 -0.06465827 -0.09523981 0.12461174 -0.11641868 0.3542037 0.24811661 0.19764818
0.06362032 -0.13650522 -0.09811444 -0.16145892 0.11310763 0.15179773 0.2174212 -0.27883777
-0.28168955 -0.0917899 -0.14187653 0.45244643 0.3511502 -0.58838505 0.19371943 -0.3457386
-0.042381085 -0.17228404 0.3536019 0.075359136 -0.036829907 0.012154225 -0.3901727 -0.11905178
0.14101325 0.2556854 0.109024756 0.19474192 0.08180509 -0.10761059 0.039230917 0.08088256
0.15069255 0.11776174 0.20987797 0.07209991 -0.13072054 0.06639118 -0.09278078 0.67509043
-0.13027935 -0.28553146 0.06645107 0.22053011 -0.079763904 0.16574778 -0.13266292 0.025128923
-0.34146166 0.023848256 0.30130753 0.15548763 -0.00778348 -0.13580084 -0.2106573 0.17959754
0.1841218 -0.10454625 0.036053285 -0.41414404 0.18009709 -0.23127334 0.33454198 0.5938113
0.010277067 -0.07179226 -0.114234805 0.14056791 0.046327252 -0.037209153 -0.60150105 -0.04025568
0.4508488 -0.08072718 0.4386698 -0.15182291 -0.26606214 0.03360343 0.28231028 -0.15757295
0.31802943 0.3327445 0.02103502 0.049722433 -0.42825407 0.051903535 0.045861363 0.13627376
0.0036197933 -0.2819853 0.14819007 0.06733644 -0.18403348 0.21620817 0.008863149 -0.044953868
-0.036938615 -0.14203909 0.054719184 0.23315659 0.3148598 0.0733623 -0.06423838 -0.19070785
0.012847573 0.34289807 0.1415745 -0.092443064 -0.04847718 0.25209996 -0.08773269 -0.13441817
0.25744846 -0.44838792 -0.49245036 0.09493508 -0.14777353 -0.27356037 0.22100224 0.3047921
0.06355827 -0.2606588 0.022430109 -0.029576242 0.09166717 0.030553833 -0.07606427 0.050589558
-0.17938237 0.2538998 0.18376401 0.19130209 0.19062299 -0.20559686 -0.16297387 -0.3061707
0.052724697 0.0012524835 -0.06247551 0.1150254 -0.1954599 0.55776525 0.32046342 0.3142046
0.011209323 -0.015547258 -0.02038976 -0.23129648 -0.78371197 0.19255333 0.009701227 0.392011
0.47230676 0.0976264 -0.11207226 -0.088487625 -0.30894548 0.027269695 0.28722957 0.026546346
0.094308056 -0.097352326 0.43160173 -0.043465897 0.17723186 -0.19297367 0.07255252 0.18367851
0.104835056 -0.2258674 -0.31964847 0.26129752
00000000: e625 29bd 8e6b 84bd 170d c3bd 7134 ff3d
00000010: eb6c eebd 305a b53e 4812 7e3e 4964 4a3e
00000020: 5f4b 823d 06c8 0bbe 39f0 c8bd 7d55 25be
00000030: f9a4 e73d dd70 1b3e aaa3 5e3e d3c3 8ebe
00000040: 9d39 90be 58fc bbbd 1548 11be 0fa7 e73e
00000050: f6c9 b33e 67a0 16bf 635e 463e a604 b1be
00000060: ca97 2dbd 3a6b 30be 4f0b b53e e455 9a3d
00000070: f5da 16bd 8422 473c b7c4 c7be 6bd1 f3bd
00000080: c765 103e 32e9 823e 5f48 df3d 6d6a 473e
00000090: 6d89 a73d f162 dcbd 99b0 203d c1a5 a53d
000000a0: 264f 1a3e 112d f13d 40ea 563e 1ea9 933d
000000b0: 9bdb 05be 19f8 873d d903 bebd bad2 2c3f
000000c0: f367 05be 2e31 92be 8017 883d a5d2 613e
000000d0: 425b a3bd c9b9 293e cad8 07be 2cdb cd3c
000000e0: 10d4 aebe 6b5d c33c fb44 9a3e 2638 1f3e
000000f0: 900c ffbb 600f 0bbe 8cb6 57be 6be8 373e
00000100: 6d8a 3c3e 581c d6bd 9cac 133d b00a d4be
00000110: 5f6b 383e ebd2 6cbe 1649 ab3e 0404 183f
00000120: 2561 283c d207 93bd f0f3 e9bd 09f1 0f3e
00000130: a5c1 3d3d a068 18bd f9fb 19bf 24e3 24bd
00000140: a7d5 e63e 4b54 a5bd 5499 e03e 7777 1bbe
00000150: 4c39 88be c0a3 093d f98a 903e ce5a 21be
00000160: c1d4 a23e 7d5d aa3e a251 ac3c c0a9 4b3d
00000170: 1e44 dbbe cd98 543d 20d9 3b3d 598b 0b3e
00000180: 0e3a 6d3b 6160 90be 23bf 173e b0e7 893d
00000190: 4673 3cbe ad65 5d3e be36 113c 8c21 38bd
000001a0: f24c 17bd b272 11be 3921 603d 9ac0 6e3e
000001b0: 4e35 a13e f93e 963d 698f 83bd eb48 43be
000001c0: a07e 523c 5690 af3e e8f8 103e ca52 bdbd
000001d0: 0290 46bd 3f13 813e 32ad b3bd eba4 09be
000001e0: 49d0 833e 1a93 e5be 7422 fcbe 536d c23d
000001f0: f251 17be 1b10 8cbe 694e 623e b60d 9c3e
00000200: d72a 823d 1275 85be 59bf b73c e049 f2bc
00000210: ffbb bb3d 084c fa3c 96c7 9bbd ff36 4f3d
00000220: 03b0 37be 28ff 813e a22c 3c3e b2e4 433e
00000230: ac32 433e fc87 52be 9fe2 26be 68c2 9cbe
00000240: daf5 573d 5f2a a43a 52e6 7fbd 7092 eb3d
00000250: a426 48be b4c9 0e3f c813 a43e 6ddf a03e
00000260: 4fa7 373c edb9 7ebc 6d08 a7bc fcd8 6cbe
00000270: 59a1 48bf b32c 453e e5f1 1e3c aab5 c83e
00000280: 31d2 f13e 5af0 c73d 2486 e5bd 0039 b5bd
00000290: 1a2e 9ebe b264 df3c c10f 933e b977 d93c
000002a0: 9524 c13d a860 c7bd e7fa dc3e 4c09 32bd
000002b0: 457c 353e e49a 45be 6a96 943d 3816 3c3e
000002c0: c3b3 d63d c949 67be f7a8 a3be cac8 853e

bn1.running_var f4 [180]
0.03687664 0.028229056 0.034731254 0.039241508 0.04225812 0.04198271 0.06181353 0.034271006
0.0376049 0.044889927 0.06058129 0.051378738 0.04367496 0.049250014 0.042562768 0.032378998
0.039424516 0.026963107 0.050962765 0.07607803 0.048121534 0.06749346 0.057098128 0.081016146
0.044920765 0.044118002 0.05797529 0.039719246 0.04312119 0.037294697 0.06757628 0.04957066
0.040140823 0.0418645 0.05100218 0.053195108 0.042298272 0.04633342 0.038689513 0.036010906
0.07267427 0.03950629 0.0460054 0.04998244 0.038097795 0.037028085 0.03014045 0.112748705
0.06637991 0.044997092 0.046472248 0.062467393 0.027199998 0.04017889 0.050654903 0.046955694
0.06632136 0.03506981 0.054381516 0.029136973 0.046478864 0.040444586 0.03830777 0.04734859
0.052965008 0.038114164 0.052219003 0.06581129 0.04842506 0.07055467 0.08671453 0.089291334
0.035179812 0.05597678 0.03456748 0.048363604 0.03557296 0.040056136 0.052675378 0.043426886
0.07081272 0.05091245 0.075733684 0.043586787 0.037263457 0.034987923 0.04671468 0.06214924
0.07358069 0.043111686 0.045492932 0.049801312 0.07082864 0.043282617 0.04269965 0.047871914
0.04253626 0.04182136 0.06230453 0.04648169 0.047368288 0.042338826 0.04409652 0.04463613
0.06799856 0.030738018 0.06676335 0.06199851 0.053256813 0.03510362 0.04569668 0.044912416
0.035617605 0.04602188 0.040130824 0.04514507 0.04689065 0.039451547 0.06911364 0.059504956
0.056246433 0.05953884 0.09081136 0.042749118 0.076696694 0.054811455 0.055287503 0.06435307
0.034400403 0.03332456 0.049434695 0.04863764 0.056515254 0.04023846 0.054117665 0.036250114
0.042101152 0.048555452 0.05195828 0.037768018 0.036938205 0.03333299 0.04182399 0.043075643
0.046117976 0.026147885 0.040636733 0.06742811 0.037420593 0.06982391 0.0370536 0.050266195
0.028990565 0.035745483 0.037144553 0.035955664 0.09594296 0.05012416 0.034995202 0.058151
0.08392042 0.048209388 0.029944267 0.051538378 0.03998821 0.04210628 0.050632514 0.052456927
0.028077502 0.047510598 0.053363655 0.038222805 0.031487796 0.04423207 0.047633883 0.044710558
0.04489939 0.047876183 0.057141077 0.0496574
00000000: f60b 173d 9f40 e73c 5c42 0e3d b4bb 203d
00000010: da16 2d3d 10f6 2b3d 2f30 7d3d c15f 0c3d
00000020: 9807 1a3d 80de 373d 1624 783d 8372 523d
00000030: 84e4 323d 62ba 493d 4c56 2e3d d79f 043d
00000040: 9a7b 213d bce1 dc3c 55be 503d ccce 9b3d
00000050: 161b 453d 033a 8a3d badf 693d cbeb a53d
00000060: d6fe 373d 14b5 343d 7f77 6d3d a6b0 223d
00000070: d89f 303d 53c2 183d 6f65 8a3d 9b0a 4b3d
00000080: b46a 243d 1c7a 2b3d a9e7 503d 1de3 593d
00000090: f440 2d3d 1dc8 3d3d e578 1e3d 2c80 133d
000000a0: 3fd6 943d 59d1 213d 2970 3c3d 63ba 4c3d
000000b0: 6f0c 1c3d c3aa 173d 1be9 f63c cbe8 e63d
000000c0: 31f2 873d df4e 383d af59 3e3d cfdd 7f3d
000000d0: 88d2 de3c 9f92 243d 847b 4f3d 9d54 403d
000000e0: 7ed3 873d 5ca5 0f3d 27bf 5e3d a9b0 ee3c
000000f0: 9f60 3e3d 39a9 253d 9ce8 1c3d 98f0 413d
00000100: d6f1 583d 991d 1c3d 98e3 553d 12c8 863d
00000110: 5b59 463d f87e 903d 6397 b13d 60de b63d
00000120: b518 103d e847 653d a196 0d3d ea18 463d
00000130: f4b4 113d e711 243d 23c2 573d 64e0 313d
00000140: 4206 913d 9389 503d 431a 9b3d 0f88 323d
00000150: 91a1 183d 7f4f 0f3d e457 3f3d 3490 7e3d
00000160: 79b1 963d e195 303d cc56 3a3d 76fc 4b3d
00000170: 9b0e 913d 1d49 313d d4e5 2e3d 5715 443d
00000180: 803a 2e3d e04c 2b3d 0933 7f3d 9663 3e3d
00000190: 4005 423d 7a6b 2d3d 8d9e 343d 60d4 363d
000001a0: d442 8b3d 4cce fb3c 39bb 883d 26f2 7d3d
000001b0: d123 5a3d d0c8 0f3d 712c 3b3d 15f6 373d
000001c0: c4e3 113d 7081 3c3d 3860 243d 09ea 383d
000001d0: 6910 403d f297 213d 748b 8d3d 78bb 733d
000001e0: a962 663d 00df 733d 4efb b93d b319 2f3d
000001f0: 2813 9d3d fa81 603d 2675 623d 8bcb 833d
00000200: 70e7 0c3d 557f 083d 097c 4a3d 4338 473d
00000210: 8a7c 673d 15d1 243d 7caa 5d3d 007b 143d
00000220: 4272 2c3d 15e2 463d 35d2 543d a3b2 1a3d
00000230: 844c 173d 2c88 083d a24f 2b3d 1670 303d
00000240: 34e6 3c3d 1734 d63c b472 263d c017 8a3d
00000250: 5646 193d d7ff 8e3d 84c5 173d ede3 4d3d
00000260: 9f7d ed3c db69 123d e324 183d 3f46 133d
00000270: be7d c43d fe4e 4d3d 2157 0f3d be2f 6e3d
00000280: 78de ab3d 3577 453d ae4d f53c e819 533d
00000290: adca 233d a277 2c3d 0a64 4f3d 13dd 563d
000002a0: ca02 e63c 799a 423d d993 5a3d 848f 1c3d
000002b0: 59f9 003d b02c 353d bf1b 433d 6b22 373d
000002c0: 6ce8 373d d119 443d c30c 6a3d 8f65 4b3d

bn2.weight f4 [96]
0.9801781 0.9827722 0.98647517 0.99411875 0.98752016 0.9995865 0.99279547 0.99079716
0.9863842 0.99411017 0.9998164 0.9909871 0.9844617 1.024291 1.0051674 0.98941493
1.0142682 0.99602616 0.9868107 0.9839079 1.00102 1.0000063 1.0070599 0.98255867
0.99452126 0.9910638 0.9914623 1.020321 1.003914 0.99592423 0.9956284 0.9783023
0.98738253 1.0101652 0.9842875 0.9790059 0.9979002 1.0083693 0.9841892 0.99463207
0.98887515 1.0109684 0.994717 0.9903341 1.0062518 1.0094848 1.0079278 0.98133445
1.027685 0.98244756 0.9833721 1.0037584 1.0047344 0.99275774 1.0109004 0.9857677
0.99012566 1.0100104 0.9995664 0.97987 1.0021908 0.9894556 1.00401 0.9830156
0.993094 0.9897508 0.9946388 1.0086731 0.9912174 1.0045562 1.0066048 1.0155298
0.9861446 0.99515027 0.99428624 0.98978597 0.9999301 1.0046874 0.98712975 0.98104364
0.9987467 1.006908 0.9862634 1.0188181 0.9928502 0.992395 1.0089349 0.9910983
0.9824328 0.9962084 0.9965527 0.98430985 0.98994577 0.99074495 0.98604447 0.99224335
00000000: f4ec 7a3f f596 7b3f a389 7c3f 917e 7e3f
00000010: 1fce 7c3f e7e4 7f3f d827 7e3f e2a4 7d3f
00000020: ad83 7c3f 017e 7e3f f8f3 7f3f 55b1 7d3f
00000030: af05 7c3f f81b 833f 53a9 803f 4c4a 7d3f
00000040: 8ad3 813f 92fb 7e3f a09f 7c3f 63e1 7b3f
00000050: 6c21 803f 3500 803f 57e7 803f f788 7b3f
00000060: f298 7e3f 5bb6 7d3f 79d0 7d3f e199 823f
00000070: 4180 803f e4f4 7e3f 81e1 7e3f 0572 7a3f
00000080: 1ac5 7c3f 184d 813f 44fa 7b3f 21a0 7a3f
00000090: 6376 7f3f 3f12 813f d3f3 7b3f 35a0 7e3f
000000a0: ec26 7d3f 6a67 813f c6a5 7e3f 8986 7d3f
000000b0: dccc 803f cc36 813f c703 813f bc38 7b3f
000000c0: 2f8b 833f af81 7b3f 46be 7b3f 287b 803f
000000d0: 239b 803f 5f25 7e3f 2f65 813f 465b 7c3f
000000e0: e078 7d3f 0548 813f 95e3 7f3f c3d8 7a3f
000000f0: ca47 803f f64c 7d3f 6683 803f e9a6 7b3f
00000100: 693b 7e3f 4f60 7d3f a6a0 7e3f 331c 813f
00000110: 6cc0 7d3f 4c95 803f 6dd8 803f e1fc 813f
00000120: f973 7c3f 2bc2 7e3f 8b89 7e3f 9d62 7d3f
00000130: 6bfb 7f3f 9999 803f 89b4 7c3f ad25 7b3f
00000140: ddad 7f3f 5de2 803f c27b 7c3f a268 823f
00000150: 6e2b 7e3f 990d 7e3f c724 813f 9eb8 7d3f
00000160: b780 7b3f 8407 7f3f 141e 7f3f bbfb 7b3f
00000170: 166d 7d3f 76a1 7d3f 696d 7c3f a903 7e3f
